logs/longcp_homopower/ablation/per_variant/hetero/hetero_best.pt (torch, 286379 bytes, 90 tensors)

actor.network.task_encoder.0.weight f4 [64, 6]
00000000: ec61 c93e bbb0 9e3e f4c2 cd3e d81a 02bd
00000010: 9335 aebe 416e 86be 9cf6 ddbd 04af 623d
00000020: 41d2 07be 85ba 70be d274 07bd 10d5 833e
00000030: adc9 ad3e f05b 4ebe 9bb8 6fbe 6f05 9abc
00000040: d404 383e a722 3b3e ec6b 1bbe 27c1 103e
00000050: e26c 8ebd 44b3 48bd 538b a9be 19bb 953e
00000060: 5f57 93be b553 d03d e161 51be ed38 b0be
00000070: 554c d5bc 0db7 0a3e 1eb6 bfbe 962b f13c
00000080: 1c6f 1dbe 483c 6ebd b576 3abe ea52 50bd
00000090: f4fc bb3e 02ed c8be 28fe 45be aaa3 b13e
000000a0: de16 b0bc d0b4 adbd 88b7 0c3e 9788 30be
000000b0: 3789 2b3e 34fa 80be 6338 fbbd 0ef9 9f3e
000000c0: 5a60 233d c354 a5be 463a 7b3e f3e1 8abe
000000d0: 881b d8bc 5fa9 9aba fd60 38be 0b10 3b3e
000000e0: 344f 24bd 9f39 643e 356b 543e 7179 a3be
000000f0: 0617 9c3e 37b6 263c ca0b a53e 2b14 823e
00000100: 26f5 f5bd 4c89 a5bd 3012 19be 60e7 45be
00000110: 11d2 a13e 1fee c23e d128 393e a8c6 bb3e
00000120: 32ee 0d3e 1320 823d 6262 26be 440b c33e
00000130: d644 95be 6e65 9a3e 6f45 4cbd fa94 23be
00000140: 48e2 59bb 5d2f 803e 7195 b9be 0c10 a2be
00000150: c5b6 99bd ee23 cfbe 14dc 653d a608 94be
00000160: 8082 bbbe 1dd1 29be 2eeb 5fbe 9ecf 09bb
00000170: 191f 8c3e 659f cbbd 254a a63d 1bd7 3c3e
00000180: a601 e13d 6c67 a43c 978d 863d 2a20 763e
00000190: 99b6 bbbe a37a 26be c7c8 b83e 5f4c dbbd
000001a0: 3845 843e 01f9 a6be 0cc5 ba3d d48c 43bc
000001b0: 91e0 c3be 50f9 ba3d b113 46bd baec cabe
000001c0: 9c36 02be a835 ac3e df9f a73d b43f 7fbe
000001d0: c0db 57be c1b5 3ebe 5b9c 58be e96f 9d3d
000001e0: e51f 44be 3fc1 943e a84b 5f3e 0144 993e
000001f0: 7374 eb3b 72de bc3e 120d afbe c982 61be
00000200: 7ed6 6dbe a25d 433e 2cbf c6be 4016 46be
00000210: 33a2 263e 809e c33e 2b06 883e d3d5 2c3e
00000220: db9b 93be dec3 fd3d c82f 18be 3f62 c13c
00000230: fa22 55bd 979d c33e 3366 883e bef5 2e3d
00000240: 5b40 cbbe f0c5 a33e 7460 8f3e 3d0c 0e3e
00000250: ec91 cebe 9be1 8abe 7535 5c3e 1418 c4be
00000260: 8c47 323e 5b02 413d 240e bf3e 3c1f 0f3e
00000270: c4bc 5c3e 9b18 073e 7c83 45be 1a15 63be
00000280: 98a7 cabe ef79 82bd fcea c63b e9ef 06be
00000290: 6376 e73d 908f 923e 2c99 083d 3e64 22be
000002a0: 1122 b6be 09ce 56be b936 013e e19f c2be
000002b0: c2a4 cfbe b5b3 b53c 1f89 303c f04c a4be
000002c0: 30b2 c53d 57ad 363e 25c0 a2be 5547 78bd
000002d0: 1ea3 773e f877 ba3e 7435 92be 22ae 60be
000002e0: 27bc 6cbe dbce 54be 0c11 87be 8647 a03e
000002f0: 9f87 d0bc 5ee2 9ebe 3653 94be 91b6 b1be
00000300: 0fcd c4be a481 be3c 701f 1f3d 0eac 703e
00000310: d306 ad3e 0764 933e 86e4 b53e 674d 22be
00000320: 9164 9dbe 315c 1abd 27fd b3bd 69e7 9ebc
00000330: af99 1f3c 7c2b 6bbe 9574 b2be 08f9 2bbe
00000340: 7c0e 9d3d d41f 563e 3a73 bbbe babc bbbe
00000350: a88c c6bc 2f31 20be f744 2abe 0025 cabe
00000360: 13d5 3b3e 88da 8cbd 84d4 a43e 533d 86be
00000370: 1cf0 bdbe 4293 adbb ee67 c53d 49f2 733e
00000380: dc79 45bd c496 a03e 1b04 64be 520f b1be
00000390: 896e 4ebe 1308 27be 3e1d 103e 355b a73e
000003a0: 0664 c43e 66e2 46be 6d55 c7bd 43a2 87bd
000003b0: ee5b 193e 007f 00be 985f 14be ae35 913d
000003c0: 9a30 85be 894e b33e 01ba b5be 33a7 b8be
000003d0: c404 b5bc 6aa9 93be fd4a 38be c921 743e
000003e0: 3212 e0ba bed8 39bd 6374 c3be 7989 08be
000003f0: 5189 0bbe a10d 9a3e ff2d 243e b958 19bd
0.3933252 0.3099421 0.401878 -0.03176388 -0.3402525 -0.26255992 -0.10838053 0.05534269
-0.13263799 -0.23508652 -0.033070393 0.2574849 0.3394293 -0.20152259 -0.23410265 -0.018801419
0.17970592 0.18274938 -0.15177888 0.14136182 -0.069543615 -0.048999086 -0.33114108 0.29244307
-0.28777596 0.10172216 -0.20447494 -0.3441843 -0.026037375 0.13546391 -0.37443632 0.029439729
-0.15374416 -0.058162957 -0.18209346 -0.050860323 0.36716425 -0.39243323 -0.19335234 0.34695178
-0.021495279 -0.08481753 0.13741887 -0.17239605 0.16751562 -0.2519089 -0.12266614 0.312447
0.03988681 -0.3229123 0.24533948 -0.2712551 -0.026380315 -0.0011799744 -0.18005748 0.18267839
-0.040114596 0.22287606 0.20744021 -0.3192859 0.30486315 0.010175279 0.32235557 0.25406012
-0.12009649 -0.08082828 -0.14948344 -0.19326544 0.3160558 0.38072297 0.18081976 0.36675
0.13860396 0.06353774 -0.16248468 0.38094532 -0.2915408 0.3015551 -0.049870905 -0.15974799
-0.0033246446 0.25036135 -0.36246827 -0.31652868 -0.07505564 -0.404571 0.056118086 -0.28912848
-0.36623 -0.16583677 -0.21867058 -0.002102829 0.27367476 -0.099425115 0.08119611 0.18441431
0.109866425 0.020068847 0.06569975 0.24035707 -0.36662748 -0.1625772 0.3609068 -0.10707926
0.2583406 -0.3261185 0.09119615 -0.0119354315 -0.38257268 0.09129584 -0.048358623 -0.39633733
-0.12716144 0.33634686 0.0818479 -0.24926645 -0.21079922 -0.18624021 -0.21153395 0.07687361
-0.19152792 0.29053685 0.21806204 0.29934695 0.0071855127 0.36888462 -0.3418966 -0.22022547
-0.23226354 0.19078687 -0.38817728 -0.19344425 0.16272812 0.38206863 0.26567206 0.16878442
-0.28829846 0.12390874 -0.14861977 0.023606418 -0.05203531 0.3820617 0.26640472 0.042714827
-0.39697537 0.31986952 0.28003275 0.13871856 -0.40345705 -0.27125248 0.21504767 -0.3829962
0.17410105 0.047121387 0.37315476 0.13976759 0.21556383 0.1319298 -0.19288439 -0.22176018
-0.3958099 -0.06370913 0.006070493 -0.13177456 0.11301877 0.28625154 0.0333492 -0.15858552
-0.35572866 -0.20977034 0.12618531 -0.38012603 -0.40555388 0.022180418 0.01077488 -0.3208995
0.09653127 0.17839561 -0.3178722 -0.060614903 0.24183318 0.36419654 -0.28556406 -0.21941426
-0.2311865 -0.20782034 -0.26380193 0.31304568 -0.025455294 -0.3103208 -0.28969735 -0.347096
-0.38437697 0.023255177 0.03884834 0.23503134 0.3379427 0.28787252 0.35525912 -0.15849839
-0.3074079 -0.037685577 -0.08788519 -0.019397454 0.009741231 -0.22965807 -0.3485457 -0.16794217
0.07668778 0.20910579 -0.36611348 -0.36667424 -0.024236992 -0.15643762 -0.1662787 -0.39481354
0.18343 -0.06877619 0.32193387 -0.26218662 -0.3709725 -0.0052970955 0.09638964 0.23822893
-0.048211917 0.31365025 -0.22267191 -0.34582 -0.20159353 -0.16311674 0.14073655 0.32686773
0.38357562 -0.19422302 -0.097330905 -0.06622746 0.14976475 -0.12548447 -0.14489591 0.07090317
-0.26013643 0.35020855 -0.35493472 -0.36065063 -0.022096999 -0.2884019 -0.17997356 0.23841013
-0.0017095266 -0.045372717 -0.38174734 -0.13333692 -0.13626601 0.30088523 0.16033171 -0.03743813

actor.network.task_encoder.0.bias f4 [64]
00000000: bdc3 2fbe e644 8b3e ba8a b4be 478c 153e
00000010: 7019 acbe 2c0f 083e 7e06 49be 96ff 953e
00000020: 6a42 a0be c2e3 cf3e 7db6 bf3e a40d 1a3e
00000030: ab33 c93e cffd c7be 0cd1 81bc 9a07 aabe
00000040: d1b0 843e 663c 35bd 8760 753e 329b aabd
00000050: 7279 303e e4a3 a33e 5a1a 92be 7d86 bf3e
00000060: c7ef ccbe efce febc 63ec c5bd 5601 fcbd
00000070: 2d4f cf3e f3bd 82be b9b0 7e3c a362 af3c
00000080: bd07 143e 62bc bfbd 7240 a03e de53 c13e
00000090: 22cd 72be 3e42 febd 0d97 94be f1a7 733e
000000a0: 69ac c1be 09e7 0bbe 6ec8 42be 22f4 363d
000000b0: f4db 0abe 1f4a a03e b298 fc3d 1e93 b93d
000000c0: 6108 7c3e c03b 14bd 26e3 bc3d 98ea 43be
000000d0: c317 303e 3f99 00be 50df 9d3e e91e 33be
000000e0: c5ab 89bd cb3e b7be 1f2d 7c3e 9627 80be
000000f0: 051e bb3e a2fe fb3d 4080 bdbc 07b0 1cbe
-0.17164512 0.27201003 -0.3526209 0.14604293 -0.33613157 0.13287038 -0.19631383 0.2929656
-0.3130067 0.40603453 0.37443915 0.15044266 0.39297232 -0.39060828 -0.015846752 -0.33208925
0.2591615 -0.044247054 0.23962604 -0.083303824 0.17233828 0.31960976 -0.2853573 0.37407294
-0.40026686 -0.031104533 -0.09664228 -0.12304942 0.40490094 -0.25535545 0.015545064 0.021409338
0.14456077 -0.09362103 0.31299168 0.37759298 -0.23711064 -0.124149784 -0.29021493 0.23794533
-0.3782685 -0.13662352 -0.1902177 0.044666417 -0.13560468 0.3130655 0.12333812 0.090612635
0.24612571 -0.036189795 0.092230126 -0.19132459 0.17196564 -0.12558459 0.30834436 -0.1749226
-0.067222156 -0.35790095 0.24626587 -0.25030202 0.3654634 0.12304427 -0.023132443 -0.15301524

actor.network.task_encoder.1.weight f4 [64]
00000000: b925 803f 0a49 7f3f 761b 803f 36f4 7f3f
00000010: c93d 803f 8851 7f3f ac2a 803f 3a11 803f
00000020: e384 803f feef 7f3f 2ebc 7f3f 2efa 7f3f
00000030: fb44 803f 0b67 803f b832 7f3f 074c 803f
00000040: ea4d 7f3f b213 803f a387 7f3f 06cf 7f3f
00000050: 244d 803f 3e65 7f3f 3ce6 7f3f 71ae 7f3f
00000060: 7107 803f 8015 803f 27da 7f3f ec6f 7f3f
00000070: a15f 803f 144c 7f3f eeaa 7f3f d060 803f
00000080: bbff 7e3f 6d68 7e3f 3add 7f3f 194a 803f
00000090: 5bae 7e3f 9970 7f3f be8b 803f 9e35 803f
000000a0: da37 803f f561 803f 5a63 803f 600a 803f
000000b0: b356 7f3f 9fc1 7f3f 8c43 803f d333 803f
000000c0: 1b63 803f c072 803f fd75 803f 8e6c 803f
000000d0: b375 803f 845a 7f3f 6219 803f 581a 803f
000000e0: 6b01 803f 3e50 803f 292b 7f3f 3872 7e3f
000000f0: 4ef1 7f3f ab99 7f3f 9548 803f 740f 7f3f
1.0011512 0.99720824 1.000838 0.9998201 1.0018855 0.9973378 1.0013022 1.0005257
1.0040554 0.99975574 0.99896514 0.9999112 1.0021051 1.0031446 0.99686766 1.0023202
0.9972826 1.000601 0.9981634 0.9992527 1.0023541 0.9976386 0.99960685 0.9987555
1.0002271 1.0006561 0.9994225 0.99780154 1.0029184 0.9972546 0.99870193 1.0029545
0.99608964 0.9937809 0.9994694 1.0022613 0.99484795 0.99781185 1.0042646 1.0016363
1.0017045 1.0029894 1.003032 1.0003166 0.9974167 0.9990482 1.0020614 1.0015815
1.0030245 1.0035019 1.0036007 1.0033128 1.0035919 0.9974749 1.0007746 1.000804
1.0000433 1.0024488 0.9967523 0.99393034 0.99977577 0.99843854 1.002215 0.99632955

actor.network.task_encoder.1.bias f4 [64]
00000000: 71ee a03a 99a3 83bb 8901 693b 18bd b33b
00000010: cc7b 3339 27bf 393a c860 33bb beb8 d93a
00000020: ab8e ca3a 1478 b83b 7aae 92bb 3925 6aba
00000030: d44a f8ba dc49 92ba b154 c9ba 1027 32bb
00000040: 3f41 afbb e656 ff3a 4f1a fbba 6252 aebb
00000050: a4bf f3ba 0468 a7bb 073c 593a 907d 06bc
00000060: 2eab dcb9 f5e9 22ba 0d6b 3fbb 30b6 f0ba
00000070: 2d9a 2c3b 8c17 ecba d768 95bb 667d 193b
00000080: c8fd 4fbb 3a9f 98bb 7bd0 863b 7d27 4cbb
00000090: fdf9 83bb e90e 4f38 d1da 773b 471d 9f3b
000000a0: 6b76 953a fdfb 0c3a 7381 f23b 8dd1 a1ba
000000b0: cb06 8fbb 7bda 103b 2afc a33b 1a35 d93b
000000c0: d183 e8b9 6e16 b03b e4c1 ae3b dc22 20b9
000000d0: 7fd3 feba 2a4e ae3b cfae 983b 4777 c6ba
000000e0: ca67 583a f439 653b b093 8cb8 8d9e 95bb
000000f0: 7277 86bb 5c0e b0ba 78e7 5b3b ec10 95bb
0.0012278092 -0.004017305 0.0035553894 0.005485188 0.00017116888 0.0007085674 -0.0027370919 0.0016610844
0.0015453895 0.005629549 -0.0044763656 -0.0008931938 -0.0018943199 -0.0011160928 -0.0015360323 -0.0027183928
-0.005348354 0.0019480854 -0.0019157621 -0.0053198794 -0.0018596542 -0.005108835 0.0008286838 -0.008208647
-0.0004208921 -0.0006214672 -0.0029208094 -0.0018364843 0.0026337013 -0.0018012389 -0.004559617 0.002342069
-0.0031736959 -0.004657653 0.0041142083 -0.0031151467 -0.0040276037 4.9366532e-05 0.0037819634 0.004855785
0.0011403089 0.00053781254 0.0074006855 -0.0012345776 -0.0043648235 0.002210288 0.0050044255 0.0066286447
-0.000443487 0.0053737676 0.005333172 -0.00015271775 -0.0019441693 0.0053193765 0.0046595107 -0.0015141749
0.0008255212 0.003497717 -6.703229e-05 -0.00456602 -0.0041035945 -0.0013432014 0.0033554714 -0.0045491364

actor.network.task_encoder.1.running_mean f4 [64]
00000000: 04a8 8846 dd69 b4c5 7836 1fc6 9b36 3dc5
00000010: 4313 0bc6 b922 d1c5 577f 03c6 c6db e345
00000020: 4cd9 2646 762b dac4 4b3e 5b46 4af5 5646
00000030: 2201 ddc5 4c85 11c3 689e 1845 f31e 3a46
00000040: 15ba 3245 59b3 2f46 de93 03c5 3c5f 0fc6
00000050: f24e 1446 fef7 1dc6 5cad 3446 7081 0dc5
00000060: 146f 3e46 27d5 ec45 d930 03c6 0bbb 9945
00000070: d79e ab45 7e48 8345 8237 42c6 e794 8ac4
00000080: 896d d344 d011 51c6 c40a 6dc6 4be4 83c4
00000090: beef 5a46 522b 03c5 5970 bf45 5db5 cb45
000000a0: 5867 71c6 3460 96c2 4a17 da45 07f2 7b46
000000b0: 95d3 ae44 fad5 4a46 bd4a e8c5 6c9a d3c5
000000c0: 2fd6 31c6 1ded 19c6 9219 b9c5 bc0f 4146
000000d0: 1410 44c5 64e1 88c6 78bc 88c6 43b4 0a46
000000e0: 54da 62c5 4990 13c6 1df1 83c6 6ec4 c345
000000f0: b84b 5bc5 2492 4146 50ba 5b45 5b0f a1c5
17492.008 -5773.233 -10189.617 -3027.4128 -8900.815 -6692.3403 -8415.835 7291.4717
10678.324 -1745.3582 14031.573 13757.322 -7072.1416 -145.52069 2441.9004 11911.737
2859.6301 11244.837 -2105.2417 -9175.809 9491.736 -10109.998 11563.34 -2264.0898
12187.77 7578.644 -8396.212 4919.3804 5491.855 4201.0615 -12429.877 -1108.6532
1691.423 -13380.453 -15170.691 -1055.1342 14011.936 -2098.7075 6126.0435 6518.6704
-15449.836 -75.1879 6978.911 16124.507 1398.6119 12981.494 -7433.3423 -6771.3027
-11381.546 -9851.278 -5923.1963 12355.934 -3137.005 -17520.695 -17502.234 8877.065
-3629.6455 -9444.071 -16888.557 6264.5537 -3508.7324 12388.535 3515.6445 -5153.9194

actor.network.task_encoder.1.running_var f4 [64]
00000000: 76f6 8c4c 45b0 f54a 4d54 bf4b 481a 074a
00000010: d5f8 914b dd0e 254b 7285 824b 0af0 434b
00000020: 0d25 d24b 4dc1 3349 c664 354c 5a60 2e4c
00000030: e55b 384b eab2 9e45 a3e0 af49 cabe 024c
00000040: 5113 f149 5e03 e94b 5fa6 8249 f124 9b4b
00000050: 5203 a64b e15a bc4b 9c69 f64b 273b 9749
00000060: d0e1 084c 88aa 534b fbe5 814b 6a61 b24a
00000070: ac55 de4a 9a1d 824a 985a 0e4c 89d8 9048
00000080: bea4 2849 64f6 244c d710 544c c14d 8348
00000090: 20ea 344c 4adc 8149 f24f 0a4b 049c 1c4b
000000a0: 14ea 5b4c c588 a844 1382 334b 3990 6f4c
000000b0: 76a7 e648 6e43 1b4c cb9e 4b4b d7fe 284b
000000c0: 81b7 ee4b bad6 b24b 6f52 014b 20ac 0c4c
000000d0: 2516 114a 146c 8d4c ff21 8d4c 3735 914b
000000e0: 2736 424a f258 a44b b466 834c 3da9 104b
000000f0: 998b 354a 236a 0d4c 1536 364a 4cc7 c34a
7.390507e+07 8.0507225e+06 2.5077914e+07 2.213522e+06 1.9132842e+07 1.0817245e+07 1.7107684e+07 1.284097e+07
2.754409e+07 736276.8 4.7551256e+07 4.571172e+07 1.2082149e+07 5078.3643 1.4407884e+06 3.427409e+07
1.9748901e+06 3.05415e+07 1.0702839e+06 2.0335074e+07 2.1759652e+07 2.4688066e+07 3.2297784e+07 1.2388849e+06
3.5882816e+07 1.3871752e+07 1.7026038e+07 5.845173e+06 7.285462e+06 4.263629e+06 3.7317216e+07 296644.28
690763.9 4.324392e+07 5.5591772e+07 268910.03 4.7425664e+07 1.0638172e+06 9.064434e+06 1.0263556e+07
5.764923e+07 1348.274 1.1764243e+07 6.28001e+07 472379.7 4.070137e+07 1.3344459e+07 1.1075287e+07
3.128909e+07 2.3440756e+07 8.475247e+06 3.6876416e+07 2.3770972e+06 7.414595e+07 7.399423e+07 1.9032686e+07
3.1819618e+06 2.1541348e+07 6.889206e+07 9.480509e+06 2.9744382e+06 3.7070988e+07 2.9853492e+06 6.41527e+06

actor.network.task_encoder.3.weight f4 [64, 64]
00000000: f90e f2bc 5035 babd 6ce6 123d 17d0 f3bd
00000010: ed39 66bd 1d7c b4bd 558f 2e3d b409 203d
00000020: 5fd4 e33d 83c0 abbc 263a d13d 2378 b1bd
00000030: 646f a9bd 164a bcbd c009 213b 04aa e9bd
00000040: 63b2 ab3d cf20 cabd 55e1 513d 1a79 68bd
00000050: c645 b83a d127 13bd 6bba 6f3d 5dfa ee3d
00000060: 4e30 febd d552 ddbd 06c4 48bc 2057 653b
00000070: 1575 f23d 953e 5e3d 43fe 42bb 9223 e0bd
00000080: e8be da3c 5f33 4dbd d747 3c3d f5b1 3dbd
00000090: 8414 f9bb 1d75 ae3d 323d e43d be14 e3bd
000000a0: 9712 9fbd 5fe4 45bd de86 90bb d5eb af3d
000000b0: 85c0 993d 9b23 3abc 1ee8 8fbd 6623 e03d
000000c0: 0819 3ebd 8fcc 6cbd 3167 603d 7628 8c3d
000000d0: 2c94 123d 51fa 01bd d8d4 51bd 3bea 18bd
000000e0: 14e7 b73d 10fe 893d d949 573d d3e0 52bc
000000f0: 10fe 6e3d 5095 7d3c 26d9 48bd 5d7b 4fbd
00000100: 66dd 5e3d 3d8e 043b ecb1 c73d 4ac9 af3d
00000110: df3e 943d 3743 c1bd 5327 e8bd 7806 603d
00000120: 0fd5 0ebc 8577 fabd 1022 61bd b2f7 76bd
00000130: 1a2b a1bd 7679 dd3c aa13 253d fd41 99bd
00000140: f872 dcbd 022f a63d 5253 923d 4ab5 233d
00000150: 2866 333d b6de 94bc 57e7 83bc 0ef7 eebc
00000160: 8255 7cbd e571 babd 0288 a03d 8e14 a3bc
00000170: 8b75 bc3b e216 d6bd 6884 c63b 09eb 4a3a
00000180: 1ab1 b6bd cfe9 d6bd 7413 cdbd 1e66 f0bd
00000190: ceda cb3d 8c12 71bd aed8 e0bc a616 a03d
000001a0: 94b6 0b3d 1b60 6b3c 3fdb bfba 7993 f4b9
000001b0: e45f cfba 7e57 3fbd b649 503c b857 573d
000001c0: 9d37 83bd 48ae c73d ce7a f73c 6e40 14bd
000001d0: 0704 4c3d 89ad 413d 8ca7 493d e89e 06bd
000001e0: 60a1 ac3d ad9e a13b 9426 bb3d a2e4 30bd
000001f0: 1295 21bd 7e3d 513d f03f 7e3c 2f0d 323d
00000200: f8f4 75bd c6f1 2bbc db14 ed3d 0326 62bd
00000210: 35e3 633d 0e4f ffbd de62 823d e3b9 c23d
00000220: 03ec 873b a4f8 e3bc 78b8 513d 10e6 f03c
00000230: bb15 793d 8f08 663c 2794 c2bd 429a bdbd
00000240: 34c8 b93d ab57 0c3b 40a1 b93d c7d4 7a3d
00000250: ab2b 86bd 2000 b3bd 80a6 b43d 2d4c 2fbd
00000260: cc73 9f3d 802a 9ebd 092c bfbc 622b a43c
00000270: 556d c3bb 2491 cf3d 7119 4dbc be6d e13c
00000280: e0e7 c73d e312 00be dca4 c03c ab15 a53d
00000290: 5b53 7abc f18e 763c b94f a23d 42fb 4f3d
000002a0: c7f7 1bbd e0d5 c93d d746 7bbd 8e74 ba3d
000002b0: d99b fb3d 54e0 b63d 9e4d fe3c e61a 8abd
000002c0: eeeb b93d 1cf5 3bbc 7e3f d3bd dcfa 9e3d
000002d0: 36d5 5f3c 1b2b a13d f557 12bd 3576 6a3c
000002e0: cf77 f33c 6605 8abd 7b57 e63c 4467 b43d
000002f0: 9c78 ac3d 2d25 4e3d 010b b73d 64ef 1ebd
00000300: 8902 42bd 4389 c0bc f356 e73d 5856 52bd
00000310: 8fb5 a5bd dcdc 623d 2a0d 4ebb 4232 a0bd
00000320: bc86 c8bd 8f5b b73d dd45 db3c 3605 d13d
00000330: 2ee3 afbd 90d9 dc3d 6a72 f0bc 1cf6 0abc
00000340: e758 2d3d 9a74 98bd 0b06 0cbd 066c 18bd
00000350: 356b 8e3d 62e2 bfbd 4b38 c93c 3caf d0bd
00000360: 84fc 3bbd 0dc5 47bd 0082 6fbd 9448 60bd
00000370: 2e12 e53c a515 a5bd 57dd 39bd 28a9 94bd
00000380: 9f88 173c 74d2 2a3c a84b 79bd 93b3 6f3b
00000390: 1514 d23d ba7c 5bbc 52d8 afbd 8984 f6bd
000003a0: d36f ce3d a7c4 403d 77a6 af3d dc3a a03d
000003b0: 208d f4bc 81d9 1c3c 9ab0 af3c 9db9 283d
000003c0: 9b0c 3dbd 0315 02be 3f14 ec3d a470 813d
000003d0: 64e0 febb 39a1 a13d 4db3 3dbd 2fa1 f1bd
000003e0: d9cf b53b 6223 bdbd b49f a2bd 839e ba3d
000003f0: b1c9 92bd 5b94 753d acc0 b23d 13e9 c2bd
-0.029548155 -0.090922 0.03586428 -0.11904924 -0.056207586 -0.08812735 0.04261716 0.039071754
0.11124491 -0.02096582 0.10216169 -0.086654924 -0.08273199 -0.09193818 0.0024572462 -0.11409381
0.08383634 -0.09869539 0.051240284 -0.056756116 0.001405888 -0.035926644 0.05852739 0.11668847
-0.12411557 -0.108068146 -0.012253767 0.0034994557 0.11838738 0.0542589 -0.0029753603 -0.109442845
0.02670236 -0.05009782 0.04596695 -0.04631229 -0.0076013226 0.08518431 0.111444846 -0.11087941
-0.077672176 -0.048313495 -0.0044106087 0.08589903 0.07507423 -0.011361028 -0.07026695 0.10944252
-0.04641059 -0.05781227 0.05478591 0.06843655 0.03578584 -0.03173286 -0.051228374 -0.037332755
0.089796215 0.06737912 0.05256066 -0.012870985 0.05834776 0.015477493 -0.049035214 -0.050654758
0.05441036 0.0020226382 0.09750733 0.08583315 0.07238554 -0.09436648 -0.113356255 0.05469367
-0.008717789 -0.12229828 -0.054964125 -0.060294814 -0.07869549 0.027035456 0.040301956 -0.074832894
-0.10764116 0.08114435 0.07144798 0.039967813 0.043798596 -0.018172603 -0.016101522 -0.02917054
-0.061604984 -0.09103755 0.078384414 -0.019907262 0.005751317 -0.10453583 0.0060582645 0.00077407114
-0.08920498 -0.10493814 -0.10013476 -0.11738227 0.09953843 -0.05885558 -0.02744707 0.0781682
0.034109667 0.014366175 -0.0014637484 -0.00046649182 -0.0015821424 -0.0467143 0.012712887 0.05257389
-0.06407092 0.097500384 0.030209925 -0.036194257 0.04980853 0.047284637 0.04923205 -0.03286639
0.08429217 0.0049322457 0.091382176 -0.04318679 -0.039448805 0.051084034 0.015518174 0.043469604
-0.060048074 -0.010494655 0.115762435 -0.055212032 0.055636603 -0.1246625 0.06366514 0.09508111
0.004148008 -0.027828522 0.051201314 0.029406577 0.06081174 0.014040126 -0.09500914 -0.09257938
0.09071389 0.002141456 0.09063959 0.061238077 -0.06551298 -0.08740258 0.0882082 -0.042797256
0.077857584 -0.0772295 -0.023336427 0.020040218 -0.005963961 0.10135105 -0.012518273 0.02751815
0.097610235 -0.12507205 0.023516111 0.080607735 -0.015278663 0.015048728 0.07925362 0.050776727
-0.038078096 0.098552465 -0.061346855 0.09104262 0.12285585 0.08929506 0.03104287 -0.06743412
0.09078203 -0.011472013 -0.103148445 0.077626914 0.013661673 0.0786955 -0.035728414 0.014310409
0.029720215 -0.06739311 0.028117886 0.08808759 0.08421442 0.050328422 0.08937646 -0.03880252
-0.0473657 -0.023502951 0.11295881 -0.051351875 -0.0809127 0.05538641 -0.0031440952 -0.07822086
-0.097913235 0.0895301 0.026766712 0.10206072 -0.08588253 0.10783684 -0.029351432 -0.008481529
0.042321112 -0.07444115 -0.03418545 -0.037212394 0.06954042 -0.09369351 0.024562975 -0.10189673
-0.045895115 -0.048771907 -0.058473587 -0.054756716 0.02796277 -0.08060769 -0.0453771 -0.072588265
0.009248882 0.0104261525 -0.060863167 0.003657554 0.102577366 -0.013396436 -0.08586182 -0.12036998
0.100799225 0.047062542 0.085766725 0.078237265 -0.02985245 0.009573341 0.021446515 0.04119264
-0.0461546 -0.12703328 0.11527299 0.063203126 -0.0077782143 0.07892079 -0.046313573 -0.117983215
0.005548459 -0.09235264 -0.07940617 0.09112265 -0.07167376 0.059955936 0.087281555 -0.09517112

actor.network.task_encoder.3.bias f4 [64]
00000000: f1af 33bb ed0f ebbd d5e7 efbd 0812 f93d
00000010: 3980 abbd e7e6 be3d 940d c7bd c16b 5fbd
00000020: 50fe 2ebd 31dc 6b3d 82b2 c73d 3a47 39bc
00000030: 123a aa3d dfc1 87bd 70d2 b63d c212 bcbd
00000040: 3ae7 a53d 8827 6e3d f00e 693d ff46 06bd
00000050: 8b50 c43d 8390 38bb 75f0 c63d 4c09 853a
00000060: 46d2 1d3d e846 e03d a4ee e9bd c28e 8bbd
00000070: a2a8 0fbc ce4d 96bd c43a c0bb f706 03bd
00000080: b566 603d 6e8d b0bd 6a7e abbd dc7c e63b
00000090: e015 bfbd 320a 813d d721 8abd 65e7 85bd
000000a0: 32ba bdbd 8fa1 bcbc 88b8 493d a628 c73d
000000b0: 36b9 d2bc 32e0 babd 9b73 95bd d97c eb3d
000000c0: 5b64 e4bc 8273 803d b4f7 bbbd 984c f8bd
000000d0: 256a babd 4317 b13c e82d babd 0086 d33d
000000e0: b639 19bc 6ae8 ee3d 668c b8bd 201d c93c
000000f0: d29b c8bd c772 28bd 0b3b bfbd ffa1 00bd
-0.0027418102 -0.11477647 -0.1171414 0.12161642 -0.08374066 0.09321385 -0.09719387 -0.05454612
-0.042723 0.057583038 0.097508445 -0.011308486 0.08311857 -0.06628775 0.089268565 -0.09183265
0.081007436 0.05814317 0.05689901 -0.03278255 0.09585675 -0.0028162308 0.09713832 0.0010149865
0.03853061 0.10951024 -0.1142247 -0.06814338 -0.008768233 -0.07339059 -0.0058663804 -0.031989064
0.05478545 -0.086207256 -0.08373721 0.0070339274 -0.09330344 0.06300773 -0.06744736 -0.06538276
-0.092640296 -0.023026256 0.04924825 0.0972455 -0.025723081 -0.09124793 -0.072974406 0.11498422
-0.027879884 0.06272031 -0.09178105 -0.12123984 -0.09102277 0.021617537 -0.09090787 0.10328293
-0.009352138 0.11665423 -0.09011154 0.02455002 -0.09795345 -0.041125085 -0.093374334 -0.03140449

actor.network.task_encoder.4.weight f4 [64]
00000000: f011 803f 5c73 7f3f cee9 7f3f 4b0c 7f3f
00000010: e209 803f db27 7f3f f684 7f3f 0905 803f
00000020: 9e45 7f3f 3be5 7e3f 98dd 7f3f 65a0 7f3f
00000030: d433 803f 7d78 7f3f d729 803f e1a8 803f
00000040: 474c 7f3f f91c 803f 7409 803f dab5 7f3f
00000050: 2bd1 7f3f 3339 7f3f 6646 7f3f ecb5 7f3f
00000060: 5aab 7f3f bb5c 803f bc48 7f3f be99 7f3f
00000070: 7d4d 803f 0d4b 7f3f e185 7f3f e808 803f
00000080: 2b30 803f fcbe 7f3f c128 7f3f 7105 803f
00000090: 854d 7f3f 5cb0 7f3f df5c 7f3f 554d 803f
000000a0: c083 803f f529 7f3f 29fd 7f3f 5b05 803f
000000b0: f3b0 7f3f b555 803f 2ed7 7f3f 6316 803f
000000c0: cefe 7e3f a1af 7e3f 8b25 803f 36ba 7f3f
000000d0: db63 7f3f 0793 7f3f ce33 803f d1a8 7f3f
000000e0: aed6 7f3f d629 803f 30c5 7e3f 1abf 7f3f
000000f0: 6495 7f3f 0ef4 7f3f 07b1 7f3f c9af 7f3f
1.0005474 0.997854 0.9996613 0.9962813 1.0003016 0.9967019 0.9981226 1.0001537
0.997156 0.9956853 0.999475 0.9985412 1.0015817 0.99793226 1.0012769 1.0051538
0.99725765 1.0008842 1.0002885 0.9988686 0.9992854 0.99696654 0.99716794 0.99886966
0.99870837 1.0028299 0.9972036 0.99843967 1.0023648 0.99723893 0.9981366 1.0002718
1.00147 0.99900794 0.9967156 1.000166 0.9972766 0.9987848 0.99751085 1.00236
1.0040207 0.99673396 0.99995667 1.0001634 0.9987938 1.0026156 0.99937713 1.0006832
0.9960755 0.9948674 1.0011457 0.9989351 0.9976174 0.9983372 1.001581 0.9986697
0.9993695 1.0012767 0.99519634 0.9990097 0.99837327 0.9998177 0.998795 0.998776

actor.network.task_encoder.4.bias f4 [64]
00000000: 5c9d 623a de72 11bb 49a3 f5b9 0414 79bb
00000010: 14f5 693a 1c4d 2ebb 1559 d7ba 2fb9 14b7
00000020: caf2 17bb c613 7bbb 292e 54ba f1fb fcba
00000030: 74d0 0f3b 4549 10bb ff93 273b 7b89 8a3b
00000040: a120 dbba f0ff 773a 7141 8b39 61c9 03bb
00000050: feea 8aba 90d3 58bb 2f18 19bb 3759 59ba
00000060: 6a15 68ba 17e1 5d3b 6fe7 aaba 56cd 28bb
00000070: b740 013b fc7f 0dbb 8cda acba 930e 0939
00000080: 9815 a93a 5886 ffb9 7758 3cbb 6464 cc3a
00000090: 54e2 5ebb 6e85 86ba 6804 1cbb e527 283b
000000a0: e213 543b 08fa e1ba 3723 9839 2fbb 3a3a
000000b0: 2f5e 5dba 4576 803b 52b3 d3b9 3fab e239
000000c0: 3301 73bb bfd0 b3bb 5863 d13a 935d 5fba
000000d0: 5a99 f1ba c262 b1ba 4450 503b c100 9dba
000000e0: 3a73 40ba c722 1c3b f463 9fbb b014 9838
000000f0: 022d d6ba 908c 11b8 b72a a5ba bae6 f6ba
0.0008644664 -0.002219371 -0.00046851698 -0.0038006315 0.0008924764 -0.0026596254 -0.0016429747 -8.864604e-06
-0.0023185485 -0.0038311346 -0.00080940366 -0.0019301159 0.0021944316 -0.0022016328 0.002557039 0.0042278147
-0.0016718098 0.000946044 0.00026560904 -0.0020109045 -0.0010598598 -0.0033085085 -0.0023360362 -0.0008291187
-0.00088532886 0.0033856088 -0.0013038943 -0.0025757155 0.001972241 -0.0021591177 -0.0013187691 0.00013070767
0.0012900112 -0.00048737484 -0.0028739253 0.0015593884 -0.0034009414 -0.0010263154 -0.0023806337 0.0025658545
0.0032360484 -0.0017240653 0.00029017936 0.00071232294 -0.00084445154 0.003920349 -0.0004037866 0.00043233667
-0.0037079572 -0.005487531 0.0015975041 -0.00085207185 -0.0018432543 -0.001353346 0.0031786123 -0.0011978374
-0.0007341389 0.002382444 -0.0048642103 7.251778e-05 -0.0016340318 -3.4701603e-05 -0.0012601231 -0.0018837072

actor.network.task_encoder.4.running_mean f4 [64]
00000000: 8297 ebbd 30ca 42be 26ec a23e dad2 cebd
00000010: 2827 5dbe 5f15 dbbe d736 c9be 8d01 22bd
00000020: ee9a 09be 5e61 e2be 9dfe e33e 58ad b93c
00000030: 6027 423e 521e 9abe 359c 75be c54f 313e
00000040: f73e 893e 1489 56bd d471 36be 22f9 bb3c
00000050: 0762 043e 21a6 68bd f249 2f3e fc59 93bc
00000060: 5ec1 eebe b4dc eb3e 40e2 85be 3db1 6cbe
00000070: c7c0 413e 746c e7be 9ebc 11bd 31a1 02be
00000080: a60a 023d c57d a23e 3c61 fc3c 0d05 d13d
00000090: bf15 04be 8a34 fb3c 2739 d3bd cf45 003f
000000a0: 862a a93e ced3 febc 74f9 3a3e c544 85be
000000b0: e478 47be a260 85be e437 b4be 9ffb 443e
000000c0: e014 813d 5ead 12be 654b 1cbf e412 a9be
000000d0: 5834 233d 8801 83be d852 903b ce35 053e
000000e0: 84b8 733d a20a 383e 4618 73be 79d1 01be
000000f0: 5bc6 ec3c 851b 4ebe 45e5 97be 2972 8e3d
-0.11503507 -0.19022441 0.31820792 -0.100988105 -0.21596968 -0.42789742 -0.39299652 -0.03955226
-0.13438007 -0.4421491 0.44530192 0.022665665 0.18960333 -0.30101258 -0.2398537 0.17315586
0.2680585 -0.05237682 -0.1781686 0.022945944 0.1292802 -0.056799058 0.17118052 -0.017987244
-0.46631902 0.4606682 -0.26149178 -0.23114486 0.18921195 -0.4519993 -0.03558027 -0.12756802
0.031748436 0.3173658 0.030808084 0.102060415 -0.1289892 0.030664701 -0.10313635 0.5010652
0.33040255 -0.031106856 0.18259221 -0.2602903 -0.1947971 -0.26050287 -0.3519889 0.19236611
0.0630281 -0.14323947 -0.6105254 -0.33022225 0.03984484 -0.25587106 0.004404407 0.13008806
0.05950214 0.17972806 -0.23739728 -0.12677564 0.028903177 -0.20127685 -0.29667106 0.06955368

actor.network.task_encoder.4.running_var f4 [64]
00000000: b9ab ff3d 0eb3 813d 4aff 533e 4801 003e
00000010: 24d1 503d d911 873e 753f a63e 537b 3c3d
00000020: ba6c e83c 8f71 6b3e 9b63 3c3e 65d7 303d
00000030: 7017 8f3d a0b3 3f3f 13f3 893e cae3 513e
00000040: 38eb 5e3d 0be0 fc3c 7585 1b3d 8d4f d93c
00000050: 4c79 0b3d 5673 553d e7a4 8c3d fd46 bb3d
00000060: 9b35 3f3e 6960 923e c0b0 b73e 3a84 4b3e
00000070: 3224 d73d 6346 f63d fbd7 103c 1e13 1f3e
00000080: 17fe cc3d 50a9 de3d 3dee a33d 185f e33d
00000090: 6f72 693e 4d1a 2b3d aa69 f33d b410 5b3e
000000a0: eef7 b53e 6b8c fa3d d7ad bd3c 47e2 4b3f
000000b0: 94d3 8a3d 81d3 1f3d c44e 333e 104b cf3d
000000c0: 1551 c03e 85e3 443d 87e5 3a3e 6727 033e
000000d0: b400 6e3e c8e0 9b3d b052 4f3e 0c7f 263d
000000e0: 827f 813d 50e1 813c 1b10 6a3e 86c8 7c3c
000000f0: ae7d 143d 7874 fe3c 1292 823d ec52 e13c
0.12483925 0.0633298 0.20702854 0.12500489 0.050980702 0.26380804 0.3247029 0.04601605
0.028372157 0.22992538 0.18397371 0.043174166 0.06986892 0.7488346 0.26943263 0.20497051
0.05442354 0.03086855 0.03796907 0.02652719 0.034051225 0.052111946 0.0686739 0.09144399
0.18672793 0.2858918 0.35877037 0.19874659 0.105049506 0.12025144 0.008840556 0.15534636
0.10009401 0.108721375 0.08004425 0.11102122 0.22797559 0.04177313 0.11885388 0.2139309
0.35540718 0.12233814 0.023154182 0.79642147 0.067786366 0.039020065 0.17510515 0.10121739
0.3756186 0.048068542 0.1825162 0.12808 0.23242456 0.07611233 0.20246387 0.040648505
0.06323148 0.015854508 0.22857706 0.015428668 0.03625267 0.031061396 0.06375517 0.02750536

actor.network.task_encoder.6.weight f4 [32, 64]
00000000: 2765 cf3d 752b c43d 90c8 f7bd e3de 85bb
00000010: fa4a efbb a28d 8e3d dbe4 8b3d cbc6 353d
00000020: 8f7b bc3d 6888 1b3d 7398 943c 1533 94ba
00000030: 9b42 3a3d 45d6 853d 6511 8cbc 6095 95bd
00000040: b914 b7bd dd10 90bd 0bac cb3d f75f 4dbd
00000050: aab3 92bd df2c dcbc 1d57 0b3d 8137 8fbd
00000060: 7f23 f0bc dea1 1fbd 645d cc3c 426a 643d
00000070: 507e 983d bf77 86bd a94f 963d cb26 2dbd
00000080: dd23 44ba dbfc ec3c 7023 ba3d 99b5 f4bd
00000090: e858 88bd 324a 20bc 9ff9 753a c154 94bd
000000a0: 5b65 95bc 10c4 00be 79ca 93bb 7cde f6bd
000000b0: 03d9 e03d a6db 6a3d 45e3 6d3d 5abe 0e3d
000000c0: 8f40 4a3d 2419 aa3d fd74 3c3d a51d d6bc
000000d0: d6cc 48bd d087 cc3d ee28 0fbc 29cc 533b
000000e0: 070c e83d b678 c1bd 33d1 673d e368 6c3d
000000f0: 4bc8 43bd 0706 34bd ea44 3c3d 94c2 b0bd
00000100: b194 b43d 78a1 ef3d 5fa9 f2bd 62e3 f3bd
00000110: ed47 f13d f00c e33c 3fe7 5d3d 26d0 81bd
00000120: 5ef0 abbc 54c7 383c a89a 47bc 5047 0abd
00000130: 5a08 553d c45d abbc a733 20bd dc0b 573c
00000140: 49f5 3abc 95c5 0cbd 290f fabd dbdb e63d
00000150: 2798 933d 6f8c a1bd 6551 3e3d a2fe d33d
00000160: a984 e3bd c97e 52bc 9717 fc3d 9144 533c
00000170: ef4d 053a 3d93 223d c7cb 3fbd bd63 babd
00000180: cabe ecbd 4510 c33d 18ae e5bb 9e79 78bd
00000190: 7ab0 0bbd d1da b83d 645b eabd 7eb4 b9bb
000001a0: 471b 07ba f0bc 1bbd 0ce1 703d 8826 983d
000001b0: 376a b53d 3b5a cfbd e1dc aa3d 393d 9e3c
000001c0: 916a afbd 04c0 edbc 0024 883d 4575 903d
000001d0: 9990 05bd 17fc 033c d1c2 e13d d98a 39bd
000001e0: f613 fbbd 903a 4cbd 0092 783d ddaf a53d
000001f0: c8fe 3f3d 7c56 923d 8cac 8e3d 0312 c43d
00000200: 0e7f f23c a75e 67bb 5505 dc3d a95b b3bd
00000210: 6adc 5a3c 57a0 a63b 538c 843d 430b 863d
00000220: 2ef3 03be 982a d0bd 12e7 8c3c 7fc3 aebc
00000230: ab69 94bd 8dce bfbd c3cb 723d 7fa7 2dbd
00000240: d026 763d 04bb c6bd b390 cc3c 8ce9 fc3b
00000250: bf08 ebbc f566 67bd 0d22 a63d 676b 8cbd
00000260: 2f0d 203d 1906 b73d 89df 703d 6d0e 783c
00000270: 5355 54bc be3c 7d3d e259 463d 898c 91bc
00000280: eb84 a0bd e7d0 013d 425f 823d f82c e5bc
00000290: 47d6 b93d 3a4f 79bd 5776 233d 775f 8bbd
000002a0: c1c8 0ebd c8f3 583d 5ee7 1abd 4695 a1bd
000002b0: 3f67 95bd d004 123d cc12 843c d230 dc3c
000002c0: 69b5 ecbd fcd2 ef3d 1042 543d 7cd4 5ebd
000002d0: 5a37 cf3d 3f4f 65bc d00b 603d b47a 42bd
000002e0: bcf8 ea3d 9287 41bd dba3 b4bc 1550 243d
000002f0: dc4a 353d 81a5 1dbd 13b2 ff3c 7e54 0c3c
00000300: e6b4 0c3d cc52 5bbd a134 1d3d c0b0 4e3d
00000310: 9eee abbd d270 87bd 6ac0 333d 3b61 b5bd
00000320: 6cc9 c43c d5f7 9dbd 86bd 86bb 2eb5 cb3d
00000330: 751c e6bd a134 e6bd 37f7 643c c1e5 a23d
00000340: 3901 a13d e597 90bc 5781 013e 178f d9bd
00000350: b534 013e 18a0 f8bd 360c 82bd bb07 3f3c
00000360: 16c3 d2bd 01fb a13d 3cd5 593d ba57 4a3b
00000370: 048a f63d ebfd c73b b810 ec3d 03cf 8e3d
00000380: 01d9 ca3d 6e60 7ebd e014 e9bd 9aa1 223d
00000390: 3d56 ecbd 9c4b 0dbc 0086 b2bd d983 cc3d
000003a0: 271e 713c 1766 b0bd b21d 543c 3d00 1d3b
000003b0: c687 4dbd cfa3 d33c dae9 f43d ffe9 473d
000003c0: d79e f1bc 531a 6fbd eee7 383d db13 84bd
000003d0: 86a4 0b3d db15 d7bc fca8 793d 62e6 c7bc
000003e0: b392 86bd 9fa5 953d fcfe 87bc dd95 33bd
000003f0: c61c 183d 51c0 4ebd 2e9f 9ebc 1927 db3d
0.10126715 0.09578601 -0.12098801 -0.004085408 -0.007302639 0.06960608 0.0683076 0.044379037
0.092032544 0.037971884 0.0181391 -0.0011306728 0.045473676 0.06535009 -0.017098138 -0.07303882
-0.089394994 -0.070344664 0.09944924 -0.050140347 -0.071631745 -0.026876865 0.034018625 -0.069930084
-0.0293138 -0.038972728 0.024946876 0.055765398 0.07445967 -0.065658085 0.07339413 -0.042273324
-0.00074821507 0.028929165 0.090887904 -0.119486995 -0.066575825 -0.009783315 0.0009383205 -0.07242728
-0.018236807 -0.12574792 -0.0045102206 -0.12054154 0.10978892 0.05733838 0.05807807 0.034849502
0.049377974 0.083055764 0.046010006 -0.026137182 -0.04902347 0.09986842 -0.008737786 0.0032317734
0.11330419 -0.09446852 0.056595992 0.057717215 -0.047798436 -0.04395106 0.04596416 -0.08630863
0.08817423 0.117007196 -0.11848711 -0.11908604 0.11781297 0.02771613 0.05417561 -0.06338529
-0.02098864 0.011277992 -0.012182869 -0.033759415 0.052009918 -0.020918734 -0.03911176 0.013125386
-0.01141102 -0.034368116 -0.12209923 0.11272403 0.07206755 -0.07888114 0.046464343 0.10351302
-0.11109287 -0.012847611 0.12309187 0.0128947655 0.00050851604 0.0396912 -0.046825197 -0.09101055
-0.115598276 0.095245875 -0.007009279 -0.06066286 -0.034103848 0.09026111 -0.11443213 -0.0056672683
-0.0005153906 -0.03802198 0.05880837 0.07429224 0.088581495 -0.10124632 0.083429106 0.019316303
-0.08565248 -0.029022224 0.066474915 0.070536174 -0.032608602 0.008055708 0.110234864 -0.04529843
-0.122596666 -0.049860537 0.06068611 0.08090184 0.046873838 0.07145402 0.069665045 0.09573748
0.0296016 -0.003530422 0.107432045 -0.08757717 0.013358215 0.005085032 0.06472077 0.06545117
-0.12885734 -0.10164374 0.017200027 -0.021333454 -0.07246717 -0.09365568 0.059276354 -0.042396065
0.06009561 -0.09703639 0.024971342 0.0077182706 -0.028690694 -0.05649467 0.081119634 -0.06856423
0.039075073 0.0893671 0.05880693 0.015140158 -0.012959796 0.061825506 0.048425563 -0.017767208
-0.07837852 0.031693365 0.06365825 -0.027975544 0.09074073 -0.060866572 0.03990778 -0.06805318
-0.034859423 0.052966863 -0.037818305 -0.078898 -0.07295083 0.03564912 0.016122244 0.026878748
-0.11558039 0.11710164 0.051820815 -0.05440186 0.10117979 -0.0139959445 0.054698765 -0.0474803
0.114732236 -0.04724843 -0.022050789 0.040115435 0.044260845 -0.038487915 0.031212842 0.008565066
0.034352206 -0.053545758 0.03838027 0.05046153 -0.08395122 -0.06613316 0.043884672 -0.08856436
0.024021827 -0.07713286 -0.0041119484 0.09946667 -0.112358965 -0.11240507 0.013974956 0.07953978
0.07861561 -0.017650554 0.12646995 -0.10622995 0.12617762 -0.121399105 -0.06349985 0.011659558
-0.10291116 0.07909203 0.05318187 0.0030875043 0.12038043 0.0061032674 0.11526626 0.06973078
0.099046715 -0.06210368 -0.11380935 0.039704897 -0.11539886 -0.008623984 -0.08716965 0.099860854
0.014716662 -0.08613222 0.012946533 0.002395644 -0.05017831 0.025834946 0.11958666 0.04880714
-0.029494686 -0.058374714 0.04514306 -0.064491 0.03409245 -0.026255539 0.06095217 -0.024401847
-0.065709494 0.0730698 -0.016601078 -0.043844093 0.037136815 -0.050476376 -0.019363012 0.10700817

actor.network.task_encoder.6.bias f4 [32]
00000000: b559 f83c 7328 58bc 72c1 9d3d f2e0 6fbd
00000010: 128d eb3d 02b7 ec3d 1993 c4bc 24d1 8d3d
00000020: da23 a8bc 0f60 8d3d e2b9 ae3d 2f42 7abc
00000030: 2ced e2bc 2a3d 60bd 0dc2 82bd 1769 923d
00000040: 5631 8f3b 7e91 a63d 4e36 d83c 4b6a fabd
00000050: 3ef5 5f3d e1af 96bd 59e3 d13d f02c 8f3d
00000060: f996 2f3d fc49 fabd 701d fa3d 46b8 babd
00000070: a719 9fbb 4b48 db3d e723 e2bc 03cd bcbc
0.030316213 -0.013193238 0.077029124 -0.058564134 0.115015164 0.115583435 -0.023995923 0.06924656
-0.020524908 0.06903087 0.08531548 -0.015274568 -0.027700983 -0.05474583 -0.063846685 0.071489505
0.004369895 0.08133219 0.026393082 -0.12227305 0.05467724 -0.07357765 0.10248441 0.06990993
0.042868588 -0.12221143 0.12212646 -0.091171786 -0.004855353 0.10707148 -0.02760501 -0.023046976

actor.network.vm_encoder.0.weight f4 [64, 10]
00000000: 703f 963e 6c33 1dbd 4ba8 79be ce21 763e
00000010: 7baf 8e3e 3621 75be 8954 61be bee0 9e3d
00000020: 073a 503e acd8 5d3e 4505 6a3e fc72 a93c
00000030: 749a 263e 4546 45bd 5045 843e 2f01 55bb
00000040: d828 963d c70b 4abe b34a 51bd 8015 67be
00000050: e955 bebd f258 2a3c dbf6 473e c748 d03c
00000060: fbd3 9dbc 1826 313e 1696 4fbe 9bdf 6abe
00000070: 4ba7 1c3e 7492 9dbe b6a8 90be ef9c 90be
00000080: 1b9d 773e 474d e13b 149f 6c3e 6476 98bd
00000090: 9362 893e e9ee 21be a3e0 6b3e c11d 7d3e
000000a0: d974 38be e4bb 363d 31a4 37be 2857 e7bd
000000b0: 1d4b a63d 98d4 8d3e a04f 7e3b 446d 9fbe
000000c0: 084a 8bbe 4ad8 bf3d 7725 8fbe df33 11be
000000d0: 8fdf 373d 8e70 58be 9c94 16be cd29 05be
000000e0: 7389 4bbe 35e6 8d3e 90c1 56be de82 1ebd
000000f0: 3a47 0fbe d5ee 8f3d 5bad a03e 44cc 363d
00000100: 7988 0cbd 83bd 8bbe b9e9 52bd 161e b5bd
00000110: 6187 65be 22d9 363e a2d4 243e 4755 8fbe
00000120: c9f3 823e 264a 3e3d c5f7 8fbe 2b0c 2dbe
00000130: b1f2 e2ba 9c90 b03c 3861 333e 6dd6 97be
00000140: 5c6a 963e 081d 873d 5b9a 6f3e aa2f 2abd
00000150: 4127 a9bc b608 78be 92a9 8dbd 7d0d b13d
00000160: b487 00be 3568 a0bd 14b9 fd3d 6a10 633e
00000170: 5e05 923e 6a0c 4dbe 4822 35bd 2534 b1bd
00000180: d885 93be f4ff 083e 5a87 323e db7c b63d
00000190: df56 f63d 3392 c0bd 7add fbbd ee02 db3d
000001a0: d6e0 e3bd 2f01 f6bd 6682 763e b27b 86be
000001b0: ec45 34bd 1413 443c 0723 9f3e 8f13 09be
000001c0: 58e9 633e 2ee8 c8bd 8fdb c63d 44ba b03b
000001d0: 6dc0 9fbe 18dd f4bb e04a 42be 20fa 783d
000001e0: 25d1 1cbe 0348 93be c1c8 57be a2df 17bd
000001f0: 96aa 483d e614 b7bd 03f0 813e 14d2 89be
00000200: 26c6 9b3e 5905 b9bc f42b 8ebe 56f1 99bd
00000210: 3f99 753e 17ae 963e 130a 94be 6e8b 94bd
00000220: 2e99 aa3d d5ff 833e 8728 52bd 52f1 95be
00000230: 5e2e 753b 8353 9b3e 3e2b 5ebe 9df0 413e
00000240: 38d5 833e e79e 9ebd 8cb7 933e 45d8 2c3d
00000250: c60d 24be fda6 3f3e 3fa9 8ebe 5617 583e
00000260: 33ca 6fbb cfb8 5e3e 3d2b 6fbe a37d 1dbe
00000270: 99f1 713e 31c4 653e a2c2 8e3e c596 f5bc
00000280: 19c6 643d b3a7 09be 03d8 1f3e 21ee 73be
00000290: 16be fa3d 0cfc 9dbd df39 713d 8afa 06be
000002a0: 82c0 86be cea9 3ebe e1fb 63be 1a34 753e
000002b0: 2278 973d 1937 463e 7a55 c1bc 94c5 0bbe
000002c0: d24d 79be d66c 9c3e b757 80be 3041 05bd
000002d0: 31d9 39be f9df 94be c68b 54be ed79 31be
000002e0: 84b6 b53d bd17 313e 4c9c d43a bb39 24bd
000002f0: 4c5b 0c3e 8439 5e3d 8c92 4e3d a514 413e
00000300: f4d6 8c3e 67fa 54bc 166c 8cbe 4a08 7cbe
00000310: 79bd 42be 7513 5dbe 3404 b0bd 3c9f 913e
00000320: e3da 77be 3a89 d8bc ca8c 823e 8274 eebd
00000330: 3e34 7dbe 8cff b43d 9f00 8d3e fd60 3fbe
00000340: 08bf be3d e523 8dbd 51e0 c8bc de4d 18be
00000350: f791 143e 6031 2cbe 1a7f 57be 5c0d 283e
00000360: 33e8 67be f903 733d 9b87 babd 3a1a 57be
00000370: 8804 873d f7bd 983e 335b 49be e990 cb3d
00000380: 33c8 3b3e 4fee 923e 60fd 873d 1841 15be
00000390: 4275 e4bd dbd1 90be d1e0 96be 3738 883e
000003a0: 60ca ec3d d97e be3d 223b 0f3e b491 29be
000003b0: 55ab 9e3e f205 5c3d d136 563e 653b d63d
000003c0: ce87 4a3d 56a9 37bd d684 99be c0a3 873e
000003d0: c931 583e 746d a03e 4203 bb3c 0da1 ee3d
000003e0: 140f 383e d220 8a3c ca12 82be 979a 953e
000003f0: c5cd 723e 6411 22bc a2a3 8c3e deee edbd
0.29345274 -0.038379118 -0.24380605 0.24036333 0.27868256 -0.2393845 -0.22004904 0.0775771
0.20334636 0.21664685 0.22853573 0.020684712 0.16269857 -0.048162717 0.2583413 -0.0032501926
0.07332009 -0.19731055 -0.05109663 -0.22566795 -0.0929373 0.010397183 0.19527762 0.025425328
-0.01926612 0.17299688 -0.20272097 -0.22936861 0.15298192 -0.30775797 -0.28253716 -0.2824473
0.24181025 0.0068756673 0.23107558 -0.07444456 0.2683302 -0.15813793 0.23034911 0.24718381
-0.18013324 0.04461278 -0.17933728 -0.112959206 0.081197955 0.2770126 0.0038804784 -0.3113805
-0.2720492 0.09367426 -0.2795827 -0.14179944 0.044890936 -0.21136686 -0.14705127 -0.13004227
-0.19876651 0.27714697 -0.20972276 -0.038699023 -0.13992015 0.070279755 0.3138226 0.044628397
-0.034309838 -0.27293023 -0.051492427 -0.08843629 -0.22414924 0.17856267 0.16096738 -0.2799475
0.25576618 0.046457432 -0.2811872 -0.16899173 -0.0017314759 0.02155333 0.17517555 -0.2965578
0.2937802 0.06597334 0.23398726 -0.041549362 -0.0206486 -0.24222073 -0.069171086 0.08645151
-0.12551767 -0.07832376 0.123888165 0.2217423 0.2851972 -0.20024267 -0.044222146 -0.08652524
-0.28813052 0.13378888 0.17434445 0.08910533 0.12028288 -0.09402885 -0.12298103 0.10693918
-0.111268684 -0.120119445 0.2407318 -0.26266247 -0.044011995 0.011967439 0.3108141 -0.13386367
0.22256982 -0.0980991 0.09709846 0.0053932983 -0.31201497 -0.0074726455 -0.18973875 0.060785413
-0.15314157 -0.28765878 -0.21072675 -0.037078507 0.04899081 -0.08939533 0.25378427 -0.2691809
0.30424613 -0.022585558 -0.2776791 -0.07516734 0.2398424 0.29429695 -0.28913936 -0.072531566
0.08329998 0.25781122 -0.05130818 -0.29285675 0.003741167 0.30337152 -0.21696183 0.18939443
0.2574861 -0.07745152 0.28850973 0.04219844 -0.16020879 0.18716045 -0.278635 0.21102652
-0.0036589026 0.21750186 -0.23356338 -0.15379958 0.23627318 0.22438122 0.27882868 -0.02997912
0.055852983 -0.13442878 0.15609746 -0.23821308 0.12243287 -0.0771409 0.05889308 -0.1318151
-0.26318747 -0.18619463 -0.22264053 0.23945656 0.073959604 0.19356956 -0.023600329 -0.13649589
-0.24346092 0.30551785 -0.2506692 -0.03253287 -0.18149258 -0.29077128 -0.20756444 -0.17331667
0.08872703 0.17294212 0.0016220897 -0.04009412 0.13706702 0.05425407 0.050432727 0.18855532
0.27507746 -0.012999154 -0.27426213 -0.24612537 -0.1901759 -0.21589454 -0.08594552 0.284418
-0.24204592 -0.026432622 0.2549804 -0.11643316 -0.2472696 0.08837804 0.27539536 -0.18689342
0.0931378 -0.06891612 -0.024521025 -0.14873454 0.14508806 -0.1681571 -0.21044579 0.16411346
-0.2264717 0.05932996 -0.09107896 -0.21006098 0.06592661 0.29832432 -0.19663696 0.09939749
0.18338089 0.2869744 0.06640124 -0.14575613 -0.11155178 -0.28285107 -0.29468396 0.2660539
0.115620375 0.09301538 0.13987401 -0.16559488 0.3099009 0.053716607 0.20919348 0.10460547
0.04944592 -0.044839226 -0.29984158 0.2649212 0.21112742 0.31333506 0.022828702 0.11651812
0.17974502 0.016861353 -0.2540496 0.29219505 0.23711307 -0.009891842 0.27468592 -0.11617826

actor.network.vm_encoder.0.bias f4 [64]
00000000: ecc6 52be 74b1 19be 8b31 8e3e adc3 39be
00000010: 64e7 a4bd 1b79 d3bd 8acd e73d 5d80 8f3e
00000020: b1be b2bd 3a81 96be 942e a0be aa8b 5dbe
00000030: b982 093e 9117 903d 1c81 2cbe ffc0 27be
00000040: 791d 553d 6d62 a1be 9933 603e 9274 bbbd
00000050: c9cf 57be 65ce 80bd 3393 1d3e a587 523e
00000060: 6b98 7ebe 7105 813e 7967 713e edae 72be
00000070: e822 163e 072a 1c3e 90a2 aebd bb3c 67bc
00000080: bd34 24be 94a6 08bd a1d5 9cbe 6f66 473e
00000090: bbeb 9f3e 51f0 603e 471f 01be 61b4 53be
000000a0: 1592 523d 4a76 923e b527 7dbe 3416 86be
000000b0: 88b4 57be 8ec9 293e 19ab 213c b996 ab3c
000000c0: 8607 7d3e a687 05be 36dc 64be fccf 10be
000000d0: 1e0c edbc 711c 2ebe 5947 d9bc 1438 a23d
000000e0: f6eb 993e 6921 9f3c cc14 cf3d 0e0c 663e
000000f0: f23b 873d 7b62 943e d3d9 863e 3ac4 983e
-0.20583695 -0.15009099 0.27772173 -0.1814105 -0.08051947 -0.103258334 0.113185 0.2802762
-0.08727778 -0.29395467 -0.31285536 -0.21635309 0.13428773 0.07035745 -0.16846126 -0.16382216
0.05203006 -0.31520405 0.21894683 -0.091530934 -0.21075357 -0.06289367 0.15388183 0.20559557
-0.2486283 0.25199464 0.23574628 -0.23699541 0.14661753 0.15250407 -0.085271 -0.0141136
-0.16035743 -0.033361986 -0.30631736 0.19472669 0.31234536 0.21966673 -0.12609588 -0.20674278
0.051408846 0.28605872 -0.24722178 -0.26188815 -0.21064961 0.16580793 0.009867453 0.020945894
0.24709901 -0.13040027 -0.22349629 -0.1414184 -0.028936442 -0.17003037 -0.026523279 0.07920852
0.30062836 0.01942511 0.101113886 0.22465536 0.066032305 0.28981385 0.26338062 0.2983721

actor.network.vm_encoder.1.weight f4 [64]
00000000: afb3 7d3f a509 813f 50ca 803f a425 803f
00000010: 5900 803f 325b 803f aba6 803f 9ca6 803f
00000020: 6023 803f e3b1 7c3f 6409 7d3f 3010 7f3f
00000030: 0be6 7f3f d63d 813f 5599 7e3f fd00 7e3f
00000040: 2b49 813f 7254 7e3f c49b 813f 424c 813f
00000050: 4a4f 803f ad61 803f 9946 803f cc74 803f
00000060: e284 803f 9f73 813f 30c8 803f 4f60 803f
00000070: ef62 803f cd6c 7f3f 9dbc 7f3f 8db9 803f
00000080: c171 7f3f b737 803f 481f 803f faeb 803f
00000090: 140d 7e3f f5c7 7e3f 322f 803f 3024 7f3f
000000a0: 3acd 803f b97e 7e3f 07a3 7f3f 9b5f 7f3f
000000b0: 4a4d 813f 7fb9 7e3f 29c6 803f 1417 7f3f
000000c0: 187f 7f3f ae26 803f 1c92 7e3f 3a8d 7f3f
000000d0: adfd 803f ec4f 7d3f e8fe 803f 434a 7e3f
000000e0: 85e3 7f3f 6cc5 7d3f a859 7f3f a491 803f
000000f0: 4dc0 7d3f 6b17 7e3f a92f 7e3f efaf 7e3f
0.991023 1.0081068 1.0061741 1.0011487 1.0000106 1.0027831 1.0050863 1.0050845
1.0010796 0.98708934 0.98842454 0.99634075 0.9996039 1.0096996 0.99452716 0.9922026
1.0100454 0.99347603 1.0125661 1.0101397 1.0024197 1.0029808 1.0021545 1.0035644
1.0040553 1.011341 1.0061092 1.0029391 1.0030192 0.9977539 0.99897176 1.0056626
0.9978295 1.0017003 1.0009546 1.0072014 0.99238706 0.9952386 1.0014403 0.9966459
1.006263 0.99412113 0.99858135 0.9975526 1.0101712 0.99501795 1.0060474 0.9964459
0.99803305 1.0011804 0.99441695 0.9982487 1.0077416 0.98950076 1.0077791 0.99332064
0.9995654 0.99129367 0.9974618 1.0044446 0.9912155 0.99254483 0.99291474 0.99487203

actor.network.vm_encoder.1.bias f4 [64]
00000000: 8952 b2bc 1e1c 5a3c c2b1 1b3c 4845 073c
00000010: f3d3 70bb 6d9a 953c d238 8d3b 1fea 253c
00000020: 9877 89bb 553e 05bc 38ae 39bc 69eb 583a
00000030: ee7b 67bc 58a0 6b3c 54ec 56bc 680d da3b
00000040: c29b 473c d36a 24bc 4a5b b53c 519e 763c
00000050: 5254 9b3c 5ef7 693c 1b15 733b 8b4b 733c
00000060: cc1a 103c c758 723c abbd 603c 697f 833c
00000070: 3b32 c0bb 322f de3b dc58 fc3b 3adc 32ba
00000080: af24 03bc 82be 1a3c 9e8a d33b 8941 853c
00000090: 0b21 91bc 2920 50bc d1a0 6c3c 33b0 05bc
000000a0: 2281 563c f22c 86bb a797 613c ab61 4fbb
000000b0: 3e8e acba 3331 413c a8f5 673c b089 5abc
000000c0: 2ee3 013b 05b4 a4ba 6ca9 30bc e8b4 4fbc
000000d0: 531a 813a bf78 acbb ab56 4f3c d7d7 21bc
000000e0: 856d 27bc 44b0 0abc d2c7 9abb 8ccb 2c3c
000000f0: 9969 92bc 58b9 56bc ef2b 5fbc 005f 6bbc
-0.021767871 0.013312368 0.00950283 0.008256264 -0.0036747425 0.018262113 0.004309752 0.01012662
-0.004195165 -0.008132537 -0.011333041 0.0008274825 -0.014128668 0.014381491 -0.013117868 0.00665443
0.012183132 -0.0100352345 0.022138257 0.015052394 0.018961105 0.014280168 0.0037091437 0.014849554
0.008795451 0.014791674 0.013717095 0.016051965 -0.005865363 0.0067805285 0.0077010226 -0.00068229774
-0.0080043515 0.009444835 0.0064557334 0.016266601 -0.017715951 -0.01270298 0.0144426385 -0.008159685
0.013092311 -0.0040947134 0.013769067 -0.0031643908 -0.001316495 0.011791515 0.01415769 -0.013338491
0.0019819248 -0.0012565857 -0.010782581 -0.012677409 0.0009849764 -0.0052634175 0.012654941 -0.00987812
-0.010218983 -0.008464877 -0.0047235275 0.010546576 -0.017872619 -0.013105713 -0.013621314 -0.0143659115

actor.network.vm_encoder.1.running_mean f4 [64]
00000000: fa7f e2c1 3ff3 d342 24b1 b142 fe58 1243
00000010: df84 acc2 4ab2 11c2 c7a6 0e43 2e52 9d42
00000020: efad be42 f419 b342 4937 61c2 959a c642
00000030: 5f15 b9c2 222e da42 00bf dac1 c9d9 6ac0
00000040: ee44 4f42 54ec 6d42 57de d4c2 763b 9c42
00000050: df3f 6642 2f43 ae40 100f 30c2 e8b8 b242
00000060: 8648 70c2 9c26 1443 0110 71c2 c8c3 c3c2
00000070: f9de 2bc2 4ef3 6942 df43 02c0 7fd3 f842
00000080: a6fb 9a42 1bdd 6d3f 1c63 5dc2 7cd2 e5c0
00000090: d6af 47c3 01e8 b442 3432 3a42 ae43 54c1
000000a0: 460c cb42 417b b7c1 9f7e f641 4dd3 ba40
000000b0: 8488 af40 9c78 c2c2 8c1b fc41 8537 0943
000000c0: 0975 ab42 9466 f541 eb20 49c1 00f8 9fc2
000000d0: 2ef7 74c2 3756 9542 d868 bac2 01bb 1441
000000e0: 4d0e bdc2 fb02 4743 cea9 9b41 cf51 71c0
000000f0: 7633 d840 9729 1743 d7bf 6ec2 db3e b5c2
-28.312489 105.97509 88.84598 146.34763 -86.259514 -36.42411 142.65147 78.66051
95.339714 89.55069 -56.30399 99.30192 -92.54174 109.0901 -27.343262 -3.6695426
51.817314 59.48079 -106.43426 78.116135 57.562374 5.445701 -44.01471 89.361145
-60.070824 148.15082 -60.26563 -97.882385 -42.967747 58.487602 -2.0353925 124.41308
77.4915 0.92915505 -55.346786 -7.181944 -199.68686 90.45313 46.549026 -13.266523
101.52397 -22.935183 30.811827 5.8382936 5.4854145 -97.235565 31.51345 137.21687
85.728584 30.675087 -12.570537 -79.984375 -61.241386 74.66839 -93.20477 9.295655
-94.52793 199.01164 19.457912 -3.7706182 6.756282 151.16246 -59.687344 -90.622765

actor.network.vm_encoder.1.running_var f4 [64]
00000000: 7cd5 6244 5800 1b43 e833 8f3e 1420 5243
00000010: 9b2a 7c40 855e e743 f931 663e 85eb 3b43
00000020: 3751 6441 5270 5f43 9257 053f 1637 933f
00000030: 7f9f e73f 9265 c93e 1321 3444 cfef 0a3f
00000040: bf27 3842 9775 b542 141d c941 7c39 9543
00000050: ac2d d943 a01b 0144 d8ba 8b43 1da6 4d43
00000060: 4c1c 4544 aa35 6b43 4364 0641 8fa2 4842
00000070: f3a1 1742 de0b 1f42 1c80 9643 4dc7 a042
00000080: 6ad5 c342 f337 e240 cf49 9e42 ff9d 3e43
00000090: 40ae df43 0e93 9d43 0fc9 cd42 d90c 7543
000000a0: e25e 1a44 a845 2944 e20d a743 cef5 5a43
000000b0: 324a 4144 9a92 b842 f368 8144 001c 8542
000000c0: b6b0 f83f 7260 ad43 972b e43f 0437 f242
000000d0: 9003 1b40 5d20 1542 fd01 8041 33dd 9b3e
000000e0: 70d2 4644 9a02 6f44 bcf3 f342 2754 2642
000000f0: 9c00 0e43 f49e 4244 48ae 9f41 9328 6742
907.3357 155.00134 0.2796929 210.1253 3.9401004 462.73843 0.2248 187.92
14.269828 223.43875 0.52086747 1.1501186 1.8095549 0.39335304 720.5168 0.5427217
46.038815 90.72967 25.139198 298.4491 434.3568 516.43164 279.45972 205.64888
788.44214 235.20963 8.399478 50.15875 37.908154 39.76159 301.00085 80.38926
97.916824 7.0693297 79.14416 190.61717 447.36133 315.14886 102.89269 245.05019
617.48254 677.0884 334.10846 218.96017 773.1593 92.28633 1035.2797 66.55469
1.9428928 346.75348 1.7825803 121.10745 2.4220924 37.281605 16.00097 0.304422
795.2881 956.04065 121.97604 41.58218 142.00238 778.48364 19.960098 57.789623
