logs/wide_aligned/ablation/per_variant/hetero/hetero_best.pt (torch, 286379 bytes, 90 tensors)

actor.network.task_encoder.0.weight f4 [64, 6]
0.39314803 0.3101282 0.40174064 -0.031803742 -0.34045127 -0.26255992 -0.10863424 0.05571629
-0.13207324 -0.23516038 -0.03325351 0.2574948 0.3399627 -0.20195913 -0.23314972 -0.018847343
0.17947033 0.1827534 -0.1510283 0.14012775 -0.07291824 -0.04890997 -0.3311185 0.29244536
-0.28709617 0.10086493 -0.20584193 -0.34417734 -0.025957175 0.13546982 -0.3750757 0.029911105
-0.15241542 -0.058110036 -0.18186338 -0.05086949 0.36736062 -0.39275697 -0.19235295 0.3469436
-0.02166999 -0.084812544 0.13695173 -0.17209928 0.16785209 -0.25176135 -0.12339696 0.3124496
0.04006079 -0.32285342 0.24546488 -0.2713159 -0.02512636 -0.0011992324 -0.17657903 0.17841731
-0.056732923 0.22278824 0.20764086 -0.31928065 0.30517712 0.010150277 0.32244316 0.25406832
-0.119042814 -0.080840215 -0.1497083 -0.19291744 0.31627774 0.3806292 0.1807998 0.36675122
0.13785917 0.06437783 -0.16242227 0.38098678 -0.29169247 0.3015542 -0.05561233 -0.16108398
-0.004587634 0.25293475 -0.3791738 -0.31610444 -0.07693292 -0.4021717 0.06809401 -0.2890487
-0.3652086 -0.16582948 -0.21801393 -0.002831832 0.27435565 -0.09945243 0.08062847 0.18441434
0.109056614 0.021789297 0.08646231 0.24017553 -0.36120722 -0.1626346 0.3607465 -0.106670655
0.2583692 -0.32620078 0.09193885 -0.011943121 -0.38529474 0.09484525 -0.029933773 -0.39597815
-0.12682493 0.33633566 0.08192631 -0.24944693 -0.21040672 -0.18625827 -0.21167067 0.07687099
-0.19147749 0.29042712 0.21821497 0.29937264 0.0070633194 0.36888477 -0.3419179 -0.22006226
-0.23236081 0.19072938 -0.38822284 -0.1934432 0.16266125 0.38247058 0.26645422 0.1688172
-0.2870784 0.123892955 -0.15167508 0.026542563 -0.02864339 0.3820962 0.26932368 0.042691685
-0.39628607 0.31921974 0.28052872 0.13872956 -0.40428796 -0.2712531 0.21493943 -0.3825523
0.17068918 0.047050796 0.37538266 0.13974184 0.21490115 0.13240707 -0.19341329 -0.22175287
-0.39575282 -0.06370856 0.0051809577 -0.13089608 0.11389984 0.28629744 0.03358679 -0.15858318
-0.35578603 -0.20883593 0.13270298 -0.38026124 -0.40362152 0.022160321 0.010613614 -0.32154635
0.09339048 0.17867303 -0.31811428 -0.0606123 0.24138112 0.3646577 -0.2855685 -0.21942382
-0.23091702 -0.20782417 -0.25973874 0.30796975 -0.033799276 -0.31028304 -0.2912136 -0.34698862
-0.3842344 0.024514917 0.025813533 0.23470196 0.34090054 0.2878588 0.3546147 -0.15771858
-0.30857638 -0.03766598 -0.08776567 -0.01940386 0.009946053 -0.22989608 -0.34841016 -0.16794364
0.076561116 0.20910619 -0.3686143 -0.3633871 -0.028744685 -0.1562733 -0.16596586 -0.39482102
0.18326497 -0.069076516 0.32107803 -0.26209262 -0.37181053 -0.0052879974 0.09472758 0.2405316
-0.052121762 0.31351125 -0.22010535 -0.34585962 -0.20163244 -0.16261746 0.13803998 0.32670638
0.3849135 -0.19423522 -0.0976149 -0.06617831 0.14855118 -0.12546404 -0.14597027 0.070927605
-0.259939 0.35009676 -0.3551423 -0.36067104 -0.022562945 -0.28840148 -0.19128013 0.2546055
0.006784739 -0.047017224 -0.35207194 -0.13338466 -0.13638179 0.30106577 0.15708779 -0.03731652
00000000: b34a c93e 20c9 9e3e f3b0 cd3e a444 02bd
00000010: a14f aebe 416e 86be a17b debd c436 643d
00000020: 353e 07be e2cd 70be d534 08bd 5cd6 833e
00000030: 970f ae3e 60ce 4ebe cdbe 6ebe be65 9abc
00000040: 12c7 373e b523 3b3e 2aa7 1abe a67d 0f3e
00000050: 2956 95bd d255 48bd 5d88 a9be 66bb 953e
00000060: 45fe 92be 4692 ce3d 3ac8 52be 0338 b0be
00000070: 24a4 d4bc 9ab8 0a3e ec09 c0be 2208 f53c
00000080: ca12 1cbe ca04 6ebd 653a 3abe 875c 50bd
00000090: b116 bc3e 7117 c9be 2cf8 44be 97a2 b13e
000000a0: 4385 b1bc 33b2 adbd 133d 0c3e cb3a 30be
000000b0: 6be1 2b3e dde6 80be 8cb7 fcbd 65f9 9f3e
000000c0: c816 243d 0b4d a5be 255b 7b3e ebe9 8abe
000000d0: ccd5 cdbc 902f 9dba 22d1 34be 07b3 363e
000000e0: c860 68bd 9a22 643e ce9f 543e c178 a3be
000000f0: 2d40 9c3e 594d 263c 4517 a53e 3e15 823e
00000100: b8cc f3bd 8e8f a5bd 224d 19be 268c 45be
00000110: 28ef a13e d5e1 c23e 9523 393e d1c6 bb3e
00000120: f42a 0d3e 86d8 833d 0652 26be b310 c33e
00000130: b758 95be 5065 9a3e c1c9 63bd 33f3 24be
00000140: dd53 96bb aa80 813e 1123 c2be 71d8 a1be
00000150: 028f 9dbd 73e9 cdbe df74 8b3d 31fe 93be
00000160: 9ffc babe 34cf 29be 0b3f 5fbe 4296 39bb
00000170: 5878 8c3e b7ad cbbd 8a20 a53d 1dd7 3c3e
00000180: 1359 df3d 787f b23c 2713 b13d 93f0 753e
00000190: 27f0 b8be af89 26be c4b3 b83e 2576 dabd
000001a0: f848 843e ca03 a7be 704a bc3d 15ad 43bc
000001b0: 5a45 c5be 3a3e c23d ac37 f5bc a6bd cabe
000001c0: 65de 01be 3034 ac3e fbc8 a73d 046f 7fbe
000001d0: dc74 57be 7dba 3ebe 32c0 58be 8a6e 9d3d
000001e0: ad12 44be ddb2 943e bf73 5f3e 5f47 993e
000001f0: 6b73 e73b 77de bc3e dd0f afbe 0058 61be
00000200: feef 6dbe 904e 433e 25c5 c6be f915 46be
00000210: ac90 263e 2fd3 c33e b06c 883e 6bde 2c3e
00000220: f1fb 92be 97bb fd3d b650 1bbe ca6f d93c
00000230: 8ba5 eabc 1da2 c33e cbe4 893e 7add 2e3d
00000240: 02e6 cabe c570 a33e 76a1 8f3e 1f0f 0e3e
00000250: d5fe cebe b0e1 8abe 1519 5c3e e5dd c3be
00000260: 25c9 2e3e 56b8 403d 2832 c03e 7c18 0f3e
00000270: 0c0f 5c3e b895 073e 220e 46be 2f13 63be
00000280: 1da0 cabe a279 82bd 06c5 a93b 9f09 06be
00000290: 5244 e93d 9495 923e 4d92 093d a163 22be
000002a0: 9629 b6be 16d9 55be 4ae3 073e 9ab1 c2be
000002b0: 7ba7 cebe 9089 b53c b9e4 2d3c b9a1 a4be
000002c0: 8243 bf3d 10f6 363e e0df a2be 9a44 78bd
000002d0: 9d2c 773e 6ab4 ba3e 0936 92be a3b0 60be
000002e0: 8375 6cbe dccf 54be 7afc 84be 36ae 9d3e
000002f0: 1c71 0abd 6bdd 9ebe f319 95be 7ea8 b1be
00000300: 5fba c4be 82d3 c83c e776 d33c b655 703e
00000310: 848a ae3e 3b62 933e 0f90 b53e fb80 21be
00000320: b9fd 9dbe a547 1abd 7dbe b3bd d8f4 9ebc
00000330: c5f4 223c e169 6bbe d162 b2be 6bf9 2bbe
00000340: 13cc 9c3d ef1f 563e 03bb bcbe e00d babe
00000350: f979 ebbc 1c06 20be f4f2 29be fb25 cabe
00000360: d0a9 3b3e fd77 8dbd 5764 a43e 0131 86be
00000370: f35d bebe f046 adbb 8900 c23d ea4d 763e
00000380: a17d 55bd 8c84 a03e 4c63 61be 8314 b1be
00000390: bc78 4ebe 3185 26be 5a5a 0d3e 0f46 a73e
000003a0: 6213 c53e 99e5 46be 52ea c7bd 7e88 87bd
000003b0: cd1d 183e a579 00be 3b79 15be 7e42 913d
000003c0: b916 85be e23f b33e 36d5 b5be e0a9 b8be
000003d0: edd5 b8bc 5ca9 93be f0de 43be a75b 823e
000003e0: 8452 de3b 2295 40bd c642 b4be fd95 08be
000003f0: aba7 0bbe 4b25 9a3e 9fdb 203e 35d9 18bd

actor.network.task_encoder.0.bias f4 [64]
-0.17164512 0.27201003 -0.3526209 0.14604293 -0.33613157 0.13287038 -0.19631383 0.2929656
-0.3130067 0.40603453 0.37443915 0.15044266 0.39297232 -0.39060828 -0.015846752 -0.33208925
0.2591615 -0.044247054 0.23962604 -0.083303824 0.17233828 0.31960976 -0.2853573 0.37407294
-0.40026686 -0.031104533 -0.09664228 -0.12304942 0.40490094 -0.25535545 0.015545064 0.021409338
0.14456077 -0.09362103 0.31299168 0.37759298 -0.23711064 -0.124149784 -0.29021493 0.23794533
-0.3782685 -0.13662352 -0.1902177 0.044666417 -0.13560468 0.3130655 0.12333812 0.090612635
0.24612571 -0.036189795 0.092230126 -0.19132459 0.17196564 -0.12558459 0.30834436 -0.1749226
-0.067222156 -0.35790095 0.24626587 -0.25030202 0.3654634 0.12304427 -0.023132443 -0.15301524
00000000: bdc3 2fbe e644 8b3e ba8a b4be 478c 153e
00000010: 7019 acbe 2c0f 083e 7e06 49be 96ff 953e
00000020: 6a42 a0be c2e3 cf3e 7db6 bf3e a40d 1a3e
00000030: ab33 c93e cffd c7be 0cd1 81bc 9a07 aabe
00000040: d1b0 843e 663c 35bd 8760 753e 329b aabd
00000050: 7279 303e e4a3 a33e 5a1a 92be 7d86 bf3e
00000060: c7ef ccbe efce febc 63ec c5bd 5601 fcbd
00000070: 2d4f cf3e f3bd 82be b9b0 7e3c a362 af3c
00000080: bd07 143e 62bc bfbd 7240 a03e de53 c13e
00000090: 22cd 72be 3e42 febd 0d97 94be f1a7 733e
000000a0: 69ac c1be 09e7 0bbe 6ec8 42be 22f4 363d
000000b0: f4db 0abe 1f4a a03e b298 fc3d 1e93 b93d
000000c0: 6108 7c3e c03b 14bd 26e3 bc3d 98ea 43be
000000d0: c317 303e 3f99 00be 50df 9d3e e91e 33be
000000e0: c5ab 89bd cb3e b7be 1f2d 7c3e 9627 80be
000000f0: 051e bb3e a2fe fb3d 4080 bdbc 07b0 1cbe

actor.network.task_encoder.1.weight f4 [64]
0.9885112 1.0128763 1.0017121 0.9921567 0.9969381 1.0041132 0.99997044 1.0030888
1.0064639 0.9941752 1.000591 0.9933647 0.992164 1.0053058 1.0212598 0.9815369
1.0124643 0.9908812 1.0053288 0.9904942 0.9985196 1.0038623 1.0085028 0.99192375
1.0044172 1.0135003 0.99165213 1.0208368 1.0060226 1.0128831 0.9967928 1.0072372
1.0014964 0.9960388 0.9902087 0.99792403 0.9966543 0.99983865 0.99518263 0.9933477
1.0023072 1.0088706 0.99336404 0.9957046 1.0039641 0.99071985 0.99325955 1.0031613
0.9990023 0.99663246 1.0002208 1.0003135 1.001756 0.99064296 1.0050749 1.0050257
1.0044724 0.99405086 0.99627423 1.0018965 1.0019208 0.99409914 1.0106981 0.9975099
00000000: 120f 7d3f eea5 813f 1a38 803f fbfd 7d3f
00000010: 5637 7f3f c886 803f 10fe 7f3f 3765 803f
00000020: cfd3 803f 4482 7e3f 5e13 803f 264d 7e3f
00000030: 76fe 7d3f dcad 803f a4b8 823f 0146 7b3f
00000040: 6e98 813f 64aa 7d3f 9dae 803f 0791 7d3f
00000050: fb9e 7f3f 8f7e 803f 9f16 813f b7ee 7d3f
00000060: be90 803f 61ba 813f eadc 7d3f c8aa 823f
00000070: 59c5 803f 27a6 813f d02d 7f3f 26ed 803f
00000080: 0931 803f 66fc 7e3f 517e 7d3f f377 7f3f
00000090: bc24 7f3f 6df5 7f3f 4ac4 7e3f 094c 7e3f
000000a0: 9a4b 803f ac22 813f 1b4d 7e3f 7fe6 7e3f
000000b0: e581 803f d19f 7d3f 4246 7e3f 9767 803f
000000c0: 9dbe 7f3f 4e23 7f3f 3c07 803f 460a 803f
000000d0: 8a39 803f c79a 7d3f 4ba6 803f afa4 803f
000000e0: 8d92 803f 1e7a 7e3f d40b 7f3f 253e 803f
000000f0: f13e 803f 487d 7e3f 8e5e 813f cf5c 7f3f

actor.network.task_encoder.1.bias f4 [64]
-0.012804246 0.019937608 0.00215064 -0.0046212953 0.006111663 -0.010664268 0.010305363 0.0039161392
-0.0015735737 -0.013454898 0.013162409 0.0067685535 -0.006672203 -0.0026202213 0.0090253055 -0.0028018113
0.016914975 0.0059996336 0.005390875 -0.0032036353 0.003736399 0.0019673146 0.015540259 -0.002571358
0.020278506 0.0036576907 0.0044846986 0.016552996 0.017182093 0.016910946 -0.0050047603 0.03266247
0.0061310027 -0.0150989555 -0.018410934 -0.0032444901 -0.015537015 -0.0047582802 -0.005551633 -0.0059000924
0.0084849745 -0.008417733 -0.014404699 -0.009169033 -0.005482988 0.00056945265 -0.007242707 0.011527395
-0.01680675 -0.0037849832 0.0054648877 -0.0019707242 -0.00853981 -0.013628803 -0.0005196809 0.015614228
0.0077873864 -0.0077990554 -0.004342837 -0.018152615 -0.0027881225 -0.014533159 0.009108617 -0.01840955
00000000: e6c8 51bc 3254 a33c c0f1 0c3b 3c6e 97bb
00000010: 5844 c83b 2fb9 2ebc d3d7 283c f552 803b
00000020: 5f40 ceba ef71 5cbc 25a7 573c beca dd3b
00000030: 7fa2 dabb 05b8 2bbb e0de 133c 989e 37bb
00000040: 4691 8a3c 9398 c43b f0a5 b03b 15f4 51bb
00000050: 60de 743b 10ee 003b 929c 7e3c 3b84 28bb
00000060: 1c1f a63c deb5 6f3b 61f4 923b 269a 873c
00000070: 76c1 8c3c d388 8a3c f9fe a3bb 15c9 053d
00000080: 94e6 c83b 9c61 77bc 87d2 96bc 83a1 54bb
00000090: f78e 7ebc 59eb 9bbb 79ea b5bb 9055 c1bb
000000a0: 9004 0b3c 88ea 09bc b001 6cbc b639 16bc
000000b0: a3aa b3bb 5247 153a 3b54 edbb 66dd 3c3c
000000c0: 4fae 89bc 7b0d 78bb cd12 b33b 4427 01bb
000000d0: 8fea 0bbc 584b 5fbc 323b 08ba d2d2 7f3c
000000e0: 552d ff3b 388f ffbb 5b4e 8ebb cbb4 94bc
000000f0: efb8 36bb 7d1c 6ebc 4f3c 153c a0cf 96bc

actor.network.task_encoder.1.running_mean f4 [64]
19442.705 -6391.8237 -11283.697 -3529.4297 -9962.728 -7376.821 -9309.347 8123.684
11879.36 -2745.0476 15605.737 15307.265 -7860.6343 -222.99081 3294.8467 13277.652
4184.3696 12504.556 -1448.9213 -10183.48 10561.135 -11246.045 12895.104 -1385.5264
13575.629 8261.434 -9361.184 5512.365 6421.9536 4519.0894 -13820.818 -1636.3314
1249.7417 -14934.237 -16861.674 -1391.3363 15538.53 -2522.8354 6680.889 7189.384
-17188.412 327.6436 7602.8784 17932.564 1828.6914 14458.896 -8292.32 -7529.8804
-12607.836 -10928.912 -6584.748 13700.916 -4324.649 -19476.234 -19472.316 9817.042
-3699.6638 -10491.376 -18779.48 6836.227 -3715.5154 13821.025 4024.1167 -5793.337
00000000: 69e5 9746 97be c7c5 ca4e 30c6 e096 5cc5
00000010: e9aa 1bc6 9186 e6c5 6375 11c6 79dd fd45
00000020: 719d 3946 c390 2bc5 f3d6 7346 0f2d 6f46
00000030: 13a5 f5c5 a6fd 5ec3 8ced 4d45 9c76 4f46
00000040: f5c2 8245 3962 4346 7b1d b5c4 ec1d 1fc6
00000050: 8a04 2546 2eb8 2fc6 6a7c 4946 d830 adc4
00000060: 841e 5446 bc15 0146 bc44 12c6 ec42 ac45
00000070: a1af c845 b738 8d45 46f3 57c6 9b8a ccc4
00000080: bc37 9c44 f358 69c6 59bb 83c6 c3ea adc4
00000090: 1fca 7246 5ead 1dc5 1dc7 d045 12ab e045
000000a0: d348 86c6 61d2 a343 0797 ed45 2119 8c46
000000b0: 2096 e444 96eb 6146 4891 01c6 0b4f ebc5
000000c0: 58ff 44c6 a6c3 2ac6 fcc5 cdc5 aa13 5646
000000d0: 3125 87c5 7828 98c6 a220 98c6 2b64 1946
000000e0: 9f3a 67c5 81ed 23c6 f6b6 92c6 d1a1 d545
000000f0: 3f38 68c5 1af4 5746 de81 7b45 b20a b5c5

actor.network.task_encoder.1.running_var f4 [64]
6.3449336e+07 6.857718e+06 2.1369922e+07 2.0906265e+06 1.6657766e+07 9.133158e+06 1.4545892e+07 1.1076147e+07
2.3687592e+07 1.2652304e+06 4.0874096e+07 3.9326844e+07 1.0371823e+07 8293.8125 1.8225868e+06 2.9592028e+07
2.9386615e+06 2.624408e+07 352327.75 1.7405116e+07 1.8720362e+07 2.122722e+07 2.7911168e+07 322457.72
3.0937114e+07 1.1454745e+07 1.4707601e+07 5.1003015e+06 6.9224745e+06 3.4285255e+06 3.2060798e+07 449244.2
262054.66 3.74345e+07 4.7722576e+07 324907.12 4.052764e+07 1.0681384e+06 7.49184e+06 8.675267e+06
4.958515e+07 18068.719 9.701908e+06 5.3974668e+07 561210.2 3.5088344e+07 1.154043e+07 9.517241e+06
2.6680566e+07 2.0047436e+07 7.2783305e+06 3.150749e+07 3.1392898e+06 6.3666676e+07 6.3644932e+07 1.6175325e+07
2.2973295e+06 1.847259e+07 5.9193036e+07 7.845356e+06 2.3176775e+06 3.2062892e+07 2.7180648e+06 5.6328725e+06
00000000: 3e0a 724c ec47 d14a 210a a34b 1434 ff49
00000010: 662d 7e4b 665c 0b4b e4f3 5d4b 3302 294b
00000020: d4b8 b44b 7372 9a49 1cec 1b4c 1f05 164c
00000030: ef42 1e4b 4097 0146 d67b de49 eec4 e14b
00000040: 965c 334a f839 c84b f808 ac48 5eca 844b
00000050: 35d3 8e4b 6af3 a14b 00f2 d44b 3773 9d48
00000060: 0d08 ec4b 19c9 2e4b 916b 604b 1ba6 9b4a
00000070: d541 d34a b642 514a bf9a f44b 865b db48
00000080: aae9 7f48 21cd 0e4c 140c 364c 64a5 9e48
00000090: c699 1a4c 5363 8249 00a2 e44a c35f 044b
000000a0: 0027 3d4c 7029 8d46 140a 144b a3e5 4d4c
000000b0: a303 0949 f6d9 054c ce17 304b b938 114b
000000c0: 7b8e cb4b 26f3 984b f51d de4a 1162 f04b
000000d0: 679b 3f4a 7dde 724c 41c9 724c ddd0 764b
000000e0: c637 0c4a 47ef 8c4b b3cd 614c d86b ef4a
000000f0: b675 0d4a d69e f44b c3e5 254a d1e6 ab4a

actor.network.task_encoder.3.weight f4 [64, 64]
-0.033097826 -0.09427408 0.032270014 -0.12284404 -0.059863403 -0.09202202 0.039054796 0.035346776
0.10768023 -0.024883503 0.09851533 -0.09026501 -0.08662057 -0.09351337 -0.001237452 -0.11757365
0.08017937 -0.10233701 0.04751832 -0.06062147 -0.0022175156 -0.0396601 0.05483702 0.11275105
-0.12778494 -0.11166245 -0.01590202 -0.00024341085 0.11469618 0.050575495 -0.006752078 -0.11261752
0.023183893 -0.05415306 0.041952565 -0.05013043 -0.011035477 0.08136562 0.10789399 -0.11444736
-0.08114159 -0.05192094 -0.007878732 0.08238399 0.07150945 -0.014950852 -0.074152194 0.10593345
-0.050433226 -0.061574873 0.051195443 0.06486015 0.03181907 -0.035647918 -0.054897387 -0.041035227
0.086256996 0.06340779 0.048761386 -0.01631241 0.054522756 0.011953618 -0.05265035 -0.054694124
0.052010816 0.0047529317 0.10009954 0.088324465 0.07491525 -0.09187591 -0.11066324 0.05175839
-0.011779737 -0.11980548 -0.05834055 -0.06331708 -0.07622781 0.02593665 0.036764666 -0.07765026
-0.11120424 0.07814348 0.073980756 0.04239927 0.0408152 -0.015641853 -0.019549001 -0.026775634
-0.06550182 -0.09421438 0.08096074 -0.023351619 0.002206693 -0.108034626 0.008528831 0.0036396405
-0.092505835 -0.10260989 -0.097596146 -0.114842996 0.09712791 -0.056395862 -0.03033704 0.07571572
0.03677913 0.009592305 -0.0039984034 -0.003222909 -0.004430405 -0.049619343 0.015172577 0.05525919
-0.061683305 0.100104496 0.03279392 -0.038905963 0.052170552 0.049655538 0.051806305 -0.036166355
0.08692664 0.007413267 0.093837135 -0.045317914 -0.03681561 0.04877143 0.012042667 0.045817796
-0.053275205 -0.013286972 0.11291653 -0.05805473 0.052780945 -0.12749635 0.060866423 0.10202964
0.010793139 -0.030695789 0.058012553 0.03597252 0.057988204 0.011826462 -0.088549495 -0.08544649
0.096857615 0.008708051 0.08776713 0.05837085 -0.0582349 -0.09030134 0.09449262 -0.04573834
0.08401759 -0.07056567 -0.026168888 0.026550736 0.00033094504 0.107813634 -0.0153537905 0.024731433
0.105332345 -0.12796275 0.020671254 0.077738956 -0.007944299 0.012195485 0.08626588 0.058013078
-0.04088639 0.10944155 -0.05422039 0.09806624 0.13029918 0.09637245 0.028171265 -0.07027068
0.087895684 -0.014374922 -0.105957314 0.0845111 0.010750559 0.0758431 -0.03860695 0.020791454
0.02694453 -0.070254296 0.025283126 0.095378496 0.081376 0.057430588 0.0957936 -0.041676268
-0.04158074 -0.021370538 0.11496394 -0.049284317 -0.07875956 0.057563797 -0.0010029292 -0.07240429
-0.09206743 0.0915823 0.032623254 0.107864365 -0.08350541 0.110847645 -0.023521524 -0.0026665977
0.048175737 -0.068622194 -0.032033723 -0.03483265 0.07534632 -0.091349274 0.030425783 -0.099387035
-0.040039618 -0.042926345 -0.05619845 -0.04891692 0.033844527 -0.07475436 -0.042986963 -0.070725724
0.015080254 0.012857554 -0.058797434 0.0059375735 0.108345374 -0.0111694215 -0.080016024 -0.11456883
0.10282761 0.050943486 0.09160361 0.08402289 -0.024081524 0.015414502 0.02367867 0.043140985
-0.04384408 -0.12504356 0.117270306 0.06899857 -0.0053608366 0.081021726 -0.04430786 -0.11214709
0.0076488317 -0.090149626 -0.07712368 0.0968871 -0.06937927 0.06573185 0.09315088 -0.09278178
00000000: 9691 07bd c512 c1bd 902d 043d a895 fbbd
00000010: 5433 75bd 0a76 bcbd ecf7 1f3d c8c7 103d
00000020: 7487 dc3d 7dd8 cbbc 68c2 c93d dddc b8bd
00000030: 2066 b1bd f083 bfbd 0032 a2ba 74ca f0bd
00000040: 1535 a43d 1196 d1bd 92a2 423d 384e 78bd
00000050: bd53 11bb a172 22bd c89c 603d 06ea e63d
00000060: 0eda 02be 48af e4bd f444 82bc 1a3c 7fb9
00000070: d5e5 ea3d 4028 4f3d 8940 ddbb 04a4 e6bd
00000080: 26ec bd3c 99cf 5dbd 74d6 2b3d 9155 4dbd
00000090: 25ce 34bc 05a3 a63d 86f7 dc3d 6163 eabd
000000a0: 902d a6bd 0dab 54bd cc15 01bc f0b8 a83d
000000b0: 8c73 923d 6bf4 74bc 1bdd 97bd a3f3 d83d
000000c0: 1293 4ebd ef35 7cbd 50b2 513d 66d5 843d
000000d0: b754 023d 8d03 12bd 15dc 60bd 8e14 28bd
000000e0: 82a7 b03d f2db 813d 05ba 473d 9aa1 85bc
000000f0: 4153 5f3d 1cd9 433c e5a7 57bd f206 60bd
00000100: 4b09 553d 7bbe 9b3b fd00 cd3d 75e3 b43d
00000110: 2b6d 993d 7029 bcbd 69a3 e2bd 9b00 543d
00000120: ccff 40bc 935c f5bd 80f6 6ebd 63ac 81bd
00000130: 531d 9cbd 1979 d43c 8c96 163d 1907 9fbd
00000140: 0cbf e3bd b009 a03d 3983 973d dbaa 2d3d
00000150: d72d 273d 5823 80bc 3a25 a0bc 9358 dbbc
00000160: d125 86bd 78f3 c0bd bfce a53d e54b bfbc
00000170: 2a9e 103b 4241 ddbd 83bc 0b3c 0987 6e3b
00000180: b373 bdbd 2225 d2bd 7de0 c7bd ce32 ebbd
00000190: ffea c63d 59ff 66bd 6285 f8bc d810 9b3d
000001a0: b7a5 163d 0b29 1d3c 0a05 83bb 7137 53bb
000001b0: ee2c 91bb a73d 4bbd 6796 783c 7657 623d
000001c0: a2a7 7cbd 9603 cd3d eb52 063d dc5b 1fbd
000001d0: cab0 553d 9b63 4b3d d932 543d 2c23 14bd
000001e0: 9806 b23d feea f23b af2d c03d 479f 39bd
000001f0: f7cb 16bd 8dc4 473d 9b4e 453c 71ab 3b3d
00000200: 1a37 5abd 9ab1 59bc c840 e73d ccca 6dbd
00000210: d530 583d 678e 02be 124f 793d eaf4 d03d
00000220: b5d5 303c bc75 fbbc 929e 6d3d ec57 133d
00000230: 0a85 6d3d c7c3 413c 7059 b5bd 92fe aebd
00000240: 495d c63d 37ac 0e3c 41bf b33d 4616 6f3d
00000250: b887 6ebd e9ef b8bd 5985 c13d 2058 3bbd
00000260: 6a11 ac3d bc84 90bd 2360 d6bc ee80 d93c
00000270: b182 ad39 65cd dc3d 778e 7bbc 9399 ca3c
00000280: 7cb8 d73d ab08 03be c356 a93c 9a35 9f3d
00000290: ce28 02bc 92cf 473c 2aac b03d 1f9f 6d3d
000002a0: 7d78 27bd e422 e03d 3316 5ebd f4d6 c83d
000002b0: 266d 053e eb5e c53d 6dc7 e63c 13ea 8fbd
000002c0: a702 b43d cb84 6bbc 2600 d9bd 2814 ad3d
000002d0: 1d23 303c a153 9b3d 5222 1ebd d752 aa3c
000002e0: c6ba dc3c 7ce1 8fbd 8f1e cf3c cd55 c33d
000002f0: 76a8 a63d 563c 6b3d 6f2f c43d bcb4 2abd
00000300: 9150 2abd 4411 afbc 3772 eb3d 5ade 49bd
00000310: b14c a1bd 04c8 6b3d b874 83ba b348 94bd
00000320: d98d bcbd 808f bb3d f69f 053d fee7 dc3d
00000330: e204 abbd 1704 e33d 36b0 c0bc 16c2 2ebb
00000340: ec53 453d cb89 8cbd cb35 03bd aeac 0ebd
00000350: 2c4f 9a3d 5415 bbbd 7e3f f93c 6e8b cbbd
00000360: 9500 24bd 89d3 2fbd 5930 66bd 1c5d 48bd
00000370: 8fa0 0a3d d018 99bd 1913 30bd a6d8 90bd
00000380: 2b13 773c 7da8 523c 94d5 70bd fa8f c23b
00000390: 2ee4 dd3d f3ff 36bc 71df a3bd 10a3 eabd
000003a0: 4897 d23d 1eaa 503d ac9a bb3d 3114 ac3d
000003b0: 9e46 c5bc 1b8d 7c3c c5f9 c13c 9ab4 303d
000003c0: da95 33bd 6b0b 00be 6a2b f03d 1f4f 8d3d
000003d0: f5a9 afbb b8ee a53d 297c 35bd 60ad e5bd
000003e0: 0da3 fa3b 5ea0 b8bd 05f3 9dbd be6c c63d
000003f0: b816 8ebd 6c9e 863d e3c5 be3d 6004 bebd

actor.network.task_encoder.3.bias f4 [64]
-0.0027422542 -0.11477685 -0.11714133 0.12161646 -0.08374277 0.09321381 -0.097193874 -0.05454657
-0.042722695 0.057583123 0.09750845 -0.011308392 0.08311887 -0.06628773 0.08926841 -0.091832645
0.08100712 0.05814172 0.056898654 -0.032782502 0.09585701 -0.0028164377 0.09713889 0.0010146804
0.038530506 0.109510206 -0.11422461 -0.06814339 -0.008768224 -0.07338975 -0.0058656153 -0.031989556
0.05478572 -0.086207464 -0.083737485 0.007034024 -0.09330334 0.06300687 -0.06744731 -0.06538269
-0.09264011 -0.023026519 0.04924867 0.0972455 -0.025723508 -0.091247395 -0.07297411 0.11498401
-0.027880114 0.06272014 -0.09178101 -0.121239126 -0.09102292 0.021617126 -0.09090782 0.10328307
-0.009352295 0.116653286 -0.09011151 0.02454985 -0.097953066 -0.041127864 -0.09337373 -0.031404343
00000000: 64b7 33bb 2010 ebbd cbe7 efbd 0d12 f93d
00000010: 5481 abbd e2e6 be3d 950d c7bd 396c 5fbd
00000020: fefd 2ebd 48dc 6b3d 83b2 c73d d546 39bc
00000030: 3a3a aa3d ddc1 87bd 5bd2 b63d c112 bcbd
00000040: 10e7 a53d 0326 6e3d 900e 693d f246 06bd
00000050: ae50 c43d fc93 38bb c1f0 c63d 06ff 843a
00000060: 2ad2 1d3d e346 e03d 98ee e9bd c38e 8bbd
00000070: 99a8 0fbc 5e4d 96bd 5934 c0bb 7b07 03bd
00000080: fe66 603d 8a8d b0bd 8f7e abbd ac7d e63b
00000090: d215 bfbd bf09 813d d121 8abd 5ce7 85bd
000000a0: 19ba bdbd 1ca2 bcbc f9b8 493d a628 c73d
000000b0: 1bba d2bc eadf babd 7373 95bd bd7c eb3d
000000c0: d664 e4bc 6b73 803d aff7 bbbd 384c f8bd
000000d0: 3a6a babd 6616 b13c e12d babd 1386 d33d
000000e0: 5e3a 19bc ebe7 ee3d 628c b8bd c41c c93c
000000f0: 9e9b c8bd b175 28bd ba3a bfbd d7a1 00bd

actor.network.task_encoder.4.weight f4 [64]
0.9931035 0.99866796 1.0070935 0.99717575 0.99085724 1.0018908 0.9997756 0.9950486
0.99616385 0.9980687 0.9922172 0.99706924 1.0046027 0.9972675 0.99820065 1.0053847
1.0059258 0.9984103 0.9947282 0.9896908 1.0066854 0.9981021 0.9968464 0.99877447
1.012692 1.0043201 0.99030524 0.99486184 0.99995035 0.99839526 0.9957065 1.010043
1.0048851 0.99968654 0.9969996 1.0045016 0.99398494 1.0041574 0.9947204 0.9946085
0.9943102 0.9938997 0.98853844 0.9948632 0.99551207 0.9941517 0.9973937 0.9932306
0.9927624 1.0091177 0.9987374 0.9988691 1.0020732 0.9966446 1.0027324 0.99906385
0.99836963 0.99854004 0.9971689 1.0100758 0.9912165 1.0004214 0.9998223 0.9987241
00000000: 083c 7e3f b4a8 7f3f 71e8 803f e946 7f3f
00000010: d2a8 7d3f f53d 803f 4bf1 7f3f 81bb 7e3f
00000020: 9804 7f3f 6e81 7f3f f201 7e3f ee3f 7f3f
00000030: d296 803f ec4c 7f3f 148a 7f3f 72b0 803f
00000040: 2dc2 803f d197 7f3f 82a6 7e3f 605c 7d3f
00000050: 11db 803f 9f83 7f3f 5331 7f3f afaf 7f3f
00000060: e49f 813f 908d 803f a584 7d3f 44af 7e3f
00000070: bffc 7f3f d596 7f3f 9fe6 7e3f 1749 813f
00000080: 13a0 803f 75eb 7f3f 5e3b 7f3f 8293 803f
00000090: cc75 7e3f 3b88 803f ffa5 7e3f aa9e 7e3f
000000a0: 1d8b 7e3f 3670 7e3f db10 7d3f 5baf 7e3f
000000b0: e1d9 7e3f ba80 7e3f 3255 7f3f 5c44 7e3f
000000c0: ad25 7e3f c52a 813f 41ad 7f3f e3b5 7f3f
000000d0: ef43 803f 1a24 7f3f 8959 803f a6c2 7f3f
000000e0: 2795 7f3f 52a0 7f3f 7646 7f3f 2a4a 813f
000000f0: 5dc0 7d3f cf0d 803f 5bf4 7f3f 62ac 7f3f

actor.network.task_encoder.4.bias f4 [64]
-0.004706061 -0.0020027698 0.0029294523 -0.0029402354 -0.0074355616 0.006537364 0.002674078 -0.0019302975
-0.0014673508 -0.011224264 -0.003886433 -0.002821432 -0.00061451236 -0.0028302725 -0.0050602853 0.004761121
0.009193655 -0.0005768639 -0.0055748317 -0.005122288 0.016294152 -0.0016665054 0.008409216 -0.00044046415
0.014043164 0.004132187 -0.011451534 -0.00638814 -0.0024157318 -0.0025104745 -0.004672013 0.012432322
0.0074866735 -0.0021682335 -0.0030733428 0.0004276076 -0.0085411705 0.00023792867 -0.002652936 0.01931172
0.016779693 0.0011500838 -0.011317632 -0.0034256815 -0.0028205633 0.0021706915 -0.0022139878 -0.0035367284
-0.007875962 0.005633183 -0.005457093 -0.007977363 -0.0020381666 -0.0032687853 0.00015786637 0.0042301523
0.00025663528 -0.0015015583 -0.003092724 0.0027773036 -0.007815072 0.005829972 -0.0012693586 -0.0050816843
00000000: 4d35 9abb e740 03bb 0efc 3f3b f7b0 40bb
00000010: 03a6 f3bb 6237 d63b 963f 2f3b 0902 fdba
00000020: 1f54 c0ba fae5 37bc 87b3 7ebb c6e7 38bb
00000030: 3a17 21ba 187c 39bb c0d0 a5bb 2d03 9c3b
00000040: fca0 163c ae38 17ba 14ad b6bb ded8 a7bb
00000050: 507b 853c a46e daba cfc6 093c 19ee e6b9
00000060: 4d15 663c 4c67 873b 379f 3bbc 9a53 d1bb
00000070: 4151 1ebb c686 24bb b017 99bb f0b0 4b3c
00000080: c552 f53b ec18 0ebb 236a 49bb 8530 e039
00000090: 44f0 0bbc 7e7c 7939 e1dc 2dbb 9d33 9e3c
000000a0: 9175 893c 69be 963a 976d 39bc 6681 60bb
000000b0: 33d9 38bb 2942 0e3b 8d18 11bb 75c8 67bb
000000c0: 2e0a 01bc 9096 b83b 6ad1 b2bb 7cb3 02bc
000000d0: c392 05bb 1e39 56bb ee88 2539 179d 8a3b
000000e0: 018d 8639 f0cf c4ba 4caf 4abb 6c03 363b
000000f0: ca0a 00bc 5a09 bf3b 9b60 a6ba 4284 a6bb

actor.network.task_encoder.4.running_mean f4 [64]
-0.2008482 -0.19934121 0.36552522 -0.0076868786 -0.32409853 -0.44315305 -0.7057736 -0.26672038
-0.23043832 -0.47439328 0.49590757 -0.39842254 0.42595944 -0.42226872 -0.12688202 0.10790379
-0.23849207 -0.13896865 -0.08274047 -0.21655403 -0.13519642 -0.15584256 0.4300464 0.06125032
-0.5037053 0.5252417 0.11286181 -0.6041415 0.2618392 -0.49513644 -0.2934084 -0.29071188
-0.22247374 0.37402275 0.14589654 0.30419275 -0.49982008 0.23197411 -0.35556605 0.50963914
0.38343045 -0.30371526 0.26361257 -0.25945 -0.22652416 -0.3404746 -0.40814963 0.11312028
0.13881893 -0.07527067 -0.6060302 -0.4545263 0.3788313 -0.2697246 0.3101054 0.21590693
0.11353576 0.29100758 -0.2392332 -0.23486373 -0.21529134 -0.3157684 -0.40885136 0.19699049
00000000: 27ab 4dbe 1a20 4cbe 1f26 bb3e 36e2 fbbb
00000010: 3ef0 a5be f5e4 e2be 94ad 34bf 938f 88be
00000020: 06f8 6bbe ade3 f2be 99e7 fd3e 0afe cbbe
00000030: 5b17 da3e 9b33 d8be 5ced 01be aafc dc3d
00000040: 4437 74be cc4d 0ebe d673 a9bd 57c0 5dbe
00000050: ee70 0abe 3195 1fbe 0b2f dc3e 9ee1 7a3d
00000060: d5f2 00bf 3d76 063f 1824 e73d 04a9 1abf
00000070: ca0f 863e 8682 fdbe a039 96be 30d8 94be
00000080: 28d0 63be e97f bf3e e765 153e 27bf 9b3e
00000090: 6be8 ffbe 9f8a 6d3e c10c b6be b677 023f
000000a0: ff50 c43e 9180 9bbe 3af8 863e a1d6 84be
000000b0: f3f5 67be b052 aebe fdf8 d0be 9bab e73d
000000c0: 8d26 0e3e 8227 9abd cc24 1bbf acb7 e8be
000000d0: 2df6 c13e 5819 8abe 23c6 9e3e b516 5d3e
000000e0: 7085 e83d f2fe 943e 8cf9 74be 1e80 70be
000000f0: 5575 5cbe 65ac a1be f754 d1be e0b7 493e

actor.network.task_encoder.4.running_var f4 [64]
0.1342404 0.10582243 0.40344256 0.15431353 0.035790823 0.2606145 0.39385304 0.18635064
0.07908149 0.31306222 0.39408877 0.6445544 0.20619197 0.83917737 0.3318639 0.28825945
0.10360011 0.03014441 0.10241446 0.023391275 0.064547546 0.12625961 0.07240691 0.15915945
0.2054605 0.34485587 0.19266081 0.23313785 0.16394079 0.14882888 0.15453853 0.29720843
0.39771768 0.13673833 0.08317349 0.17146169 0.31807333 0.058253188 0.13085996 0.33879557
0.14605254 0.13696577 0.0935121 0.8025718 0.15736516 0.058566343 0.072625555 0.116675146
0.4368501 0.16543405 0.29811847 0.20473434 0.27867705 0.18376334 0.19441436 0.061558127
0.08874214 0.07231141 0.32445514 0.045521516 0.060620826 0.08803326 0.07186259 0.03288758
00000000: 5176 093e 6eb9 d83d 0690 ce3e 5e04 1e3e
00000010: 6699 123d 446f 853e 1ba7 c93e b4d2 3e3e
00000020: 7af5 a13d b149 a03e 01c6 c93e 8401 253f
00000030: fd23 533e 54d4 563f 11ea a93e be96 933e
00000040: 4b2c d43d 69f1 f63c acbe d13d 0f9f bf3c
00000050: 8131 843d 334a 013e 134a 943d b2fa 223e
00000060: 3d64 523e f390 b03e e048 453e b0bb 6e3e
00000070: 18e0 273e 9966 183e 593f 1e3e b42b 983e
00000080: a7a1 cb3e 2205 0c3e dd56 aa3d a793 2f3e
00000090: 82da a23e e59a 6e3d 2700 063e 9d76 ad3e
000000a0: cc8e 153e c140 0c3e 4683 bf3d 5875 4d3f
000000b0: 5524 213e 43e3 6f3d b5bc 943d 61f3 ee3d
000000c0: d1aa df3e 8b67 293e fca2 983e e1a5 513e
000000d0: c2ae 8e3e 752c 3c3e 8f14 473e 6024 7c3d
000000e0: 70be b53d 0118 943d fc1e a63e c574 3a3d
000000f0: 8b4d 783d c84a b43d b22c 933d 21b5 063d

actor.network.task_encoder.6.weight f4 [32, 64]
0.10737377 0.10192974 -0.1161258 0.0017282524 -0.0016525569 0.07348584 0.07355026 0.049465727
0.09503775 0.042313255 0.024753256 0.003445456 0.050427314 0.071476154 -0.010995967 -0.06598908
-0.08390618 -0.06579413 0.10497543 -0.047057822 -0.066806726 -0.020627398 0.043278918 -0.06453913
-0.0244933 -0.033901818 0.030375391 0.060688294 0.08138308 -0.061138008 0.07770495 -0.036157258
0.0049420907 0.036451116 0.09539493 -0.1124749 -0.0618158 -0.004295554 0.0054024104 -0.06580384
-0.01191532 -0.11999532 0.0005211348 -0.114650324 0.11443746 0.06333028 0.06437667 0.04092875
0.054724716 0.08792439 0.050731648 -0.02162861 -0.044230647 0.10465917 -0.0036824036 0.0077205356
0.12022757 -0.08806973 0.062458232 0.06363658 -0.040406886 -0.039309245 0.050872184 -0.08164531
0.08211469 0.112784415 -0.12300948 -0.12613791 0.116866075 0.025415571 0.053120174 -0.06931419
-0.026505703 0.011952375 -0.018042266 -0.040026102 0.048016176 -0.027763672 -0.04238471 0.008048089
-0.014981567 -0.03670018 -0.12447393 0.10982716 0.06861992 -0.082725026 0.04446845 0.0967554
-0.11351627 -0.017739968 0.11631962 0.011865752 -0.0046136403 0.040126137 -0.04724603 -0.098017566
-0.12176587 0.092435166 -0.0108937435 -0.066486135 -0.03545979 0.085335664 -0.120248504 -0.0088909175
-0.005354299 -0.040952362 0.054794174 0.067773394 0.081556395 -0.10117747 0.084173925 0.0148515925
-0.0921794 -0.03255142 0.06633084 0.06906528 -0.03708376 0.006833929 0.10547587 -0.050035805
-0.12749037 -0.055871032 0.05341737 0.081534795 0.043101266 0.07053348 0.067399375 0.0930639
0.03195158 -0.00064712344 0.108682945 -0.08680658 0.021345241 0.010705961 0.06980715 0.066274606
-0.12399615 -0.095383406 0.012463824 -0.020232132 -0.07221282 -0.09248417 0.062760435 -0.04383727
0.060953274 -0.09034474 0.02899533 0.011859061 -0.02675663 -0.053715017 0.07695987 -0.0684297
0.045771655 0.089995034 0.058972355 0.020923005 -0.016728638 0.069581784 0.051733524 -0.01732664
-0.078081876 0.027199214 0.064283036 -0.031386252 0.095488384 -0.060274843 0.041038856 -0.0707813
-0.03897771 0.05515049 -0.04348847 -0.07805398 -0.07061044 0.040064637 0.018648535 0.026060794
-0.115093365 0.1197752 0.05925014 -0.04743792 0.1016247 -0.008083509 0.055298004 -0.047373373
0.11249113 -0.04685236 -0.021333411 0.04564346 0.044815116 -0.032079406 0.038611654 0.0064801904
0.035608422 -0.057452958 0.03965282 0.05099064 -0.087509744 -0.06987216 0.03753054 -0.08756479
0.021698438 -0.08392695 -0.0040049762 0.09936594 -0.110678755 -0.11117231 0.008643176 0.07836415
0.07632797 -0.023562837 0.119286746 -0.11049084 0.12323215 -0.1254517 -0.062119547 0.013017356
-0.107229784 0.07964048 0.054153357 -0.0033411174 0.11985242 -0.0017679216 0.10945049 0.07095506
0.09985993 -0.060649954 -0.112748384 0.039273486 -0.12160631 -0.008080999 -0.0862728 0.10152471
0.016201342 -0.090451024 0.013341362 0.0032427437 -0.050696123 0.018626757 0.1159321 0.04638979
-0.028175658 -0.064244255 0.036329158 -0.0718321 0.03529425 -0.03411504 0.06296134 -0.02323048
-0.0670938 0.07432378 -0.015372846 -0.050358914 0.034413885 -0.05763191 -0.02393757 0.108141154
00000000: c7e6 db3d 8ac0 d03d 5dd3 edbd 8786 e23a
00000010: 9c9a d8ba be7f 963d 85a1 963d 939c 4a3d
00000020: 27a3 c23d aa50 2d3d 57c7 ca3c 29cd 613b
00000030: df8c 4e3d 1762 923d 6e28 34bc 4825 87bd
00000040: 01d7 abbd 13bf 86bd 5cfd d63d b4bf 40bd
00000050: f7d1 88bd cafa a8bc 3c45 313d 172d 84bd
00000060: 2ca6 c8bc a2dc 0abd d0d5 f83c 4a94 783d
00000070: 2cac a63d d96b 7abd c623 9f3d a219 14bd
00000080: 43f1 a13b c44d 153d 6b5e c33d 3e59 e6bd
00000090: 9032 7dbd b8c1 8cbb b406 b13b 2ac4 86bd
000000a0: 7938 43bc 1bc0 f5bd c49c 083a cacd eabd
000000b0: 305e ea3d 4eb3 813d ead7 833d e8a4 273d
000000c0: 0627 603d b411 b43d fdcb 4f3d 7c2e b1bc
000000d0: 322b 35bd 8c57 d63d 7b54 71bb 8cfc fc3b
000000e0: df39 f63d e75d b4bd 34d4 7f3d e553 823d
000000f0: b181 25bd bb02 21bd 5a5f 503d a835 a7bd
00000100: bf2b a83d 84fb e63d 65ec fbbd 4c2a 01be
00000110: 7b57 ef3d 5134 d03c 8a94 593d 99f4 8dbd
00000120: 7d22 d9bc e5d3 433c 60cd 93bc 69f2 23bd
00000130: 9cac 443d a470 e3bc 979b 2dbd 22dc 033c
00000140: 3f75 75bc ee52 16bd 30ec febd 10ed e03d
00000150: 9a88 8c3d bd6b a9bd 8d24 363d b227 c63d
00000160: 387b e8bd 6953 91bc fb38 ee3d 9268 423c
00000170: 052e 97bb 4e5b 243d 0e85 41bd 6fbd c8bd
00000180: 6260 f9bd a64e bd3d ac7b 32bc e229 88bd
00000190: 493e 11bd 77c4 ae3d d944 f6bd 36ab 11bc
000001a0: 1e73 afbb aabd 27bd db6f 603d c7cc 8a3d
000001b0: 0a07 a73d 2236 cfbd 6163 ac3d 1854 733c
000001c0: 8ec8 bcbd a354 05bd 77d8 873d 1972 8d3d
000001d0: 24e5 17bd 27ef df3b bc03 d83d 58f2 4cbd
000001e0: d68c 02be 06d9 64bd 2ccc 5a3d b7fb a63d
000001f0: f48a 303d db73 903d af08 8a3d 4998 be3d
00000200: a9df 023d b8a3 29ba 2a95 de3d a6c7 b1bd
00000210: 37dc ae3c 0e68 2f3c 0df7 8e3d fbba 873d
00000220: b2f1 fdbd 6058 c3bd 1135 4c3c dbbd a5bc
00000230: 51e4 93bd 5768 bdbd 8b88 803d b68e 33bd
00000240: 24aa 793d aa06 b9bd 9d87 ed3c 824c 423c
00000250: b830 dbbc 4704 5cbd 239d 9d3d df24 8cbd
00000260: 0f7b 3b3d 514f b83d ff8c 713d b966 ab3c
00000270: 7f0a 89bc e580 8e3d 88e6 533d 99f0 8dbc
00000280: 64e9 9fbd e3d0 de3c d3a6 833d df8e 00bd
00000290: 6a8f c33d c1e2 76bd 5c18 283d c9f5 90bd
000002a0: 17a7 1fbd 7be5 613d f720 32bd c4da 9fbd
000002b0: 359c 90bd d11a 243d d0c4 983c 727d d53c
000002c0: 12b6 ebbd b34c f53d 46b0 723d 444e 42bd
000002d0: 9c20 d03d b270 04bc 2980 623d 950a 42bd
000002e0: c061 e63d 43e8 3fbd 68c3 aebc a3f4 3a3d
000002f0: 0e90 373d b265 03bd 4127 1e3d c757 d43b
00000300: 23da 113d cb53 6bbd ff6a 223d 90db 503d
00000310: 4f38 b3bd 2319 8fbd a0b9 193d 2b55 b3bd
00000320: ecc0 b13c e5e1 abbd 2d3c 83bb 5f80 cb3d
00000330: 8bab e2bd 4fae e3bd 1c9c 0d3c 627d a03d
00000340: d751 9c3d da06 c1bc 9c4c f43d 0649 e2bd
00000350: 2361 fc3d 6976 00be 1171 7ebd c046 553c
00000360: 4a9b dbbd 8c1a a33d e9cf 5d3d a6f6 5abb
00000370: 3075 f53d 9bb9 e7ba 9427 e03d e350 913d
00000380: 5d83 cc3d 166c 78bd a0e8 e6bd 3cdd 203d
00000390: bb0c f9bd 2b66 04bc cbaf b0bd 30ec cf3d
000003a0: adb8 843c 633e b9bd ba95 5a3c 3684 543b
000003b0: bda6 4fbd 2497 983c cf6d ed3d 3803 3e3d
000003c0: a3d0 e6bc 7e92 83bd e2cd 143d b51c 93bd
000003d0: b490 103d 36bc 0bbd e0f1 803d d94d bebc
000003e0: 7968 89bd 1137 983d 64de 7bbc 2645 4ebd
000003f0: 93f5 0c3d 700f 6cbd b918 c4bc 1c79 dd3d

actor.network.task_encoder.6.bias f4 [32]
0.035471328 -0.018176038 0.08043966 -0.062012263 0.120124646 0.11887675 -0.023515973 0.06562871
-0.019811166 0.070207775 0.08631681 -0.018699829 -0.027727995 -0.053704757 -0.0639014 0.06668397
0.006933759 0.090144716 0.028982509 -0.12561414 0.056030896 -0.0744945 0.102217205 0.07078425
0.03598263 -0.12679861 0.12246635 -0.08943344 0.0007896014 0.11092722 -0.021577433 -0.02034193
00000000: 624a 113d eae5 94bc 8cbd a43d 9200 7ebd
00000010: e903 f63d a775 f33d 92a4 c0bc 5868 863d
00000020: 074b a2bc 18c9 8f3d dec6 b03d 6230 99bc
00000030: d225 e3bc 85f9 5bbd bdde 82bd 9b91 883d
00000040: 9634 e33b cb9d b83d ba6c ed3c fea0 00be
00000050: a780 653d 9390 98bd 4157 d13d 55f7 903d
00000060: 8662 133d 7fd7 01be a3cf fa3d e128 b7bd
00000070: 41fd 4e3a cf2d e33d 28c3 b0bc 1fa4 a6bc

actor.network.vm_encoder.0.weight f4 [64, 10]
0.2898203 -0.038379118 -0.22743767 0.25551274 0.29209363 -0.23935418 -0.22102389 0.07872388
0.20445198 0.21669728 0.22443756 0.020684803 0.18150517 -0.06553112 0.24334459 -0.0032421066
0.07485784 -0.20043893 -0.054195333 -0.22568701 -0.09138619 0.010397515 0.18713896 0.007313555
-0.037079606 0.17150496 -0.20560741 -0.23024677 0.15245122 -0.3092593 -0.28104433 -0.2824473
0.2702542 -0.022724532 0.204245 -0.074482135 0.2572718 -0.15937342 0.22916353 0.24713382
-0.1809374 0.044612817 -0.17957255 -0.09036634 0.104764685 0.2762199 0.027031738 -0.30922842
-0.26949334 0.09281434 -0.2716548 -0.14179944 0.05829 -0.20926169 -0.14607316 -0.12993877
-0.19343324 0.2772317 -0.20972118 -0.03859078 -0.13951033 0.0702855 0.30820924 0.052943513
-0.026011186 -0.27349052 -0.048206326 -0.09526716 -0.23109855 0.1781162 0.16422649 -0.2799475
0.25349805 0.04708237 -0.28046587 -0.16895281 0.0047943657 0.0223724 0.17597257 -0.29651988
0.28979555 0.06597334 0.22992553 -0.051820785 -0.027955309 -0.24263877 -0.06742129 0.0851904
-0.12655628 -0.07874639 0.1222045 0.2217423 0.2862543 -0.20466825 -0.051091097 -0.08647703
-0.28287858 0.13348314 0.17399041 0.089162976 0.12097633 -0.094029024 -0.10051504 0.12320033
-0.094895445 -0.1219713 0.2550884 -0.260595 -0.04171176 0.00944399 0.31267083 -0.13386367
0.20328733 -0.13266231 0.06246912 0.0057888534 -0.31327915 -0.012312102 -0.19473183 0.061203267
-0.14961357 -0.28765956 -0.21046622 -0.025888668 0.06012415 -0.0882496 0.24793807 -0.26141196
0.31178653 -0.021365356 -0.27005586 -0.07516598 0.24529621 0.29110083 -0.29232347 -0.07047863
0.07523284 0.25247708 -0.056588642 -0.29078847 0.0030656883 0.30337152 -0.19395305 0.2171984
0.27780214 -0.077367865 0.28509542 0.043593906 -0.15891905 0.18728398 -0.26308113 0.21102597
-0.013622848 0.22575097 -0.22518805 -0.15347098 0.22600634 0.2336392 0.2887672 -0.03083539
0.058261227 -0.13442878 0.13061187 -0.26420566 0.09403002 -0.07696558 0.06304395 -0.13038777
-0.26184854 -0.18602832 -0.21510813 0.23945656 0.08988867 0.18469363 -0.033825867 -0.13646145
-0.2334773 0.3050317 -0.25118858 -0.032498043 -0.1758993 -0.29077128 -0.22273807 -0.16460492
0.09869521 0.17295955 0.009800356 -0.037341576 0.13990419 0.054167252 0.052437223 0.18855532
0.2841107 -0.0033168243 -0.26134273 -0.24617785 -0.19908193 -0.21564431 -0.08565774 0.28436342
-0.24068142 -0.026432622 0.2761459 -0.091262996 -0.22209951 0.0883901 0.28630087 -0.1872026
0.0928212 -0.06890839 -0.021536943 -0.14873454 0.13280477 -0.18194678 -0.2278902 0.16415823
-0.21828526 0.05912882 -0.09131333 -0.21001868 0.06303164 0.29832432 -0.15807198 0.13396695
0.22358224 0.28682286 0.051291555 -0.14447378 -0.11001266 -0.28314045 -0.29745337 0.2660539
0.13328835 0.08730284 0.13266002 -0.16559488 0.27828035 0.050071035 0.2055749 0.10458436
0.050549563 -0.044839226 -0.32359114 0.24083836 0.18804877 0.3133186 0.011420381 0.11577355
0.17906804 0.016793527 -0.25887027 0.29219505 0.2373311 -0.016354075 0.2645904 -0.116280355
00000000: 5463 943e 6c33 1dbd 6ce5 68be 91d2 823e
00000010: 4c8d 953e 4319 75be 1654 62be fc39 a13d
00000020: dc5b 513e e4e5 5d3e f6d2 653e 2d73 a93c
00000030: 7edc 393e 2e35 86bd 532f 793e 8679 54bb
00000040: 114f 993d dd3f 4dbe edfb 5dbd 7f1a 67be
00000050: af28 bbbd 575a 2a3c 5ba1 3f3e 8ca6 ef3b
00000060: c9e0 17bd ff9e 2f3e c08a 52be cfc5 6bbe
00000070: 2c1c 1c3e 3c57 9ebe 0be5 8fbe ef9c 90be
00000080: c25e 8a3e cc28 babc 9a25 513e 178a 98bd
00000090: 21b9 833e c932 23be d8a9 6a3e a610 7d3e
000000a0: a747 39be eebb 363d dee1 37be fd11 b9bd
000000b0: de8e d63d b26c 8d3e aa71 dd3c 3053 9ebe
000000c0: 08fb 89be 7215 be3d 5716 8bbe df33 11be
000000d0: 7fc1 6e3d b248 56be 3494 15be ab0e 05be
000000e0: 5d13 46be 50f1 8d3e 26c1 56be 5e11 1ebd
000000f0: ccdb 0ebe d8f1 8f3d 9acd 9d3e 4cdb 583d
00000100: 6915 d5bc f306 8cbe ff73 45bd 6e1b c3bd
00000110: 19a5 6cbe 1864 363e fd2a 283e 4755 8fbe
00000120: 7fca 813e 71d9 403d 3999 8fbe f701 2dbe
00000130: 0e1a 9d3b 5346 b73c 2732 343e 74d1 97be
00000140: 1560 943e 081d 873d 9971 6b3e 0842 54bd
00000150: 8802 e5bc 4c76 78be 2c14 8abd 4e78 ae3d
00000160: f897 01be ca45 a1bd 5a46 fa3d 6a10 633e
00000170: ec8f 923e 8e94 51be e644 51bd de1a b1bd
00000180: 76d5 90be ceaf 083e 8b2a 323e 149b b63d
00000190: 70c2 f73d 4a92 c0bd d4da cdbd 7450 fc3d
000001a0: 8b58 c2bd 17cc f9bd f29a 823e b56c 85be
000001b0: f3d9 2abd f7ba 1a3c 6416 a03e 8f13 09be
000001c0: 8e2a 503e a1d8 07be 9fdf 7f3d 6cb0 bd3b
000001d0: 2066 a0be b3b8 49bc c867 47be 47b0 7a3d
000001e0: 4d34 19be 1d48 93be 7584 57be 7914 d4bc
000001f0: be44 763d 35bc b4bd 7ae3 7d3e cad7 85be
00000200: 7ca2 9f3e 6606 afbc c344 8abe 9ff0 99bd
00000210: ee2e 7b3e 2b0b 953e 6cab 95be 1a57 90bd
00000220: ad13 9a3d ad44 813e 7ec9 67bd 3ae2 94be
00000230: b7e9 483b 8353 9b3e a19b 46be 4269 5e3e
00000240: 153c 8e3e 0b73 9ebd 07f8 913e 868f 323d
00000250: adbb 22be 5fc7 3f3e 92b2 86be 3117 583e
00000260: 5e32 5fbc 432b 673e b297 66be 7f27 1dbe
00000270: 356e 673e 1d3f 6f3e 4bd9 933e 809a fcbc
00000280: 53a3 6e3d b3a7 09be 1ebf 053e f745 87be
00000290: d092 c03d 21a0 9dbd 301d 813d 5f84 05be
000002a0: 0311 86be 357e 3ebe 4e45 5cbe 1a34 753e
000002b0: 8d17 b83d 5420 3d3e fe8c 0abd 8dbc 0bbe
000002c0: ac14 6fbe 1d2d 9c3e ca9b 80be ab1c 05bd
000002d0: f21e 34be f9df 94be 7315 64be 318e 28be
000002e0: b720 ca3d 4f1c 313e ac91 203c 7bf3 18bd
000002f0: 0b43 0f3e 7bde 5d3d 6ac8 563d a514 413e
00000300: f576 913e 145f 59bb b7ce 85be 0c16 7cbe
00000310: 22dc 4bbe ddd1 5cbe 536d afbd 1598 913e
00000320: 3175 76be 3a89 d8bc ff62 8d3e 18e8 babd
00000330: 0e6e 63be de05 b53d 0796 923e 0ab2 3fbe
00000340: 0b19 be3d d81f 8dbd 3e6e b0bc de4d 18be
00000350: f9fd 073e 4250 3abe 0c5c 69be 1819 283e
00000360: 2c86 5fbe 1031 723d 7c02 bbbd 230f 57be
00000370: bc16 813d f7bd 983e 9fdd 21be a22e 093e
00000380: bef2 643e 72da 923e 1817 523d eff0 13be
00000390: 514e e1bd c9f7 90be cf4b 98be 3738 883e
000003a0: be7c 083e d5cb b23d 07d8 073e b491 29be
000003b0: c37a 8e3e 4917 4d3d 3a82 523e 5330 d63d
000003c0: 0f0d 4f3d 56a9 37bd bdad a5be 559e 763e
000003d0: db8f 403e 4c6b a03e 8d1c 3b3c af1a ed3d
000003e0: 9d5d 373e 9492 893c a58a 84be 979a 953e
000003f0: ed06 733e fbf8 85bc 6578 873e 6524 eebd

actor.network.vm_encoder.0.bias f4 [64]
-0.20583695 -0.15009099 0.27775314 -0.1814105 -0.08051948 -0.103258334 0.11311874 0.2802762
-0.08727778 -0.29395467 -0.31290618 -0.21635303 0.13429055 0.070362024 -0.16846126 -0.16382216
0.05203006 -0.31520405 0.21894683 -0.091530934 -0.21075357 -0.06289367 0.15388183 0.20559557
-0.2486283 0.25199464 0.23574628 -0.23699541 0.14661753 0.15250407 -0.085271 -0.0141136
-0.16035743 -0.033362094 -0.30631736 0.19472669 0.31234536 0.21966673 -0.12609588 -0.20674278
0.051408846 0.28605872 -0.24722178 -0.26188815 -0.21064961 0.16580793 0.009867453 0.020945894
0.24709901 -0.13040027 -0.22349565 -0.1414184 -0.02893655 -0.17003037 -0.026523283 0.07911289
0.30062836 0.01942511 0.101113886 0.22465536 0.066032305 0.28981385 0.26338062 0.2983721
00000000: ecc6 52be 74b1 19be a935 8e3e adc3 39be
00000010: 66e7 a4bd 1b79 d3bd ccaa e73d 5d80 8f3e
00000020: b1be b2bd 3a81 96be 3d35 a0be a68b 5dbe
00000030: 7683 093e f719 903d 1c81 2cbe ffc0 27be
00000040: 791d 553d 6d62 a1be 9933 603e 9274 bbbd
00000050: c9cf 57be 65ce 80bd 3393 1d3e a587 523e
00000060: 6b98 7ebe 7105 813e 7967 713e edae 72be
00000070: e822 163e 072a 1c3e 90a2 aebd bb3c 67bc
00000080: bd34 24be b1a6 08bd a1d5 9cbe 6f66 473e
00000090: bbeb 9f3e 51f0 603e 471f 01be 61b4 53be
000000a0: 1592 523d 4a76 923e b527 7dbe 3416 86be
000000b0: 88b4 57be 8ec9 293e 19ab 213c b996 ab3c
000000c0: 8607 7d3e a687 05be 0bdc 64be fccf 10be
000000d0: 580c edbc 711c 2ebe 5b47 d9bc f005 a23d
000000e0: f6eb 993e 6921 9f3c cc14 cf3d 0e0c 663e
000000f0: f23b 873d 7b62 943e d3d9 863e 3ac4 983e

actor.network.vm_encoder.1.weight f4 [64]
0.9940009 0.9930715 1.0005614 0.99803454 0.98269033 0.9982629 0.9872268 1.006869
0.99706006 0.9994022 1.0034115 1.0086362 0.99665695 0.9942274 1.0065199 0.9994369
1.0004107 0.99471945 0.99918056 0.991258 0.9980469 0.9979226 1.0080398 1.0056888
0.99973816 0.9912956 1.0031941 0.9884306 1.0008966 0.99128276 0.9922833 0.99469435
0.99467695 1.0209464 0.98591363 1.0083596 0.99088275 1.00373 0.9952855 1.0017511
0.9934712 0.98592216 0.99045926 0.98987514 1.0155617 0.98645186 1.0146244 1.0026965
1.0020573 1.0303358 0.9919632 1.0014572 1.0024995 1.0035933 1.0134319 0.99926734
0.99757475 0.9923109 0.9830977 0.98864776 0.98969585 1.0123217 1.0267227 1.011237
00000000: d876 7e3f ef39 7e3f 6512 803f 317f 7f3f
00000010: 9891 7b3f 288e 7f3f e5ba 7c3f 15e1 803f
00000020: 543f 7f3f d3d8 7f3f ca6f 803f fe1a 813f
00000030: e924 7f3f b085 7e3f a5d5 803f 19db 7f3f
00000040: 750d 803f efa5 7e3f 4cca 7f3f 16c3 7d3f
00000050: 0080 7f3f db77 7f3f 7307 813f 69ba 803f
00000060: d7ee 7f3f 8cc5 7d3f aa68 803f ca09 7d3f
00000070: 611d 803f b5c4 7d3f 4706 7e3f 4aa4 7e3f
00000080: 26a3 7e3f 5fae 823f d664 7c3f ed11 813f
00000090: 7eaa 7d3f 3a7a 803f 08cb 7e3f 6139 803f
000000a0: 2154 7e3f 6565 7c3f bd8e 7d3f 7568 7d3f
000000b0: edfd 813f 1c88 7c3f 36df 813f 5c58 803f
000000c0: 6a43 803f 0be2 833f 4df1 7d3f c02f 803f
000000d0: e751 803f bf75 803f 23b8 813f fccf 7f3f
000000e0: 0f61 7f3f 1608 7e3f 4aac 7b3f 0518 7d3f
000000f0: b55c 7d3f c293 813f a66b 833f 3770 813f

actor.network.vm_encoder.1.bias f4 [64]
-0.011123643 0.012194087 0.015730318 0.018739928 -0.020477619 -0.006866322 -0.014459508 0.012467454
0.0028813228 6.257958e-05 -0.004544489 0.028110841 -0.00667265 0.0008164024 -0.011038695 0.011415374
0.015834456 0.006067895 -0.005176074 -0.010963529 -0.01619437 0.009832963 -0.011835601 0.014178615
0.009041633 -0.006214423 -0.01328424 -0.012759788 -0.0010684535 -0.0015559561 -0.00033875305 -0.001097072
-0.019523455 0.015966514 -0.010567236 -0.016690392 -0.011653325 0.0031255097 0.0018666068 0.009160228
0.0038249202 -0.011883886 -0.011035752 -0.019729689 0.019087551 -0.015496106 -0.015653476 0.015739039
0.0076542892 -0.013423723 -0.015393212 -0.01050691 0.007525077 -0.002142083 0.015309856 0.015031148
0.014585776 0.01335935 0.0045239315 -0.011690925 -0.019871738 0.011686374 0.024687586 0.010111349
00000000: f13f 36bc b5c9 473c dedc 803c 7a84 993c
00000010: aec0 a7bc e2fe e0bb 92e7 6cbc 4b44 4c3c
00000020: 93d4 3c3b 283d 8338 f0e9 94bb b548 e63c
00000030: 3fa6 dabb d603 563a a5db 34bc 8d07 3b3c
00000040: 43b7 813c 31d5 c63b 0e9c a9bb 60a0 33bc
00000050: 0eaa 84bc 701a 213c 1cea 41bc 6c4d 683c
00000060: 5c23 143c 5ca2 cbbb 24a6 59bc 6e0e 51bc
00000070: 5a0b 8cba 39f1 cbba aa9a b1b9 a1cb 8fba
00000080: a7ef 9fbc 35cc 823c 3322 2dbc 4aba 88bc
00000090: 96ed 3ebc 5ad5 4c3b eea8 f43a c814 163c
000000a0: 83ab 7a3b a1b4 42bc 4ccf 34bc 28a0 a1bc
000000b0: 7f5d 9c3c 61e3 7dbc b83b 80bc 28ef 803c
000000c0: d5d0 fa3b 2def 5bbc d033 7cbc 2d25 2cbc
000000d0: ec94 f63b 3062 0cbb 31d6 7a3c 3445 763c
000000e0: 2ef9 6e3c 2de1 5a3c 7d3d 943b 4b8b 3fbc
000000f0: 0eca a2bc 3578 3f3c 9f3d ca3c 12aa 253c

actor.network.vm_encoder.1.running_mean f4 [64]
-123.54361 194.74803 167.38159 277.5275 -163.48967 -2.6314032 287.6176 197.04367
198.80618 222.65192 -88.1362 175.10332 -187.6928 225.90793 -100.41262 -11.787658
93.26444 105.76181 -215.03014 219.16437 205.04945 57.300755 -89.20162 158.11653
-230.32335 257.20776 -101.738625 -178.47621 -74.2056 137.51505 33.97329 231.87355
121.73098 4.107001 -147.47879 -15.666107 -351.73087 142.36351 109.61358 18.68134
139.72493 32.044254 109.10842 -8.916101 -92.52247 -180.33035 8.086799 265.93158
171.20598 51.444542 -17.000021 -151.66347 -100.46926 181.9295 -155.852 1.9756777
-122.5742 340.30438 -13.740367 -21.82086 1.8853852 231.5837 -84.99644 -213.50446
00000000: 5416 f7c2 7fbf 4243 b061 2743 85c3 8a43
00000010: 5b7d 23c3 e968 28c0 0ecf 8f43 2e0b 4543
00000020: 62ce 4643 e4a6 5e43 bc45 b0c2 731a 2f43
00000030: 5bb1 3bc3 6ee8 6143 43d3 c8c2 3f9a 3cc1
00000040: 6587 ba42 0c86 d342 b707 57c3 142a 5b43
00000050: a90c 4d43 f933 6542 3b67 b2c2 d51d 1e43
00000060: c752 66c3 989a 8043 2d7a cbc2 e979 32c3
00000070: 4469 94c2 da83 0943 a6e4 0742 a1df 6743
00000080: 4376 f342 8d6c 8340 927a 13c3 60a8 7ac1
00000090: 8ddd afc3 0f5d 0e43 273a db42 6273 9541
000000a0: 95b9 0b43 512d 0042 8337 da42 5aa8 0ec1
000000b0: 810b b9c2 9254 34c3 8763 0141 3ef7 8443
000000c0: bb34 2b43 36c7 4d42 0b00 88c1 d9a9 17c3
000000d0: 43f0 c8c2 f4ed 3543 1dda 1bc3 02e3 fc3f
000000e0: fe25 f5c2 f626 aa43 8bd8 5bc1 1f91 aec1
000000f0: 4d54 f13f 6d95 6743 2dfe a9c2 2481 55c3

actor.network.vm_encoder.1.running_var f4 [64]
23888.266 8173.066 11023.374 19224.799 9909.519 2734.1287 28328.033 23107.025
17143.562 29532.084 3285.7422 13522.192 13955.864 18187.016 18048.174 65.89795
6563.6304 1760.4094 14178.873 29253.695 28325.828 9217.0205 11347.039 3767.5884
40532.152 13849.58 6116.4585 9319.073 982.7076 9422.448 4450.6504 14506.545
2182.4722 3.5150366 11004.976 2770.1814 25204.703 1946.0726 8903.512 2320.1045
522.6633 7048.189 13121.792 2145.1443 14218.902 7767.2236 7196.079 20510.328
12307.868 747.983 406.84915 16344.657 2268.5652 14827.537 4952.5503 36.621666
184.26198 17845.066 923.4791 833.08453 1321.3153 4858.1387 940.8935 20687.377
00000000: 88a0 ba46 8768 ff45 7f3d 2c46 9931 9646
00000010: 13d6 1a46 0fe2 2a45 1150 dd46 0d86 b446
00000020: 20ef 8546 2bb8 e646 e05b 4d45 c548 5346
00000030: 750f 5a46 0816 8e46 5900 8d46 c0cb 8342
00000040: 0b1d cd45 1a0d dc44 7e8b 5d46 648b e446
00000050: a84b dd46 1504 1046 284c 3146 6a79 6b45
00000060: 2754 1e47 5266 5846 ab23 bf45 4b9c 1146
00000070: 49ad 7544 cb39 1346 3415 8b45 2eaa 6246
00000080: 8e67 0845 5cf6 6040 e7f3 2b46 e722 2d45
00000090: 68e9 c446 5342 f344 0c1e 0b46 ac01 1145
000000a0: 74aa 0244 8341 dc45 2b07 4d46 4f12 0645
000000b0: 9c2b 5e46 cab9 f245 a2e0 e045 a83c a046
000000c0: 794f 4046 e9fe 3a44 b16c cb43 a162 7f46
000000d0: 0bc9 0d45 26ae 6746 67c4 9a45 967c 1242
000000e0: 1143 3843 226a 8b46 aade 6644 6945 5044
000000f0: 172a a544 1cd1 9745 2f39 6b44 c19e a146
