logs/longcp_homospeed/ablation/per_variant/hetero/hetero_best.pt (torch, 286379 bytes, 90 tensors)

actor.network.task_encoder.0.weight f4 [64, 6]
0	0x3ec9665a	0.393359
1	0x3e9eaff6	0.30993623
2	0x3ecdb68d	0.40178338
3	0xbd0241aa	-0.031800903
4	0xbeae3f68	-0.3403275
5	0xbe866e41	-0.26255992
6	0xbdddc3c6	-0.108283564
7	0x3d62aa31	0.05533809
8	0xbe07b4f5	-0.13252623
9	0xbe70d3eb	-0.2351834
10	0xbd07f260	-0.03319013
11	0x3e83d4ac	0.25748193
12	0x3eadb9d6	0.33930844
13	0xbe4e5efc	-0.20153421
14	0xbe6fea51	-0.23429228
15	0xbc9a15a5	-0.018809149
16	0x3e37fc5b	0.1796736
17	0x3e3b224e	0.18274805
18	0xbe1ba8e6	-0.15201148
19	0x3e10dcee	0.14146778
20	0xbd8cd47f	-0.06876468
21	0xbd48c951	-0.049020115
22	0xbea98ef7	-0.33116886
23	0x3e95badd	0.29244128
24	0xbe935bdc	-0.2878102
25	0x3dd062a3	0.101750635
26	0xbe514597	-0.20436703
27	0xbeb03cf0	-0.34421492
28	0xbcd50101	-0.026001455
29	0x3e0ab71f	0.13546418
30	0xbebfb4ba	-0.3744257
31	0x3cf1e69d	0.02952891
32	0xbe1d7def	-0.15380071
33	0xbd6e4d66	-0.05817928
34	0xbe3a6a36	-0.18204579
35	0xbd505295	-0.050860006
36	0x3ebbfbe1	0.36715606
37	0xbec8f0ee	-0.39246315
38	0xbe45f2ec	-0.19330949
39	0x3eb1a376	0.34695023
40	0xbcb01d0c	-0.021498226
41	0xbdadb512	-0.08481802
42	0x3e0cf2c1	0.13764478
43	0xbe30c1a9	-0.17261375
44	0x3e2ad8eb	0.1668431
45	0xbe8105a3	-0.25199613
46	0xbdfba780	-0.122878075
47	0x3e9ff91e	0.3124475
48	0x3d23593b	0.03988002
49	0xbea54862	-0.32281786
50	0x3e7b4e2c	0.24541539
51	0xbe8ae837	-0.2713029
52	0xbcd7c107	-0.02633716
53	0xba9a9e49	-0.001179644
54	0xbe38ac1a	-0.18034402
55	0x3e3b5f20	0.18298006
56	0xbd1e959c	-0.038716897
57	0x3e641811	0.22274806
58	0x3e546933	0.20743255
59	0xbea37a4c	-0.31929243
60	0x3e9c1820	0.30487156
61	0x3c2724db	0.010201658
62	0x3ea50cfa	0.32236463
63	0x3e82160f	0.25407454
64	0xbdf5cce5	-0.12001971
65	0xbda58954	-0.08082834
66	0xbe18f4ea	-0.14937177
67	0xbe45f3e6	-0.19331321
68	0x3ea1ebca	0.31625205
69	0x3ec2e557	0.38065597
70	0x3e38fda6	0.18065509
71	0x3ebbc6aa	0.36675006
72	0x3e0df1db	0.13861792
73	0x3d820a3e	0.0634961
74	0xbe264fbc	-0.16241354
75	0x3ec3128c	0.38100088
76	0xbe954097	-0.2915084
77	0x3e9a65c2	0.3015576
78	0xbd45c42d	-0.04828279
79	0xbe2934b1	-0.16524006
80	0xbb2c61a8	-0.0026303325
81	0x3e81734b	0.25283274
82	0xbeb848ca	-0.35993034
83	0xbea1fe38	-0.31639266
84	0xbd993bad	-0.074820854
85	0xbecf2768	-0.40459752
86	0x3d56517e	0.05232381
87	0xbe942b54	-0.28939307
88	0xbebbd5a7	-0.3668644
89	0xbe29d0e9	-0.16583599
90	0xbe601011	-0.21881129
91	0xbb07bf7f	-0.0020713506
92	0x3e8c0f25	0.27355304
93	0xbdcb8f2c	-0.09939417
94	0x3da66d46	0.08126311
95	0x3e3cd72c	0.18441457
96	0x3ddf4829	0.10902435
97	0x3ca80ee7	0.020514918
98	0x3d88d4f2	0.06681241
99	0x3e76248d	0.2403738
100	0xbebbb367	-0.3666031
101	0xbe267b14	-0.16257888
102	0x3eb8c6bd	0.36089125
103	0xbddb283a	-0.10701032
104	0x3e8440b1	0.25830606
105	0xbea70192	-0.32618386
106	0x3dbacbfc	0.09120938
107	0xbc438a03	-0.01193476
108	0xbec3f8d6	-0.38275784
109	0x3dbb33c3	0.09140732
110	0xbd42cad0	-0.0475567
111	0xbecae25a	-0.39625818
112	0xbe020415	-0.1269687
113	0x3eac3668	0.3363526
114	0x3da7a9e3	0.081867
115	0xbe7f45b0	-0.24928927
116	0xbe57c1a8	-0.21069968
117	0xbe3ebbe1	-0.18626358
118	0xbe58a865	-0.21157987
119	0x3d9d6f75	0.07687274
120	0xbe442219	-0.19153632
121	0x3e94baa5	0.29048648
122	0x3e5f5979	0.21811475
123	0x3e9942f8	0.29933906
124	0x3bf0e4e4	0.0073515046
125	0x3ebcde7d	0.36888495
126	0xbeaf0f28	-0.3419125
127	0xbe619595	-0.22029717
128	0xbe6db5f0	-0.23213935
129	0x3e435cb8	0.19078338
130	0xbec6c212	-0.3881994
131	0xbe461631	-0.19344403
132	0x3e26aa09	0.16275801
133	0x3ec39d24	0.38205826
134	0x3e87f615	0.26554933
135	0x3e2cbf92	0.16869953
136	0xbe93b0bc	-0.28845775
137	0x3dfdc443	0.123909496
138	0xbe182f9a	-0.14861909
139	0x3cbf28b6	0.023334842
140	0xbd55334e	-0.05205088
141	0x3ec39c17	0.38205025
142	0x3e886c7b	0.26645264
143	0x3d2efc3c	0.04272102
144	0xbecb4786	-0.39703006
145	0x3ea3c2fa	0.31984693
146	0x3e8f4227	0.27980158
147	0x3e0e1874	0.13876516
148	0xbecea0f4	-0.40357172
149	0xbe8ae1a6	-0.2712528
150	0x3e5c02df	0.2148547
151	0xbec406f3	-0.38286552
152	0x3e332dcb	0.17497937
153	0x3d40b252	0.04704506
154	0x3ebef7ca	0.37298423
155	0x3e0f1f60	0.13976812
156	0x3e5cbd1c	0.21556515
157	0x3e070d48	0.1318866
158	0xbe457026	-0.19281062
159	0xbe6313d4	-0.22175533
160	0xbecaae75	-0.39586225
161	0xbd827a25	-0.063709535
162	0x3bcd6a38	0.006268766
163	0xbe070c34	-0.13188249
164	0x3de87133	0.11349716
165	0x3e92757e	0.28605264
166	0x3d067d1d	0.03283416
167	0xbe2263f7	-0.15858446
168	0xbeb62794	-0.3557707
169	0xbe56c297	-0.20972668
170	0x3e0074b4	0.12544519
171	0xbec2a8e9	-0.38019493
172	0xbecfb9c8	-0.40571427
173	0x3cb5b52a	0.022181112
174	0x3c2d6c1f	0.01058486
175	0xbea45c9a	-0.321019
176	0x3dc4a992	0.096026555
177	0x3e36d8d0	0.17856145
178	0xbea2bb8f	-0.3178372
179	0xbd784968	-0.06061688
180	0x3e77a52c	0.24184102
181	0x3eba7310	0.3641591
182	0xbe923a39	-0.28560045
183	0xbe60a775	-0.2193888
184	0xbe6cc3a0	-0.231215
185	0xbe54ced7	-0.20782028
186	0xbe86f369	-0.26357582
187	0x3ea096a6	0.31364936
188	0xbcc34a09	-0.023839014
189	0xbe9eef53	-0.31041965
190	0xbe94150b	-0.28922305
191	0xbeb1b620	-0.34709263
192	0xbec4dfc7	-0.3845198
193	0x3cc1b42c	0.023645483
194	0x3d185ee6	0.037199877
195	0x3e70f33c	0.23530287
196	0x3ead3f69	0.3383744
197	0x3e93638d	0.2878689
198	0x3eb5e9a7	0.35529825
199	0xbe224f6d	-0.15850611
200	0xbe9d5e5f	-0.30736062
201	0xbd1a4992	-0.03766782
202	0xbdb3fe67	-0.08788758
203	0xbc9ee6b2	-0.019397113
204	0x3c1fd503	0.009755376
205	0xbe6b2cd5	-0.22966321
206	0xbeb274aa	-0.34854633
207	0xbe2bf63b	-0.16793148
208	0x3d9d105c	0.07669136
209	0x3e561fda	0.20910588
210	0xbebb2cff	-0.36557767
211	0xbebbbeaf	-0.36668918
212	0xbcdd33a0	-0.027002156
213	0xbe206ba9	-0.15666069
214	0xbe2a5e3a	-0.16637507
215	0xbeca24ca	-0.39481193
216	0x3e3bf57e	0.18355367
217	0xbd8cf422	-0.06882502
218	0x3ea4d72f	0.32195422
219	0xbe863a79	-0.26216486
220	0xbebde6d8	-0.37090182
221	0xbbad969a	-0.005297494
222	0x3dc5944d	0.09647427
223	0x3e73e321	0.23817112
224	0xbd3fd734	-0.046836093
225	0x3ea09410	0.31362963
226	0xbe646f86	-0.22308168
227	0xbeb110d9	-0.34583166
228	0xbe4e451d	-0.20143552
229	0xbe26f8c4	-0.16305834
230	0x3e10c653	0.14138155
231	0x3ea74b19	0.32674482
232	0x3ec45f41	0.38353923
233	0xbe46e255	-0.19422276
234	0xbdc6c4f2	-0.09705533
235	0xbd87dc1a	-0.06633778
236	0x3e196cf8	0.14982975
237	0xbe0078ca	-0.12546077
238	0xbe1475d3	-0.14498071
239	0x3d9135c3	0.07090332
240	0xbe853111	-0.26013997
241	0x3eb34e96	0.35020894
242	0xbeb5b7ee	-0.3549189
243	0xbeb8a87e	-0.3606605
244	0xbcb54a50	-0.022130162
245	0xbe93a96c	-0.28840196
246	0xbe3db3a7	-0.18525563
247	0x3e78bc74	0.24290639
248	0x3aed7d61	0.0018119031
249	0xbd2880c9	-0.041138444
250	0xbec0ef93	-0.3768278
251	0xbe089db2	-0.13341406
252	0xbe0b4c11	-0.13603236
253	0x3e99fad3	0.30074176
254	0x3e24bcaa	0.16087595
255	0xbd194add	-0.03742491

actor.network.task_encoder.0.bias f4 [64]
0	0xbe2fc3bd	-0.17164512
1	0x3e8b44e6	0.27201003
2	0xbeb48aba	-0.3526209
3	0x3e158c47	0.14604293
4	0xbeac1970	-0.33613157
5	0x3e080f2c	0.13287038
6	0xbe49067e	-0.19631383
7	0x3e95ff96	0.2929656
8	0xbea0426a	-0.3130067
9	0x3ecfe3c2	0.40603453
10	0x3ebfb67d	0.37443915
11	0x3e1a0da4	0.15044266
12	0x3ec933ab	0.39297232
13	0xbec7fdcf	-0.39060828
14	0xbc81d10c	-0.015846752
15	0xbeaa079a	-0.33208925
16	0x3e84b0d1	0.2591615
17	0xbd353c66	-0.044247054
18	0x3e756087	0.23962604
19	0xbdaa9b32	-0.083303824
20	0x3e307972	0.17233828
21	0x3ea3a3e4	0.31960976
22	0xbe921a5a	-0.2853573
23	0x3ebf867d	0.37407294
24	0xbeccefc7	-0.40026686
25	0xbcfeceef	-0.031104533
26	0xbdc5ec63	-0.09664228
27	0xbdfc0156	-0.12304942
28	0x3ecf4f2d	0.40490094
29	0xbe82bdf3	-0.25535545
30	0x3c7eb0b9	0.015545064
31	0x3caf62a3	0.021409338
32	0x3e1407bd	0.14456077
33	0xbdbfbc62	-0.09362103
34	0x3ea04072	0.31299168
35	0x3ec153de	0.37759298
36	0xbe72cd22	-0.23711064
37	0xbdfe423e	-0.124149784
38	0xbe94970d	-0.29021493
39	0x3e73a7f1	0.23794533
40	0xbec1ac69	-0.3782685
41	0xbe0be709	-0.13662352
42	0xbe42c86e	-0.1902177
43	0x3d36f422	0.044666417
44	0xbe0adbf4	-0.13560468
45	0x3ea04a1f	0.3130655
46	0x3dfc98b2	0.12333812
47	0x3db9931e	0.090612635
48	0x3e7c0861	0.24612571
49	0xbd143bc0	-0.036189795
50	0x3dbce326	0.092230126
51	0xbe43ea98	-0.19132459
52	0x3e3017c3	0.17196564
53	0xbe00993f	-0.12558459
54	0x3e9ddf50	0.30834436
55	0xbe331ee9	-0.1749226
56	0xbd89abc5	-0.067222156
57	0xbeb73ecb	-0.35790095
58	0x3e7c2d1f	0.24626587
59	0xbe802796	-0.25030202
60	0x3ebb1e05	0.3654634
61	0x3dfbfea2	0.12304427
62	0xbcbd8040	-0.023132443
63	0xbe1cb007	-0.15301524

actor.network.task_encoder.1.weight f4 [64]
0	0x3f8043ef	1.0020732
1	0x3f7fcd3e	0.9992255
2	0x3f80a246	1.0049522
3	0x3f7f8a78	0.9982066
4	0x3f805dc4	1.0028615
5	0x3f7f8c28	0.99823236
6	0x3f7ff396	0.9998106
7	0x3f806146	1.0029685
8	0x3f7fa7b3	0.99865264
9	0x3f7fd74f	0.9993791
10	0x3f805ebb	1.002891
11	0x3f803395	1.0015742
12	0x3f7ff9bf	0.9999046
13	0x3f804bc7	1.0023125
14	0x3f803331	1.0015622
15	0x3f804e3e	1.0023878
16	0x3f7fdb92	0.9994441
17	0x3f80322c	1.0015311
18	0x3f8022d6	1.0010631
19	0x3f7ee20a	0.9956366
20	0x3f800734	1.0002198
21	0x3f7f76e0	0.99790764
22	0x3f806e2e	1.0033624
23	0x3f7efdae	0.99605834
24	0x3f808c8f	1.0042895
25	0x3f8076c4	1.0036244
26	0x3f800077	1.0000142
27	0x3f8029d9	1.0012771
28	0x3f80bfbf	1.0058516
29	0x3f7fe40e	0.9995736
30	0x3f8016ca	1.0006955
31	0x3f801a32	1.0007994
32	0x3f7e1afd	0.9925993
33	0x3f7ebd21	0.9950734
34	0x3f7fafae	0.9987744
35	0x3f7f4355	0.99712116
36	0x3f7f6166	0.99757993
37	0x3f8004b9	1.0001441
38	0x3f80417a	1.0019982
39	0x3f7ef03e	0.9958533
40	0x3f80655c	1.0030932
41	0x3f7f9533	0.99837035
42	0x3f80a84c	1.005136
43	0x3f800a70	1.0003185
44	0x3f7f7837	0.9979281
45	0x3f809609	1.0045787
46	0x3f7fff41	0.9999886
47	0x3f7fa8dc	0.99867034
48	0x3f7ec736	0.9952272
49	0x3f7ffa49	0.9999128
50	0x3f7fc5ae	0.9991101
51	0x3f7fb1e1	0.99880797
52	0x3f801003	1.0004886
53	0x3f806f22	1.0033915
54	0x3f801885	1.0007483
55	0x3f7f93da	0.9983498
56	0x3f807df2	1.0038435
57	0x3f7e58da	0.99354327
58	0x3f7fa4ed	0.9986103
59	0x3f7e61de	0.99368083
60	0x3f7f7c47	0.9979901
61	0x3f803449	1.0015956
62	0x3f801e57	1.0009259
63	0x3f7f9092	0.9982997

actor.network.task_encoder.1.bias f4 [64]
0	0x3abb01f7	0.0014267553
1	0xba90849d	-0.001102585
2	0x3b8eb9b3	0.004355633
3	0xbb877f73	-0.004135066
4	0x38caa825	9.66343e-05
5	0xba943d1e	-0.0011309718
6	0xbb82f131	-0.0039960374
7	0x3a1c2aaf	0.0005957288
8	0x3b343677	0.0027498284
9	0x3b33196c	0.0027328385
10	0x3b134992	0.0022474271
11	0xba551ab1	-0.00081292825
12	0x3aa4a4ac	0.0012561283
13	0x3b739398	0.003716683
14	0xba9076cb	-0.0011021731
15	0x3b2b9a8c	0.0026184646
16	0xba40a9f2	-0.00073495426
17	0x3bbad48c	0.005701607
18	0xbb26b77c	-0.0025438955
19	0xbbefe1d8	-0.007320624
20	0x3b7830ac	0.0037870808
21	0xba8cefe8	-0.001075265
22	0x39929d30	0.00027964404
23	0xbb8529b6	-0.00406381
24	0x3a7cf5e7	0.00096496794
25	0xbb4b6a0f	-0.0031038558
26	0xbb0befa9	-0.0021352565
27	0x3a4357bd	0.00074517337
28	0x3b382e9b	0.002810395
29	0xbb1b7861	-0.0023722874
30	0x3b22f34f	0.0024864262
31	0xb993e57d	-0.00028209007
32	0xbb9876d9	-0.0046528396
33	0xbbcb7c8a	-0.0062099146
34	0x3b80c119	0.003929269
35	0xbb7a276a	-0.0038170465
36	0x3a4c150c	0.00077851187
37	0x39b76515	0.00034979792
38	0x3a7fe704	0.0009761902
39	0xbbd4360f	-0.006476171
40	0x39c44b94	0.00037440343
41	0xbba04596	-0.004891108
42	0x3a355a90	0.0006918097
43	0x3b827987	0.0039817723
44	0x3ac0bafc	0.0014704163
45	0xb827dd8a	-4.0022227e-05
46	0x3b180a56	0.002319952
47	0xb9ec094d	-0.00045020357
48	0xbb61e669	-0.003446961
49	0xbb2a581f	-0.0025992466
50	0x398fc022	0.00027418236
51	0x3a8033ea	0.0009781097
52	0x3a33b28b	0.0006854913
53	0x3ab14410	0.0013524313
54	0x3acce68e	0.0015632675
55	0x3bbfeeab	0.005857309
56	0x3b2fedd7	0.0026844644
57	0xbb0c93f1	-0.0021450485
58	0xbb1824f4	-0.0023215385
59	0xbbd8d784	-0.0066174883
60	0x39fdc6c4	0.00048404012
61	0x3b90f405	0.0044236206
62	0x39bdcf68	0.0003620342
63	0xbadf2094	-0.0017023259

actor.network.task_encoder.1.running_mean f4 [64]
0	0x46889fc2	17487.879
1	0xc5b44380	-5768.4375
2	0xc61f5781	-10197.876
3	0xc53b185d	-2993.5227
4	0xc60b00dd	-8896.216
5	0xc5d1368d	-6694.819
6	0xc6037778	-8413.867
7	0x45e2f102	7262.126
8	0x4626e634	10681.551
9	0xc4d28ea1	-1684.4572
10	0x465b4029	14032.04
11	0x465717e6	13765.975
12	0xc5dce77a	-7068.9346
13	0xc2e6714a	-115.22127
14	0x450e4aa3	2276.6648
15	0x463a09a6	11906.412
16	0x4535c212	2908.1294
17	0x462facf7	11243.241
18	0xc5016737	-2070.451
19	0xc60f4e1d	-9171.528
20	0x46145877	9494.116
21	0xc61de226	-10104.537
22	0x4634982e	11558.045
23	0xc50d8a84	-2264.6572
24	0x463e46fe	12177.748
25	0x45ee071a	7616.8877
26	0xc6032443	-8393.065
27	0x459a6248	4940.285
28	0x45aa9c3c	5459.5293
29	0x45829929	4179.145
30	0xc6423e18	-12431.523
31	0xc481cc84	-1038.3911
32	0x44ca77a7	1619.7391
33	0xc651099f	-13378.405
34	0xc66d0b12	-15170.768
35	0xc492f12e	-1175.5369
36	0x465af2fd	14012.747
37	0xc4fed776	-2038.7332
38	0x45c051b3	6154.2124
39	0x45cbcbb5	6521.4634
40	0xc6716501	-15449.251
41	0x429c29d0	78.081665
42	0x45dad4b6	7002.589
43	0x467bf034	16124.051
44	0x44b899aa	1476.802
45	0x464af4ac	12989.168
46	0xc5e85f24	-7435.8926
47	0xc5d3b9c7	-6775.222
48	0xc631d621	-11381.532
49	0xc619fd6b	-9855.3545
50	0xc5b8f3fe	-5918.499
51	0x4641024a	12352.572
52	0xc542923a	-3113.1392
53	0xc688de4e	-17519.152
54	0xc688bd88	-17502.766
55	0x460ac6a0	8881.656
56	0xc561aafc	-3610.6865
57	0xc6138855	-9442.083
58	0xc683ef69	-16887.705
59	0x45c345b0	6248.711
60	0xc55b38ed	-3507.5579
61	0x4641af72	12395.861
62	0x455fa1c0	3578.1094
63	0xc5a0fd9a	-5151.7

actor.network.task_encoder.1.running_var f4 [64]
0	0x4c8ce579	7.387028e+07
1	0x4af5462b	8.0371415e+06
2	0x4bbfa3bf	2.511859e+07
3	0x4a0417cd	2.1642112e+06
4	0x4b91d149	1.9112594e+07
5	0x4b252de3	1.0825187e+07
6	0x4b8276c6	1.7100172e+07
7	0x4b425e1d	1.2738077e+07
8	0x4bd2465a	2.756114e+07
9	0x49277244	685860.25
10	0x4c356751	4.755386e+07
11	0x4c2e97be	4.576844e+07
12	0x4b3832b3	1.2071603e+07
13	0x4546e727	3182.447
14	0x4998e56a	1.2525252e+06
15	0x4c02a10d	3.4243636e+07
16	0x49f94f4c	2.0423455e+06
17	0x4be8f370	3.0533344e+07
18	0x497cb3cc	1.03506875e+06
19	0x4b9aff70	2.0315872e+07
20	0x4ba617db	2.1770166e+07
21	0x4bbc275e	2.4661692e+07
22	0x4bf62f57	3.226795e+07
23	0x49975292	1.2396342e+06
24	0x4c08a800	3.5823616e+07
25	0x4b55ce7d	1.4012029e+07
26	0x4b81cc83	1.7012998e+07
27	0x4ab3e4a6	5.894739e+06
28	0x4adbbc1c	7.20027e+06
29	0x4a80c206	4.219139e+06
30	0x4c0e63d6	3.732668e+07
31	0x487e125e	260169.47
32	0x491aa2e2	633390.1
33	0x4c24e96e	4.323065e+07
34	0x4c541107	5.5591964e+07
35	0x48a2f779	333755.78
36	0x4c34f001	4.7431684e+07
37	0x49751c8b	1.0039767e+06
38	0x4b0b9524	9.147684e+06
39	0x4b1cbed9	1.0272473e+07
40	0x4c5be4f0	5.764397e+07
41	0x44ba686f	1491.2635
42	0x4b34baa7	1.1844263e+07
43	0x4c6f8d45	6.2797076e+07
44	0x49009478	526663.5
45	0x4c1b71fe	4.074905e+07
46	0x4b4bc0f1	1.3353201e+07
47	0x4b293077	1.1087991e+07
48	0x4beeb732	3.1288932e+07
49	0x4bb2fd08	2.3460368e+07
50	0x4b011eb1	8.462001e+06
51	0x4c0c98a1	3.6856452e+07
52	0x4a0ee283	2.3410248e+06
53	0x4c8d660e	7.413362e+07
54	0x4c8d2471	7.399924e+07
55	0x4b915ab8	1.9051888e+07
56	0x4a402ec0	3.14872e+06
57	0x4ba4482f	2.1532766e+07
58	0x4c836357	6.8885176e+07
59	0x4b0fed85	9.432453e+06
60	0x4a356d45	2.9724972e+06
61	0x4c0d94cc	3.711467e+07
62	0x4a3cbcc8	3.092274e+06
63	0x4ac39b88	6.409668e+06

actor.network.task_encoder.3.weight f4 [64, 64]
0	0xbd03ee23	-0.032209527
1	0xbdbe9e27	-0.09307509
2	0x3d0a12ef	0.033709463
3	0xbdf82a31	-0.12117422
4	0xbd6f0bc5	-0.058360834
5	0xbdb8db82	-0.09026243
6	0x3d25c8a9	0.040474568
7	0x3d152078	0.036407918
8	0x3dde59ce	0.10856973
9	0xbcbd54e2	-0.023111764
10	0x3dcbc7d0	0.099502206
11	0xbdb6ef28	-0.08932334
12	0xbdadcf9f	-0.08486866
13	0xbdc0930e	-0.094030485
14	0xb95864e6	-0.00020636953
15	0xbdef1e52	-0.11675705
16	0x3da63dad	0.081172325
17	0xbdcf9661	-0.101361044
18	0x3d490b07	0.049082782
19	0xbd71484b	-0.058906835
20	0xbaa4f59a	-0.0012585402
21	0xbd1bfe4a	-0.038084306
22	0x3d64cbdb	0.055858474
23	0x3dea8b87	0.11452394
24	0xbe01d477	-0.12678705
25	0xbde2c8b5	-0.11073438
26	0xbc6bf319	-0.014401221
27	0x3a5928a4	0.0008283949
28	0x3decfba3	0.115714334
29	0x3d534f68	0.0515894
30	0xbba7d2dd	-0.0051215724
31	0xbde47f9d	-0.11157153
32	0x3cc4ca32	0.024022195
33	0xbd5611b4	-0.052262977
34	0x3d339856	0.04384645
35	0xbd468b4a	-0.04847268
36	0xbc282639	-0.010263019
37	0x3daa05fe	0.08301924
38	0x3ddec2bd	0.10876987
39	0xbde889a7	-0.1135438
40	0xbda382bc	-0.0798392
41	0xbd532b18	-0.05155477
42	0xbbe84a89	-0.0070889634
43	0x3daa7381	0.08322812
44	0x3d944c2c	0.07241091
45	0xbc65ed7b	-0.014033671
46	0xbd943dc2	-0.07238342
47	0x3ddbc1fd	0.1073036
48	0xbd46f2c8	-0.048571378
49	0xbd757df2	-0.059934564
50	0x3d57b938	0.052666873
51	0x3d86b0e2	0.065767065
52	0x3d09bf8e	0.033629946
53	0xbd0acb3d	-0.03388523
54	0xbd5aa4a4	-0.05337967
55	0xbd23db24	-0.04000391
56	0x3db3814f	0.08764898
57	0x3d85a155	0.06524912
58	0x3d4e7549	0.05040482
59	0xbc7e8e48	-0.015536852
60	0x3d663224	0.05620016
61	0x3c51e71b	0.0128114475
62	0xbd53c83e	-0.051704638
63	0xbd586c83	-0.05283786
64	0x3d6234b3	0.05522604
65	0x3b0e3455	0.0021698673
66	0x3dc80579	0.09766669
67	0x3db01f36	0.08599703
68	0x3d949161	0.07254291
69	0xbdc0f139	-0.094210096
70	0xbde7d84f	-0.113205545
71	0x3d6343f4	0.055484727
72	0xbc019b62	-0.007910581
73	0xbdfa2279	-0.122136064
74	0xbd5dab6e	-0.054118566
75	0xbd739b11	-0.059474055
76	0xbda0dbfa	-0.07854457
77	0x3cdea4d4	0.027178206
78	0x3d286984	0.041116253
79	0xbd9795d5	-0.07401625
80	0xbddab809	-0.10679633
81	0x3da7da4b	0.08195933
82	0x3d92a597	0.0716049
83	0x3d24520f	0.04011732
84	0x3d36d3c8	0.044635564
85	0xbc93a8d0	-0.018024832
86	0xbc7ab9a6	-0.015303051
87	0xbcedc064	-0.029022403
88	0xbd7906e8	-0.060797602
89	0xbdb8c8ec	-0.09022698
90	0x3da0d5bd	0.07853267
91	0xbc9c6049	-0.019088881
92	0x3bd60b57	0.0065321135
93	0xbdd47285	-0.10373405
94	0x3bcb61d7	0.006206732
95	0x3a7694eb	0.0009406346
96	0xbdb5020f	-0.08838283
97	0xbdd69c1c	-0.10478994
98	0xbdccc010	-0.099975705
99	0xbdf0123d	-0.11722229
100	0x3dcd8f69	0.10037119
101	0xbd7077a2	-0.05870784
102	0xbcda756b	-0.026667317
103	0x3da1a604	0.07892993
104	0x3d0c55bb	0.034261446
105	0x3c4fae0d	0.012675774
106	0xba3d8933	-0.0007230222
107	0x39bb055d	0.00035671415
108	0xba3e1b04	-0.00072519504
109	0xbd3c347a	-0.045948483
110	0x3c53012e	0.012878699
111	0x3d580896	0.052742563
112	0xbd82e835	-0.06391946
113	0x3dc807d2	0.097671166
114	0x3cf8ccef	0.030371157
115	0xbd10dd1f	-0.035367128
116	0x3d4ca01b	0.049957376
117	0x3d42536d	0.047442842
118	0x3d4a5330	0.04939574
119	0xbd032d28	-0.032025486
120	0x3dacf2fd	0.08444784
121	0x3ba6eb56	0.005093972
122	0x3dbb7957	0.09154003
123	0xbd2d8795	-0.04236563
124	0xbd20f704	-0.039298072
125	0x3d54a3bd	0.051913965
126	0x3c8570ad	0.01628908
127	0x3d32a3c2	0.043613203
128	0xbd7cbbc3	-0.0617025
129	0xbc077be0	-0.00826928
130	0x3df1a661	0.117993124
131	0xbd5903d6	-0.052982174
132	0x3d6d05b1	0.057866756
133	0xbdfabfc1	-0.122436054
134	0x3d86f0b1	0.06588877
135	0x3dbf55d2	0.09342541
136	0x3b22724d	0.0024787367
137	0xbcd1b528	-0.025599077
138	0x3d4ae4d2	0.049534626
139	0x3ce3483d	0.027744407
140	0x3d811a08	0.06303793
141	0x3c8559d7	0.01627819
142	0xbdc5f1c9	-0.096652575
143	0xbdc0f9fd	-0.094226815
144	0x3db667df	0.089065306
145	0x39f917e5	0.00047510784
146	0x3dbe3165	0.09286765
147	0x3d81f7ea	0.06346114
148	0xbd898f61	-0.067168005
149	0xbdae72bf	-0.0851798
150	0x3db141ae	0.086551055
151	0xbd263223	-0.040575158
152	0x3d9c1061	0.076203115
153	0xbda183be	-0.07886456
154	0xbcacf7a9	-0.021114187
155	0x3c969c6d	0.018385137
156	0xbbf9ad81	-0.00761956
157	0x3dcc338e	0.09970771
158	0xbc28aee5	-0.010295604
159	0x3cf3b67e	0.029750105
160	0x3dc4862f	0.09595906
161	0xbdfb997d	-0.12285135
162	0x3cd2e6d0	0.025744826
163	0x3da9a47b	0.08283325
164	0xbc8aac33	-0.016927814
165	0x3c8d807b	0.017273178
166	0x3d9ee9cd	0.07759438
167	0x3d493b32	0.04912872
168	0xbd12d7b9	-0.03585026
169	0x3dd486a0	0.1037724
170	0xbd810965	-0.0630062
171	0x3db70952	0.089373246
172	0x3df8386f	0.12120139
173	0x3db37a49	0.087635584
174	0x3d084a2b	0.033273857
175	0xbd85895a	-0.06520338
176	0x3dbe7c32	0.09301032
177	0xbc1757b5	-0.00923722
178	0xbdcead5a	-0.10091658
179	0x3d9b95ad	0.07596908
180	0x3c82255c	0.015886955
181	0x3da5bcae	0.080926284
182	0xbd093463	-0.033497225
183	0x3c4ee137	0.012626938
184	0x3d02dd5f	0.031949397
185	0xbd8574b7	-0.06516402
186	0x3cf88f7d	0.030341858
187	0x3db10eb6	0.08645384
188	0x3db1074d	0.08643971
189	0x3d4759e2	0.048669703
190	0x3db3a791	0.08772195
191	0xbd15d68e	-0.03658157
192	0xbd18b915	-0.037285883
193	0xbc5b5353	-0.013386565
194	0x3dfc0a15	0.123066105
195	0xbd2986ed	-0.04138844
196	0xbd90edc9	-0.07076604
197	0x3d860a87	0.06544977
198	0x3be2ee07	0.0069253477
199	0xbd8b7a49	-0.068104334
200	0xbdb3dae3	-0.08781984
201	0x3dcbdf91	0.09954751
202	0x3d16f030	0.036850154
203	0x3de5ada9	0.11214764
204	0xbd9af8d3	-0.07566991
205	0x3df18ad7	0.1179406
206	0xbc9db63c	-0.019251935
207	0x3ad2698c	0.0016053184
208	0x3d56a4ea	0.052403368
209	0xbd83d7a5	-0.06437615
210	0xbcc580af	-0.024109213
211	0xbcdddacc	-0.02708187
212	0x3da31310	0.0796262
213	0xbdaafc52	-0.083489075
214	0x3d0dfd5d	0.034665454
215	0xbdbba6aa	-0.09162648
216	0xbd129a25	-0.035791535
217	0xbd1e5fb3	-0.038665485
218	0xbd45fff0	-0.048339784
219	0xbd36f782	-0.044669636
220	0x3d1befd0	0.0380705
221	0xbd905d32	-0.070490256
222	0xbd0fd4c7	-0.03511503
223	0xbd804948	-0.06263977
224	0x3c9e9c78	0.01936172
225	0x3ca85c10	0.020551711
226	0xbd50353c	-0.05083202
227	0x3c62296a	0.013803819
228	0x3de6bc91	0.11266435
229	0xbb575a4e	-0.0032860222
230	0xbd9b1f6b	-0.07574352
231	0xbde1c525	-0.110239305
232	0x3de31935	0.11088792
233	0x3d6142a9	0.054995213
234	0x3dc46064	0.095886976
235	0x3db4e661	0.08833004
236	0xbca1f475	-0.019769887
237	0x3ca159ee	0.019696202
238	0x3d014071	0.031555597
239	0x3d51b21b	0.051195245
240	0xbd139db0	-0.036039054
241	0xbdefe21f	-0.11713051
242	0x3e004aba	0.12528506
243	0x3d9614c2	0.07328178
244	0x3b23565d	0.0024923303
245	0x3db62573	0.088938616
246	0xbd14b6b0	-0.036307037
247	0xbddd0434	-0.10791817
248	0x3c807c3f	0.015684245
249	0xbda88a30	-0.08229482
250	0xbd8dd2fe	-0.06925009
251	0x3dcf520b	0.1012307
252	0xbd7bceb4	-0.061476424
253	0x3d8f62d7	0.07001274
254	0x3dc773e9	0.09738905
255	0xbdadfe1e	-0.08495735

actor.network.task_encoder.3.bias f4 [64]
0	0xbb33afec	-0.002741809
1	0xbdeb0ffc	-0.11477658
2	0xbdefe7d3	-0.11714139
3	0x3df91209	0.12161643
4	0xbdab7fb2	-0.08373965
5	0x3dbee6e4	0.09321383
6	0xbdc70d95	-0.097193874
7	0xbd5f6bb9	-0.05454609
8	0xbd2eff1b	-0.042723756
9	0x3d6bdc15	0.057582933
10	0x3dc7b282	0.097508445
11	0xbc394672	-0.011308299
12	0x3daa3a0c	0.08311853
13	0xbd87c1de	-0.06628774
14	0x3db6d270	0.089268565
15	0xbdbc12c2	-0.09183265
16	0x3da5e737	0.08100741
17	0x3d6e2767	0.058143046
18	0x3d690e7a	0.05689857
19	0xbd0646ff	-0.03278255
20	0x3dc4509f	0.0958569
21	0xbb38920d	-0.0028163225
22	0x3dc6f0cb	0.09713896
23	0x3a850936	0.001014984
24	0x3d1dd243	0.0385306
25	0x3de046f8	0.10951036
26	0xbde9eea4	-0.1142247
27	0xbd8b8ec3	-0.06814339
28	0xbc0fa84c	-0.008768152
29	0xbd964db9	-0.07339043
30	0xbbc03521	-0.0058657085
31	0xbd030702	-0.031989105
32	0x3d6066b3	0.05478544
33	0xbdb08d78	-0.08620733
34	0xbdab7e7b	-0.083737336
35	0x3be67d5e	0.007033988
36	0xbdbf15e0	-0.09330344
37	0x3d810a3b	0.063007794
38	0xbd8a21ce	-0.06744729
39	0xbd85e75c	-0.06538269
40	0xbdbdba32	-0.092640296
41	0xbcbca188	-0.023026243
42	0x3d49b8b6	0.04924842
43	0x3dc728a6	0.0972455
44	0xbcd2b984	-0.025723226
45	0xbdbae025	-0.091247834
46	0xbd95738e	-0.07297431
47	0x3deb7cdb	0.11498424
48	0xbce46459	-0.02787988
49	0x3d80738a	0.06272037
50	0xbdbbf7b8	-0.09178108
51	0xbdf84c97	-0.12123983
52	0xbdba6a1c	-0.0910227
53	0x3cb11785	0.02161766
54	0xbdba2de7	-0.090907864
55	0x3dd385f3	0.10328283
56	0xbc1938f0	-0.009351954
57	0x3deee870	0.11665428
58	0xbdb88c64	-0.090111524
59	0x3cc91dc2	0.024550322
60	0xbdc89bc2	-0.097953334
61	0xbd287329	-0.04112545
62	0xbdbf3b3f	-0.09337472
63	0xbd00a237	-0.0314047

actor.network.task_encoder.4.weight f4 [64]
0	0x3f804f70	1.0024242
1	0x3f7f6d40	0.9977608
2	0x3f7ffa4d	0.99991304
3	0x3f8042e2	1.0020411
4	0x3f7f9a7b	0.99845093
5	0x3f7f2793	0.9966976
6	0x3f7dde44	0.99167275
7	0x3f805e8b	1.0028852
8	0x3f805660	1.002636
9	0x3f7ef24e	0.9958848
10	0x3f7f42f0	0.99711514
11	0x3f7fe4fc	0.9995878
12	0x3f7ff49a	0.9998261
13	0x3f7ff16c	0.99977756
14	0x3f80260f	1.0011615
15	0x3f808569	1.0040714
16	0x3f7f9bc3	0.9984705
17	0x3f801db3	1.0009063
18	0x3f803e0d	1.0018936
19	0x3f7faa95	0.9986966
20	0x3f7fb47c	0.9988477
21	0x3f7f3361	0.99687773
22	0x3f8013a8	1.0005999
23	0x3f7f19b1	0.99648577
24	0x3f7f0a30	0.9962492
25	0x3f801c01	1.0008546
26	0x3f7fbb17	0.9989485
27	0x3f7f815f	0.9980678
28	0x3f7fb183	0.99880236
29	0x3f7fe41f	0.9995746
30	0x3f7f623f	0.99759287
31	0x3f801ee2	1.0009425
32	0x3f7fcbf7	0.999206
33	0x3f7f0c4c	0.9962814
34	0x3f7fd80d	0.9993904
35	0x3f80a5c4	1.0050588
36	0x3f7f997e	0.99843585
37	0x3f7fa41b	0.9985978
38	0x3f7fe284	0.9995501
39	0x3f7f3c0f	0.9970102
40	0x3f7f858f	0.9981317
41	0x3f7fe1db	0.99954003
42	0x3f7dd630	0.9915495
43	0x3f802dd1	1.0013982
44	0x3f7f5597	0.99739975
45	0x3f7f8cd7	0.9982428
46	0x3f7f9b24	0.998461
47	0x3f7ec928	0.9952569
48	0x3f7ea778	0.9947429
49	0x3f8006b5	1.0002047
50	0x3f7e88d4	0.99427533
51	0x3f7f5538	0.9973941
52	0x3f804ed2	1.0024054
53	0x3f7fa447	0.9986004
54	0x3f7f24e0	0.9966564
55	0x3f805c73	1.0028213
56	0x3f7fb41d	0.99884206
57	0x3f7ff92a	0.9998957
58	0x3f7f782e	0.99792755
59	0x3f7fd8fd	0.9994047
60	0x3f7f4eb1	0.9972945
61	0x3f7f2d20	0.9967823
62	0x3f7ef5d5	0.9959386
63	0x3f8029d0	1.001276

actor.network.task_encoder.4.bias f4 [64]
0	0x3b277204	0.0025550136
1	0xbacb3310	-0.0015502889
2	0xb886b9f4	-6.4242544e-05
3	0x3ae135d8	0.0017182184
4	0xb9a95159	-0.000322948
5	0xbb3326dc	-0.0027336394
6	0xbbff344e	-0.0077882176
7	0x3b5f62b7	0.0034085938
8	0x3b511906	0.0031905784
9	0xbb510e08	-0.0031899232
10	0xbb46c16e	-0.0030327695
11	0xb99a4ab7	-0.00029428836
12	0x3a812ab8	0.000985465
13	0x39cf3adb	0.00039525967
14	0x3ab03b89	0.0013445477
15	0x3b7cd712	0.003858034
16	0xbaa190b0	-0.0012326445
17	0x3a762d94	0.0009390947
18	0x3b02d3e2	0.0019962718
19	0xbad09aab	-0.0015915235
20	0xbb0fa2de	-0.0021917145
21	0xbb019a31	-0.0019775743
22	0x3a75ff60	0.0009384062
23	0xbb661681	-0.0035108628
24	0xbb572762	-0.003282987
25	0x36f77b38	7.375518e-06
26	0xbaa94cfd	-0.0012916621
27	0xbae90141	-0.0017776863
28	0xbab909b8	-0.0014117276
29	0xb9899595	-0.00026242124
30	0xba662045	-0.0008778612
31	0x3a85cd04	0.0010208194
32	0xba45e51d	-0.0007549094
33	0xbb4c6a74	-0.003119138
34	0x374ce3d8	1.22123965e-05
35	0x3bb31e44	0.0054662544
36	0xbb0e37b7	-0.002170069
37	0xbaa2698a	-0.0012391072
38	0xb9aa46e4	-0.00032477744
39	0xbb0a64e7	-0.0021117271
40	0xba118776	-0.0005551496
41	0x39c6f499	0.00037947742
42	0xbbb782b2	-0.005600297
43	0x3ad28dd2	0.0016063994
44	0xbb134169	-0.0022469407
45	0xba96abaf	-0.0011495257
46	0xba820376	-0.0009919244
47	0xbba6d3fa	-0.0050911875
48	0xbbb2ce9e	-0.0054567596
49	0x39a5f6a2	0.00031655008
50	0xbbbfc464	-0.005852269
51	0xbb5446bb	-0.0032390791
52	0x3b383368	0.0028106812
53	0xba87d2c4	-0.0010362496
54	0xbb51d486	-0.0032017543
55	0x3b6c7de4	0.003608578
56	0xbacccd9a	-0.0015625239
57	0xb9dce78c	-0.00042134186
58	0xbb049b3a	-0.0020234124
59	0xb99068a3	-0.0002754378
60	0xbb481966	-0.0030532717
61	0xbb54756d	-0.0032418624
62	0xbb6bcc2b	-0.0035979848
63	0x3ac21607	0.001480759

actor.network.task_encoder.4.running_mean f4 [64]
0	0xbe3094bd	-0.17244239
1	0xbe38cee5	-0.18047674
2	0x3ea9d4b3	0.3317009
3	0x3e18eced	0.1493413
4	0xbe4a659a	-0.1976532
5	0xbecae241	-0.39625743
6	0xbed47abb	-0.41499886
7	0xbe1bb741	-0.15206625
8	0xbe2d67f8	-0.16934192
9	0xbee18687	-0.4404795
10	0x3eea7cbe	0.45798296
11	0xbe2f84ad	-0.17140456
12	0x3e10fd2c	0.14159077
13	0xbefb3805	-0.49066177
14	0xbe995d0a	-0.29953796
15	0x3e2ca996	0.16861567
16	0x3e3f8de1	0.18706466
17	0xbd01c40f	-0.031681117
18	0xbe48b1be	-0.19599053
19	0x3c725d08	0.014792688
20	0x3e4a6b40	0.19767475
21	0xbdbb7d9d	-0.09154818
22	0x3e1ec7b0	0.15505862
23	0x3dad0c88	0.08449656
24	0xbef16589	-0.47147778
25	0x3f0c30cb	0.5476195
26	0xbd972c94	-0.073815495
27	0xbe9ff0ec	-0.31238496
28	0x3e27189c	0.16317981
29	0xbedf40a4	-0.43604004
30	0xbe04b930	-0.12961268
31	0xbe6b26e5	-0.22964056
32	0xbc3e2c86	-0.011607295
33	0x3ea4b891	0.32172063
34	0xbdb7cd2a	-0.08974679
35	0x3e2a5536	0.16634068
36	0xbe21252c	-0.15736836
37	0xbdee45e1	-0.11634422
38	0xbdda24fe	-0.10651587
39	0x3f002d65	0.50069267
40	0x3eae9090	0.34094667
41	0xbb58ff79	-0.0033111258
42	0x3e41e364	0.18934399
43	0xbe1bcd4d	-0.15215035
44	0xbe322863	-0.17398219
45	0xbe64b23e	-0.22333619
46	0xbebf9a24	-0.37422287
47	0x3e61926e	0.22028515
48	0x3dfb62a2	0.12274672
49	0xbe2be616	-0.1678699
50	0xbf1509bf	-0.58217996
51	0xbec5b99f	-0.3861818
52	0x3d85058d	0.06495199
53	0xbe76f9a6	-0.24118671
54	0x3d8f238a	0.069892004
55	0x3e1cd0aa	0.15313974
56	0x3dfb2d47	0.12264495
57	0x3e345ca0	0.17613459
58	0xbe4cbfbe	-0.19995019
59	0xbdff5287	-0.12466913
60	0x3c98655a	0.018603016
61	0xbe64a6e5	-0.2232929
62	0xbeb05092	-0.3443647
63	0x3da4096d	0.0800961

actor.network.task_encoder.4.running_var f4 [64]
0	0x3de14be9	0.11000807
1	0x3d58e288	0.052950412
2	0x3e727fca	0.2368156
3	0x3d9b1f03	0.075742744
4	0x3ceb0dab	0.02869304
5	0x3e783c66	0.2424179
6	0x3ecc7e32	0.3994003
7	0x3d6a647f	0.057224747
8	0x3ca78307	0.02044822
9	0x3e62bda1	0.2214265
10	0x3e3d125e	0.18464038
11	0x3dbbde6f	0.09173285
12	0x3d779604	0.0604458
13	0x3f5c4bc9	0.8605314
14	0x3eb0d722	0.34539133
15	0x3e960bb9	0.2930582
16	0x3dc700c6	0.097169444
17	0x3bfd99d6	0.007739286
18	0x3d965dea	0.073421314
19	0x3c8aa1c2	0.016922835
20	0x3cacf44f	0.02111259
21	0x3d9a0921	0.075212725
22	0x3da44935	0.08021776
23	0x3e0ab579	0.13545789
24	0x3e621f46	0.22082242
25	0x3ea3cd9e	0.3199281
26	0x3e4b505d	0.19854875
27	0x3e54129e	0.20710227
28	0x3dd2e436	0.10297434
29	0x3e206ebe	0.15667245
30	0x3d31e06f	0.043426927
31	0x3e58850c	0.21144503
32	0x3e4bcf4a	0.19903293
33	0x3e0aa248	0.13538468
34	0x3d8a86d2	0.06763996
35	0x3dcff746	0.101545855
36	0x3e638908	0.22220242
37	0x3df80599	0.12110443
38	0x3d6e0f9e	0.058120362
39	0x3e59b6f1	0.21261193
40	0x3e44f348	0.1923343
41	0x3e128cc0	0.14311504
42	0x3ca2f33f	0.01989138
43	0x3f2edf42	0.68309414
44	0x3dc80111	0.097658284
45	0x3d6d363c	0.05791305
46	0x3e119445	0.14216717
47	0x3e01860c	0.12648791
48	0x3ed043d8	0.4067676
49	0x3d1f92ef	0.038958486
50	0x3e7cc84d	0.24685784
51	0x3e3dc80c	0.18533343
52	0x3e3aaf8f	0.18231033
53	0x3d9acb72	0.07558335
54	0x3e45b26b	0.19306342
55	0x3d36d97c	0.044641003
56	0x3d388e13	0.045057368
57	0x3c10f32a	0.008847037
58	0x3e83430d	0.25637093
59	0x3d862367	0.06549721
60	0x3d28f0cb	0.041245263
61	0x3d2dd484	0.042439
62	0x3d2df0ff	0.04246616
63	0x3cea0a46	0.028569352

actor.network.task_encoder.6.weight f4 [32, 64]
0	0x3dd2636d	0.1027287
1	0x3dc99b71	0.09844101
2	0xbdf45059	-0.119293876
3	0xbaee1c3d	-0.0018166375
4	0xbbc0385e	-0.0058660945
5	0x3d918f7e	0.07107447
6	0x3d918c34	0.0710682
7	0x3d3c23ba	0.04593251
8	0x3dc11f63	0.09429815
9	0x3d256469	0.04037896
10	0x3ca161fc	0.019700043
11	0x39bb5a84	0.0003573486
12	0x3d410faf	0.047134098
13	0x3d891d06	0.06694989
14	0xbc6efe1f	-0.014586954
15	0xbd931c73	-0.07183161
16	0xbdb2e76b	-0.08735546
17	0xbd8cd60f	-0.06876766
18	0x3dd12870	0.10212791
19	0xbd42f942	-0.047600992
20	0xbd8ee892	-0.06977953
21	0xbcc561c2	-0.024094466
22	0x3d12b150	0.03581363
23	0xbd8b1585	-0.06791214
24	0xbcdf241e	-0.027238902
25	0xbd1867d5	-0.037208397
26	0x3cdc30d1	0.026878746
27	0x3d6ec105	0.058289547
28	0x3d9b4a60	0.07582545
29	0xbd81db82	-0.06340696
30	0x3d999522	0.07499148
31	0xbd265ccc	-0.04061584
32	0x3a8bcb4e	0.0010665448
33	0x3cf5159a	0.029917527
34	0x3dbd7b20	0.09252
35	0xbdf18425	-0.11792783
36	0xbd835ce1	-0.064141996
37	0xbc047152	-0.008083658
38	0x3b342dd1	0.002749313
39	0xbd91bdf8	-0.07116312
40	0xbc87c7ee	-0.016574826
41	0xbdfd1b1b	-0.123586856
42	0xbb8ce401	-0.004299641
43	0xbdf2ff7f	-0.11865138
44	0x3de5542a	0.11197694
45	0x3d75b3fb	0.059986096
46	0x3d7479bf	0.05968642
47	0x3d16edae	0.036847763
48	0x3d51ebaa	0.051250137
49	0x3dadae33	0.084804915
50	0x3d456153	0.04818852
51	0xbcc191f7	-0.023629172
52	0xbd41147d	-0.04713868
53	0x3dd1ff77	0.10253804
54	0xbbe11e63	-0.0068700775
55	0x3ba4be7c	0.0050275903
56	0x3deaeca4	0.11470917
57	0xbdbcc0e1	-0.09216476
58	0x3d6f3f16	0.058409773
59	0x3d783cb4	0.060604766
60	0xbd3c9e07	-0.046049144
61	0xbd2aa259	-0.041658733
62	0x3d462a1b	0.04838
63	0xbdae80f7	-0.08520692
64	0x3dac34e3	0.08408525
65	0x3de47271	0.111546405
66	0xbdfc1d6e	-0.12310301
67	0xbdfc9897	-0.12333792
68	0x3de90029	0.11376984
69	0x3cbfe07e	0.023422476
70	0x3d48339a	0.048877336
71	0xbd8a84bd	-0.06763599
72	0xbccdca96	-0.025121015
73	0x3be4f354	0.006987015
74	0xbc8e2316	-0.017350715
75	0xbd1abbe1	-0.03777683
76	0x3d420d3a	0.047375895
77	0xbccd3a27	-0.025052143
78	0xbd352596	-0.044225298
79	0x3c0182ed	0.00790475
80	0xbc80d952	-0.015728626
81	0xbd1ff79a	-0.03905449
82	0xbe01e57e	-0.126852
83	0x3ddbe8db	0.10737773
84	0x3d89f63c	0.067364186
85	0xbdac763b	-0.08420988
86	0x3d2d1c02	0.04226304
87	0x3dcb0ad1	0.099141724
88	0xbdeb2b4f	-0.1148287
89	0xbc8ea180	-0.017410994
90	0x3df35751	0.11881889
91	0x3bf69d9d	0.007526113
92	0xbb99c5a2	-0.004692749
93	0x3d1119d0	0.035425007
94	0xbd552715	-0.052039225
95	0xbdc2d10d	-0.095125295
96	0xbdf54c76	-0.119774744
97	0x3db9b47e	0.09067629
98	0xbc39daf8	-0.01134371
99	0xbd86d6c1	-0.0658393
100	0xbd21926c	-0.03944628
101	0x3db083be	0.08618878
102	0xbdf35bda	-0.11882754
103	0xbc2b8d77	-0.01047074
104	0xbbb5784e	-0.005538023
105	0xbd315bb7	-0.043300357
106	0x3d5c693d	0.0538113
107	0x3d8f8b04	0.07008937
108	0x3dacad9a	0.08431549
109	0xbdda1b1c	-0.10649702
110	0x3da302ce	0.07959519
111	0x3c67b9c6	0.014143413
112	0xbdb88e0f	-0.090114705
113	0xbd083931	-0.033257667
114	0x3d7e87e8	0.06214133
115	0x3d86497c	0.06556985
116	0xbd1761a4	-0.03695835
117	0x3b60446d	0.0034220472
118	0x3dd8937b	0.10575005
119	0xbd4b7817	-0.049675073
120	0xbe02ec65	-0.1278549
121	0xbd630975	-0.05542894
122	0x3d676206	0.056489967
123	0x3d9ba379	0.07599539
124	0x3d2d4424	0.042301312
125	0x3d888d4e	0.06667577
126	0x3d872306	0.06598477
127	0x3db97439	0.09055371
128	0x3cfe92db	0.031075886
129	0x39ac04b3	0.00032809898
130	0x3de0092d	0.1093925
131	0xbdb16540	-0.0866189
132	0x3c6e50db	0.014545645
133	0x3bc72174	0.006076986
134	0x3d8bef55	0.06832758
135	0x3d895b87	0.067069106
136	0xbe00baa2	-0.12571195
137	0xbdcbd3a0	-0.09952474
138	0x3cab8d23	0.020941323
139	0xbca279c2	-0.01983345
140	0xbd919e5f	-0.07110285
141	0xbdbcc324	-0.092169076
142	0x3d7fb364	0.06242694
143	0xbd1ebb94	-0.038753107
144	0x3d7e6e62	0.062116988
145	0xbdc13f84	-0.09435943
146	0x3cdc6dc5	0.026907811
147	0x3c4d3e31	0.012527035
148	0xbcdfd90b	-0.027325174
149	0xbd56c0f8	-0.052430123
150	0x3daa5ceb	0.08318504
151	0xbd89386e	-0.06700216
152	0x3d24396c	0.040093824
153	0x3dba9e41	0.09112216
154	0x3d76b758	0.060233444
155	0x3c9ab8cc	0.018886946
156	0xbc19f18a	-0.009395966
157	0x3d83086e	0.06398092
158	0x3d4cd703	0.05000974
159	0xbc85b038	-0.01631938
160	0xbd9d2e2a	-0.07674821
161	0x3d11178f	0.035422858
162	0x3d863ab0	0.065541625
163	0xbcc7810e	-0.02435353
164	0x3dc1f491	0.094704755
165	0xbd731e6d	-0.05935519
166	0x3d297bdf	0.0413779
167	0xbd85bb8c	-0.06529912
168	0xbcff836a	-0.031190593
169	0x3d69af03	0.05705167
170	0xbd1bca94	-0.03803499
171	0xbd9eafab	-0.0774835
172	0xbd932fe6	-0.0718687
173	0x3d1c1547	0.03810623
174	0x3c8e87ad	0.01739868
175	0x3cfe3efa	0.031035889
176	0xbde959e5	-0.11394099
177	0x3df2db16	0.118581936
178	0x3d5bb889	0.053642783
179	0xbd50dbaa	-0.050990738
180	0x3dd2549f	0.102700464
181	0xbc34de4a	-0.011039326
182	0x3d673c0a	0.056453742
183	0xbd3c01c1	-0.04590011
184	0x3df302ad	0.11865745
185	0xbd3eaa67	-0.046549227
186	0xbca813fd	-0.020517344
187	0x3d2f9036	0.04286214
188	0x3d3cab15	0.046061594
189	0xbd13baf5	-0.036066968
190	0x3d07e886	0.033180736
191	0x3c4905c1	0.012269438
192	0x3d090d23	0.033459794
193	0xbd649dfa	-0.05581472
194	0x3d1b59e4	0.037927523
195	0x3d4adc33	0.049526405
196	0xbdaeac39	-0.085289426
197	0xbd8a0dd9	-0.067409225
198	0x3d2ca435	0.042148788
199	0xbdb7286c	-0.08943257
200	0x3cb2252e	0.021746244
201	0xbda1cfcb	-0.079009615
202	0xbbcd810c	-0.006271487
203	0x3dc96bb7	0.09834998
204	0xbde6b318	-0.11264628
205	0xbde80c0e	-0.11330424
206	0x3c48d538	0.012257867
207	0x3d9ec077	0.077515535
208	0x3d9f6147	0.07782226
209	0xbc9450b1	-0.018104883
210	0x3dff5133	0.124666594
211	0xbdde1a1b	-0.10844823
212	0x3e00e226	0.12586269
213	0xbdfd7172	-0.123751536
214	0xbd83d286	-0.064366385
215	0x3c32daf3	0.010916459
216	0xbdd68ec4	-0.10476449
217	0x3da0f82b	0.07859834
218	0x3d5633ca	0.052295484
219	0x3ab77d12	0.0013999066
220	0x3df2607d	0.1183481
221	0x3b832990	0.0040027574
222	0x3de9d027	0.11416655
223	0x3d8cf148	0.06881958
224	0x3dc918fe	0.0981922
225	0xbd841b01	-0.06450463
226	0xbdea5a87	-0.11443048
227	0x3d19967a	0.03749702
228	0xbdf1044b	-0.11768397
229	0xbc1d91cc	-0.00961728
230	0xbdb42594	-0.0879623
231	0x3dc8fa07	0.09813314
232	0x3c4bd5f6	0.012441149
233	0xbdb4f303	-0.08835413
234	0x3c4152eb	0.011799554
235	0x3ac43628	0.0014969753
236	0xbd5352a9	-0.051592503
237	0x3cc2a6a5	0.023761103
238	0x3df1c83c	0.1180577
239	0x3d3e7f2e	0.046508007
240	0xbcf72133	-0.030167198
241	0xbd73c3e2	-0.05951298
242	0x3d31547d	0.043293465
243	0xbd87df4f	-0.066343896
244	0x3d08fb30	0.033442676
245	0xbce59ef8	-0.028029904
246	0x3d77762f	0.060415443
247	0xbccb2239	-0.024796592
248	0xbd8ae0b1	-0.06781138
249	0x3d92376d	0.07139478
250	0xbc8f773e	-0.017512914
251	0xbd3aa997	-0.04557189
252	0x3d15889c	0.036507234
253	0xbd55bd6a	-0.052182592
254	0xbcb096c5	-0.021556268
255	0x3dd6b345	0.10483412

actor.network.task_encoder.6.bias f4 [32]
0	0x3d04e072	0.03244061
1	0xbc915966	-0.017742824
2	0x3da2fbab	0.07958158
3	0xbd758c69	-0.05994836
4	0x3de9dc8f	0.11419021
5	0x3df49bac	0.119437546
6	0xbcc54d12	-0.024084602
7	0x3d97493a	0.07387014
8	0xbc9f5eb1	-0.019454332
9	0x3d8afc0f	0.067863576
10	0x3db02f47	0.086027674
11	0xbca84bb6	-0.020543914
12	0xbce96edf	-0.02849525
13	0xbd6316ee	-0.05544179
14	0xbd756029	-0.05990616
15	0x3d8e639a	0.06952591
16	0x3b585105	0.0033007276
17	0x3dafce01	0.08584214
18	0x3cca158b	0.024668476
19	0xbdf25a5d	-0.11833642
20	0x3d65ec0e	0.056133322
21	0xbd91068b	-0.07081326
22	0x3dd04a74	0.10170451
23	0x3d9280e4	0.0715349
24	0x3d2ffdb2	0.042966552
25	0xbdfb840a	-0.12281044
26	0x3dfa3ffa	0.12219234
27	0xbdc2baef	-0.09508311
28	0xbb4b00ab	-0.003097574
29	0x3de5958c	0.112101644
30	0xbcaf6550	-0.021410614
31	0xbc992ee9	-0.018699126

actor.network.vm_encoder.0.weight f4 [64, 10]
0	0x3e979d40	0.2961216
1	0xbd1d336c	-0.038379118
2	0xbe81b009	-0.25329617
3	0x3e6f1736	0.23348698
4	0x3e8a44d0	0.27005625
5	0xbe75219a	-0.23938599
6	0xbe53355e	-0.20625827
7	0x3d9f75d4	0.07786146
8	0x3e5080ee	0.20361683
9	0x3e5dda9d	0.21665426
10	0x3e6564a9	0.2240168
11	0x3ca9732d	0.020684803
12	0x3e2c9a0f	0.16855644
13	0xbd4f2ed3	-0.050581764
14	0x3e846420	0.2585764
15	0xbb54d7de	-0.00324773
16	0x3d88e68d	0.06684599
17	0xbe4d0145	-0.20020016
18	0xbd5cfdab	-0.053952854
19	0xbe671ba7	-0.22569142
20	0xbdb83bb7	-0.08995765
21	0x3c2a5a57	0.010397515
22	0x3e4ba98a	0.19888893
23	0x3c54c438	0.012986235
24	0xbd004672	-0.031317182
25	0x3e2f9dc0	0.1715002
26	0xbe46fd8f	-0.19432662
27	0xbe6bb607	-0.23018657
28	0x3e1c2d6c	0.15251702
29	0xbe9e57fd	-0.30926505
30	0xbe8f8fae	-0.28039306
31	0xbe909cef	-0.2824473
32	0x3e7e7b4f	0.24851726
33	0xba66f49a	-0.0008810252
34	0x3e67c793	0.22634725
35	0xbd988eea	-0.07449134
36	0x3e894d2b	0.26816687
37	0xbe2326ec	-0.15932816
38	0x3e6ab76c	0.22921532
39	0x3e7d0de9	0.24712338
40	0xbe322da2	-0.1740022
41	0x3d36bbee	0.044612817
42	0xbe2e7082	-0.17035106
43	0xbdf20f6d	-0.118193485
44	0x3d9ebce0	0.07750869
45	0x3e8d5e0d	0.27610818
46	0x3c99a9e4	0.018757768
47	0xbea02538	-0.31278396
48	0xbe8bca6c	-0.27302873
49	0x3dbdf993	0.09276118
50	0xbe8b1838	-0.27166915
51	0xbe1133df	-0.14179944
52	0x3d5599d9	0.052148674
53	0xbe5dd062	-0.21661523
54	0xbe1ce657	-0.15322243
55	0xbe04b94b	-0.12961309
56	0xbe3b50a7	-0.18292485
57	0x3e90c682	0.2827645
58	0xbe511e33	-0.20421676
59	0xbd1d11c6	-0.03834703
60	0xbe0eeff7	-0.13958727
61	0x3d8ff1d8	0.0702855
62	0x3e9e1e31	0.3088241
63	0x3d15911f	0.03651535
64	0xbd2d12ff	-0.042254444
65	0xbe8c081e	-0.27349943
66	0xbd5ec6e9	-0.054388914
67	0xbdc2eed6	-0.095182106
68	0xbe6c8d6e	-0.23100826
69	0x3e3661c0	0.17810726
70	0x3e2855dc	0.16439003
71	0xbe8f5547	-0.2799475
72	0x3e82ba28	0.2553265
73	0x3d48fac7	0.049067285
74	0xbe8e87b1	-0.278379
75	0xbe2d01fe	-0.16895291
76	0x3b43a47e	0.0029852684
77	0x3cb7067c	0.02234196
78	0x3e342a3d	0.17594238
79	0xbe97d18e	-0.29652065
80	0x3e94785d	0.2899808
81	0x3d871d08	0.06597334
82	0x3e72f343	0.2372561
83	0xbd15d8e2	-0.03658379
84	0xbc503369	-0.01270757
85	0xbe7875e6	-0.24263725
86	0xbd9b74f2	-0.07590665
87	0x3dae7e97	0.08520239
88	0xbe0194d1	-0.12654425
89	0xbda1459d	-0.07874606
90	0x3df9567b	0.12174698
91	0x3e63106a	0.2217423
92	0x3e8cdbc9	0.27511433
93	0xbe5c9f1d	-0.21545072
94	0xbd7c60f7	-0.06161591
95	0xbdb120fb	-0.08648869
96	0xbe92339f	-0.2855501
97	0x3e08c087	0.13354693
98	0x3e323d1f	0.17406128
99	0x3db695c9	0.08915288
100	0x3e013b8c	0.12620372
101	0xbdc0924a	-0.094029024
102	0xbde83f25	-0.11340169
103	0x3dd98438	0.10620922
104	0xbde311d6	-0.11087386
105	0xbdfa3bb6	-0.1221842
106	0x3e787532	0.24263456
107	0xbe8796bd	-0.26482192
108	0xbd3b8302	-0.045779236
109	0x3c173b8b	0.009230505
110	0x3ea02102	0.31275183
111	0xbe09138f	-0.13386367
112	0x3e61a477	0.22035395
113	0xbdef3425	-0.11679868
114	0x3da0a3f5	0.07843772
115	0x3bbda1a1	0.00578709
116	0xbe9abf8a	-0.30224258
117	0xbc485969	-0.012228348
118	0xbe475124	-0.19464546
119	0x3d7aadc7	0.061200883
120	0xbe12d92d	-0.14340658
121	0xbe93481d	-0.28765956
122	0xbe54cdf8	-0.20781696
123	0xbd124e97	-0.03571948
124	0x3d4e4ecb	0.05036811
125	0xbdb4ade9	-0.08822233
126	0x3e8372ba	0.25673467
127	0xbe866723	-0.26250562
128	0x3e9f08aa	0.31061298
129	0xbcae616c	-0.021286689
130	0xbe8a0c37	-0.26962444
131	0xbd99f09f	-0.07516598
132	0x3e7685b5	0.24074443
133	0x3e96c101	0.29444125
134	0xbe93f206	-0.28895587
135	0xbd90589b	-0.0704815
136	0x3db205c0	0.08692503
137	0x3e814e14	0.2525488
138	0xbd677bd9	-0.056514595
139	0xbe94e283	-0.29079065
140	0x3c27e780	0.010248065
141	0x3e9b5383	0.30337152
142	0xbe6538e3	-0.22384982
143	0x3e3d9ebb	0.18517582
144	0x3e7bdded	0.24596377
145	0xbd9e85b3	-0.07740345
146	0x3e9c8153	0.30567417
147	0x3d2b607d	0.041840065
148	0xbe247bf1	-0.16062905
149	0x3e3fb809	0.18722548
150	0xbe90230f	-0.28151748
151	0x3e581732	0.21102598
152	0xbc10cab9	-0.008837395
153	0x3e5e6904	0.21719748
154	0xbe6fd9a9	-0.23422875
155	0xbe1bd4ea	-0.15217939
156	0x3e64028a	0.22266594
157	0x3e716622	0.23574117
158	0x3e94752f	0.28995654
159	0xbce7af90	-0.028281957
160	0x3d731371	0.059344713
161	0xbe09a7b3	-0.13442878
162	0x3e20b912	0.15695599
163	0xbe746ee2	-0.23870423
164	0x3df553cd	0.11978874
165	0xbd9da44d	-0.076973535
166	0x3d82e329	0.063909836
167	0xbe058f7d	-0.13043018
168	0xbe8614f4	-0.2618786
169	0xbe3e81fa	-0.1860427
170	0xbe5c648e	-0.21522734
171	0x3e75341a	0.23945656
172	0x3d95cd28	0.07314521
173	0x3e492361	0.19642402
174	0xbcb503d2	-0.022096548
175	0xbe0bbbb1	-0.13645817
176	0xbe7a2dee	-0.24431583
177	0x3e9c7c29	0.30563477
178	0xbe804e4e	-0.25059742
179	0xbd050dbb	-0.032483798
180	0xbe2d1913	-0.16904096
181	0xbe94dff9	-0.29077128
182	0xbe4c7182	-0.19965175
183	0xbe42096c	-0.18948907
184	0x3d983923	0.07432773
185	0x3e310fbf	0.17291163
186	0x3cd7e86d	0.026355946
187	0xbd211c9f	-0.039333936
188	0x3e0d2c6f	0.13786481
189	0x3d5dfedb	0.054198127
190	0x3d569bdb	0.05239473
191	0x3e4114a5	0.18855532
192	0x3e8bce92	0.27306038
193	0xbc901efc	-0.0175929
194	0xbe8d14cf	-0.27554938
195	0xbe7c1731	-0.24618222
196	0xbe4308cd	-0.19046326
197	0xbe5cd095	-0.21563943
198	0xbdaf68ed	-0.08564935
199	0x3e919776	0.28435868
200	0xbe76d415	-0.2410434
201	0xbcd8893a	-0.026432622
202	0x3e861d84	0.26194394
203	0xbdd908db	-0.10597392
204	0xbe729836	-0.23690876
205	0x3db506ce	0.088391885
206	0x3e8f170d	0.27947274
207	0xbe3fb2ce	-0.18720552
208	0x3dbe1641	0.09281588
209	0xbd8d1e2d	-0.06890521
210	0xbcbe6b2a	-0.02324446
211	0xbe184dde	-0.14873454
212	0x3e14021c	0.1445393
213	0xbe2e395e	-0.17014071
214	0xbe5d401b	-0.21606486
215	0x3e281a36	0.16416249
216	0xbe676227	-0.22596036
217	0x3d724959	0.05915198
218	0xbdbaf9df	-0.091296904
219	0xbe570d3f	-0.21001147
220	0x3d8e9835	0.06962625
221	0x3e98bdf7	0.29832432
222	0xbe526526	-0.20546398
223	0x3db3da57	0.087818794
224	0x3e366aee	0.17814228
225	0x3e92d6ef	0.28679606
226	0x3d9409e8	0.07228452
227	0xbe161e1d	-0.14659925
228	0xbde5e28f	-0.11224853
229	0xbe90ebca	-0.28304893
230	0xbe97ab00	-0.2962265
231	0x3e883837	0.2660539
232	0x3e00b9f3	0.12570934
233	0x3db74709	0.08949096
234	0x3e0a6a6a	0.13517156
235	0xbe29977e	-0.16561696
236	0x3e9c0fc3	0.30480775
237	0x3d4ded1e	0.05027496
238	0x3e52bd05	0.20579918
239	0x3dd621b2	0.104556456
240	0x3d540260	0.051760077
241	0xbd37a956	-0.044839226
242	0xbe99c349	-0.30031803
243	0x3e8754ec	0.26431978
244	0x3e58d531	0.21175076
245	0x3ea068ac	0.31329858
246	0x3cc554c6	0.024088275
247	0x3deb1aa8	0.11479694
248	0x3e36554d	0.17805977
249	0x3c89cf83	0.016822582
250	0xbe84bac1	-0.25923732
251	0x3e959a97	0.29219505
252	0x3e72587c	0.23666567
253	0xbc7a2ba8	-0.0152691975
254	0x3e87f8fe	0.26557153
255	0xbdee2214	-0.11627594

actor.network.vm_encoder.0.bias f4 [64]
0	0xbe52c6ec	-0.20583695
1	0xbe19b174	-0.15009099
2	0x3e8e35a9	0.27775314
3	0xbe39c3ad	-0.1814105
4	0xbda4e766	-0.08051948
5	0xbdd3791b	-0.103258334
6	0x3de7aacc	0.11311874
7	0x3e8f805d	0.2802762
8	0xbdb2beb1	-0.08727778
9	0xbe96813a	-0.29395467
10	0xbea0353d	-0.31290618
11	0xbe5d8ba6	-0.21635303
12	0x3e098376	0.13429055
13	0x3d9019f7	0.070362024
14	0xbe2c811c	-0.16846126
15	0xbe27c0ff	-0.16382216
16	0x3d551d79	0.05203006
17	0xbea1626d	-0.31520405
18	0x3e603399	0.21894683
19	0xbdbb7492	-0.091530934
20	0xbe57cfc9	-0.21075357
21	0xbd80ce65	-0.06289367
22	0x3e1d9333	0.15388183
23	0x3e5287a5	0.20559557
24	0xbe7e986b	-0.2486283
25	0x3e810571	0.25199464
26	0x3e716779	0.23574628
27	0xbe72aeed	-0.23699541
28	0x3e1622e8	0.14661753
29	0x3e1c2a07	0.15250407
30	0xbdaea290	-0.085271
31	0xbc673cbb	-0.0141136
32	0xbe2434bd	-0.16035743
33	0xbd08a694	-0.033361986
34	0xbe9cd5a1	-0.30631736
35	0x3e47666f	0.19472669
36	0x3e9febbb	0.31234536
37	0x3e60f051	0.21966673
38	0xbe011f47	-0.12609588
39	0xbe53b461	-0.20674278
40	0x3d529215	0.051408846
41	0x3e92764a	0.28605872
42	0xbe7d27b5	-0.24722178
43	0xbe861634	-0.26188815
44	0xbe57b488	-0.21064961
45	0x3e29c98e	0.16580793
46	0x3c21ab19	0.009867453
47	0x3cab96b9	0.020945894
48	0x3e7d0786	0.24709901
49	0xbe0587a6	-0.13040027
50	0xbe64dc0b	-0.22349565
51	0xbe10cffc	-0.1414184
52	0xbced0c58	-0.02893655
53	0xbe2e1c71	-0.17003037
54	0xbcd9475b	-0.026523283
55	0x3da205f0	0.07911289
56	0x3e99ebf6	0.30062836
57	0x3c9f2169	0.01942511
58	0x3dcf14cc	0.101113886
59	0x3e660c0e	0.22465536
60	0x3d873bf2	0.066032305
61	0x3e94627b	0.28981385
62	0x3e86d9d3	0.26338062
63	0x3e98c43a	0.2983721

actor.network.vm_encoder.1.weight f4 [64]
0	0x3f814fd5	1.0102488
1	0x3f7e7755	0.99400836
2	0x3f7e8591	0.99422556
3	0x3f7ef800	0.9959717
4	0x3f7f99d5	0.99844104
5	0x3f800b50	1.0003452
6	0x3f7d827e	0.9902724
7	0x3f80b5dc	1.0055499
8	0x3f7ee2b2	0.9956466
9	0x3f80fddd	1.0077473
10	0x3f7f510a	0.9973303
11	0x3f81d8ee	1.0144327
12	0x3f7fb84e	0.998906
13	0x3f8063cd	1.0030457
14	0x3f808043	1.0039142
15	0x3f7c4e7c	0.9855726
16	0x3f7f3bb8	0.997005
17	0x3f8184b8	1.0118628
18	0x3f7fa222	0.9985677
19	0x3f803dd1	1.0018865
20	0x3f7e4a14	0.99331784
21	0x3f80383a	1.0017159
22	0x3f7e04ec	0.9922626
23	0x3f7f8188	0.99807024
24	0x3f814b51	1.010111
25	0x3f812a26	1.0090988
26	0x3f820b91	1.015978
27	0x3f7ef27c	0.9958875
28	0x3f803c22	1.0018351
29	0x3f804ea8	1.0024004
30	0x3f7c8190	0.98635197
31	0x3f80510c	1.0024734
32	0x3f7fa739	0.99864537
33	0x3f7e4d6b	0.9933688
34	0x3f7de74c	0.99181056
35	0x3f7db83f	0.9910926
36	0x3f7fb59e	0.998865
37	0x3f8119b5	1.008597
38	0x3f8011b4	1.0005403
39	0x3f800603	1.0001835
40	0x3f7db1af	0.9909925
41	0x3f7b9a30	0.98282146
42	0x3f809fab	1.0048727
43	0x3f7d6004	0.98974633
44	0x3f7feae9	0.9996782
45	0x3f81f9e6	1.0154388
46	0x3f808379	1.0040122
47	0x3f7e786e	0.9940251
48	0x3f806c14	1.0032983
49	0x3f7ecd20	0.99531746
50	0x3f7e46e9	0.9932695
51	0x3f80b014	1.0053735
52	0x3f7fcbf5	0.9992059
53	0x3f80d118	1.006381
54	0x3f81e4b5	1.0147921
55	0x3f7cb59d	0.9871462
56	0x3f8029da	1.0012772
57	0x3f7f6aa0	0.9977207
58	0x3f7f9f59	0.9985252
59	0x3f7f8569	0.9981294
60	0x3f7dd3fd	0.99151593
61	0x3f7fd604	0.99935937
62	0x3f8229b9	1.0168983
63	0x3f818f08	1.0121775

actor.network.vm_encoder.1.bias f4 [64]
0	0x3c0fdc91	0.0087806145
1	0x3b89bc56	0.0042033596
2	0xbbe0f018	-0.006864559
3	0x3b1a47b9	0.0023541285
4	0xbc79935a	-0.015232885
5	0xbb7edd77	-0.0038889328
6	0xba557db5	-0.0008144037
7	0x3b1f8b8a	0.0024344646
8	0xbc2900ce	-0.010315133
9	0x3cbf4d48	0.02335228
10	0xbc441d05	-0.011969809
11	0x3c91d2df	0.017800746
12	0x3b88b1ee	0.0041716015
13	0x3b0dceff	0.0021638272
14	0x38d310c5	0.000100643876
15	0xbb3b0e73	-0.0028542548
16	0xbb394f19	-0.0028275906
17	0x3c592558	0.013253532
18	0xbc211d0d	-0.009833586
19	0x3b750370	0.0037386082
20	0xbbc8014d	-0.0061036707
21	0x3c12ec61	0.00896749
22	0xbc39aa46	-0.0113321
23	0x3c369650	0.011144236
24	0xbb8111b8	-0.00393888
25	0x3c42000e	0.011840833
26	0xbc117f82	-0.008880498
27	0xbcaedbb0	-0.02134499
28	0xbc16fa1b	-0.009214903
29	0x3c338c58	0.0109587535
30	0xbbff855f	-0.0077978815
31	0x3c3882a9	0.011261621
32	0x3b539bc0	0.003228888
33	0xbc3e4322	-0.011612685
34	0x3a97d615	0.0011584187
35	0xbc93dbbd	-0.018049115
36	0xbc8cedb8	-0.017203197
37	0x3c01aad4	0.007914264
38	0x3c0a57a4	0.008443747
39	0x383ff68c	4.5767563e-05
40	0xbb095e07	-0.0020960586
41	0xbc95c581	-0.018282654
42	0x3c7d6a07	0.015467173
43	0xbc3adc07	-0.011404998
44	0xba2cb23d	-0.0006587839
45	0xbc82b19a	-0.015953828
46	0xbc7fc202	-0.01561022
47	0x3bc86c92	0.006116458
48	0xbc21b69c	-0.009870198
49	0xbc083371	-0.008313046
50	0x3aefc3b5	0.0018292578
51	0xbc3808ec	-0.011232596
52	0xbc83f427	-0.016107632
53	0x3c58a98f	0.01322402
54	0xbc0cdcc8	-0.00859756
55	0x3b8c31db	0.004278404
56	0xbc9b20cd	-0.01893654
57	0x3c95035d	0.01819008
58	0xbc20b458	-0.009808622
59	0xbc4dbfa7	-0.0125579005
60	0x376089c4	1.33835165e-05
61	0xbb6d5874	-0.0036216052
62	0xbc39ca9a	-0.011339808
63	0x3b91fc17	0.0044551003
