logs/wide_not_aligned/ablation/per_variant/hetero/hetero_best.pt (torch, 286379 bytes, 90 tensors)

actor.network.task_encoder.0.weight f4 [64, 6]
0.39348245 0.3098013 0.40224653 -0.031774163 -0.33976942 -0.26255992 -0.10915212 0.055334117
-0.13376734 -0.23534536 -0.023810219 0.257397 0.33928698 -0.20118941 -0.23165905 -0.019104863
0.1835288 0.18272635 -0.15840484 0.1469576 -0.08384194 -0.049594175 -0.32116064 0.2923609
-0.28981954 0.10340254 -0.2000702 -0.3449024 -0.021926505 0.13544258 -0.37243164 0.027577903
-0.15049998 -0.057988063 -0.18911557 -0.05079853 0.36661747 -0.3918954 -0.19564466 0.3468364
-0.02068232 -0.08483312 0.13754866 -0.17326747 0.16685751 -0.25183305 -0.122323595 0.3124495
0.0402142 -0.32280183 0.24528685 -0.2712684 -0.027546268 -0.001184926 -0.17566602 0.18033613
-0.059836406 0.2223575 0.20658767 -0.31922635 0.3045501 0.010360353 0.32244378 0.25405023
-0.12066286 -0.08083387 -0.14993216 -0.19325508 0.31608802 0.3805688 0.18071227 0.36675042
0.13830708 0.06383426 -0.15643913 0.38111612 -0.2947365 0.30157784 -0.06830505 -0.14560488
-0.009415834 0.25088 -0.36273056 -0.31633535 -0.07634152 -0.41458276 0.0035726062 -0.28970122
-0.38131592 -0.165927 -0.21958618 -0.0015533114 0.27312115 -0.09969442 0.08027513 0.18440814
0.10229536 0.025460087 0.049581464 0.2386277 -0.37316716 -0.16265582 0.36083925 -0.106635176
0.2588683 -0.32609123 0.09057673 -0.011941425 -0.4122163 0.10784681 0.005692524 -0.40324566
-0.07439325 0.33522448 0.08163845 -0.2490507 -0.20998366 -0.18616952 -0.21274528 0.07687843
-0.18989842 0.2890232 0.22076255 0.29979485 0.008487268 0.36888757 -0.34238863 -0.2193782
-0.23337792 0.19068952 -0.38758487 -0.1934405 0.1612627 0.38267967 0.26357427 0.16842206
-0.29045957 0.12389538 -0.15886238 0.03165835 -0.029650714 0.38062146 0.26730913 0.04269096
-0.39873448 0.32017243 0.27429333 0.1382697 -0.40575913 -0.27126536 0.21358341 -0.38291335
0.17649385 0.046717446 0.37291873 0.13976021 0.21419846 0.13288029 -0.1925437 -0.22165678
-0.3964579 -0.063714005 0.0009838818 -0.1291175 0.12065632 0.28479263 0.028272372 -0.15862224
-0.35781562 -0.20859307 0.119140215 -0.38059965 -0.40622348 0.022162665 0.0056050876 -0.31759453
0.10040746 0.17728996 -0.32047543 -0.06065905 0.24210392 0.36395395 -0.28327337 -0.21927164
-0.2342386 -0.20779878 -0.26622313 0.31250396 -0.06272879 -0.31121922 -0.26478162 -0.34734648
-0.38249385 0.023882618 0.06475307 0.23570453 0.33309555 0.28783512 0.35459796 -0.15812866
-0.3080716 -0.03748585 -0.088967 -0.019390205 0.010013551 -0.22973368 -0.34855857 -0.16787386
0.07651779 0.20910819 -0.36408544 -0.36986142 -0.03760716 -0.15580736 -0.15951206 -0.39489758
0.18490519 -0.06956216 0.3223569 -0.26167655 -0.3700854 -0.0052850395 0.09950405 0.23520732
-0.07351856 0.3139691 -0.21481338 -0.3459019 -0.1994363 -0.16459008 0.13392024 0.3273493
0.38624167 -0.1942077 -0.095987596 -0.066843346 0.15455641 -0.12512027 -0.14068347 0.070931315
-0.26039052 0.35051018 -0.35450703 -0.36073112 -0.019758705 -0.28840455 -0.18375087 0.25975534
0.008195263 -0.047157466 -0.36235896 -0.13314539 -0.13661829 0.30089742 0.15804945 -0.037484564
00000000: 8876 c93e 479e 9e3e 42f3 cd3e a025 02bd
00000010: 42f6 adbe 416e 86be 268b dfbd 07a6 623d
00000020: 4efa 08be 60fe 70be a60d c3bc 8ac9 833e
00000030: 06b7 ad3e 9904 4ebe 0838 6dbe cd81 9cbc
00000040: f9ee 3b3e 9e1c 3b3e e134 22be 0e7c 163e
00000050: 53b5 abbd 4323 4bbd 2b6f a4be 54b0 953e
00000060: 3a63 94be b6c4 d33d 34df 4cbe 0c97 b0be
00000070: 379f b3bc 76b1 0a3e 5caf bebe 0eeb e13c
00000080: ab1c 1abe e484 6dbd 83a7 41be 1f12 50bd
00000090: 49b5 bb3e 84a6 c8be 1357 48be 8a94 b13e
000000a0: f86d a9bc fdbc adbd 8ed9 0c3e 076d 31be
000000b0: b2dc 2a3e 43f0 80be cb84 fabd 62f9 9f3e
000000c0: a5b7 243d 4846 a5be 7a2c 7b3e b1e3 8abe
000000d0: b6a8 e1bc 854f 9bba cbe1 33be 09aa 383e
000000e0: 0517 75bd afb1 633e b88b 533e a371 a3be
000000f0: feed 9b3e 78be 293c 5a17 a53e df12 823e
00000100: 171e f7bd 3a8c a5bd d187 19be a9e4 45be
00000110: 4ad6 a13e ead9 c23e a30c 393e b6c6 bb3e
00000120: 5fa0 0d3e 89bb 823d 9431 20be a721 c33e
00000130: b4e7 96be 6968 9a3e 85e3 8bbd 7219 15be
00000140: df44 1abc 5873 803e d2b7 b9be b5f6 a1be
00000150: f158 9cbd 3144 d4be 6322 6a3b b853 94be
00000160: d73b c3be c4e8 29be 33db 60be 7b98 cbba
00000170: 89d6 8b3e 972c ccbd 4a67 a43d 7dd5 3c3e
00000180: 3b80 d13d ac91 d03c ef15 4b3d d25a 743e
00000190: c40f bfbe 3f8f 26be ecbf b83e 8b63 dabd
000001a0: 638a 843e 6ef5 a6be 4b80 b93d f7a5 43bc
000001b0: 040e d3be cade dc3d 5a88 ba3b 3776 cebe
000001c0: 7d5b 98bd 8ba2 ab3e 0f32 a73d 2607 7fbe
000001d0: f505 57be 39a3 3ebe e6d9 59be 7072 9d3d
000001e0: bb74 42be d9fa 933e 940f 623e b67e 993e
000001f0: 2f0e 0b3c d5de bc3e 904d afbe aea4 60be
00000200: 9ffa 6ebe 1d44 433e 8671 c6be 4415 46be
00000210: 0d22 253e 97ee c33e 35f3 863e d576 2c3e
00000220: 1eb7 94be dcbc fd3d d2ac 22be 30ac 013d
00000230: 0ee6 f2bc d1e0 c23e bedc 883e b7dc 2e3d
00000240: ed26 ccbe a4ed a33e 2d70 8c3e 9296 0d3e
00000250: a9bf cfbe 4be3 8abe 9cb5 5a3e 380d c4be
00000260: ceba 343e cb5a 3f3d 34ef be3e 4d1d 0f3e
00000270: d756 5b3e c511 083e 2d2a 45be fff9 62be
00000280: 88fc cabe 7d7c 82bd 98f5 803a 6137 04be
00000290: a91a f73d 57d0 913e 769b e73c de6d 22be
000002a0: 9c33 b7be 6c99 55be c9ff f33d f5dd c2be
000002b0: 86fc cfbe 7a8e b53c e2aa b73b c09b a2be
000002c0: 6da2 cd3d 808b 353e 5b15 a4be a075 78bd
000002d0: 17ea 773e 2c58 ba3e 3509 91be bf88 60be
000002e0: 3edc 6fbe 34c9 54be 664e 88be 8500 a03e
000002f0: f477 80bd 2058 9fbe 7591 87be 66d7 b1be
00000300: 3cd6 c3be 7ba5 c33c 429d 843d 875c 713e
00000310: 808b aa3e 205f 933e dd8d b53e 7bec 21be
00000320: 90bb 9dbe c38a 19bd 5534 b6bd 35d8 9ebc
00000330: e10f 243c 4e3f 6bbe 4576 b2be 20e7 2bbe
00000340: 5cb5 9c3d 7520 563e 6869 babe 7a5e bdbe
00000350: f709 1abd f78b 1fbe 2157 23be 0430 cabe
00000360: c957 3d3e 9b76 8ebd f70b a53e 78fa 85be
00000370: d57b bdbe 202e adbb c8c8 cb3d 30da 703e
00000380: e690 96bd 8fc0 a03e 0af8 5bbe 0e1a b1be
00000390: 0839 4cbe 4d8a 28be 6322 093e 549a a73e
000003a0: 78c1 c53e 62de 46be 2595 c4bd 2ae5 88bd
000003b0: 0944 1e3e 871f 00be 540f 10be 7044 913d
000003c0: e851 85be 1276 b33e f281 b5be c0b1 b8be
000003d0: 02dd a1bc c3a9 93be 3029 3cbe a7fe 843e
000003e0: 6d45 063c 3028 41bd 1d87 b9be 4457 08be
000003f0: aae5 0bbe 3a0f 9a3e b7d7 213e 6a89 19bd

actor.network.task_encoder.0.bias f4 [64]
-0.17164512 0.27201003 -0.3526209 0.14604293 -0.33613157 0.13287038 -0.19631383 0.2929656
-0.3130067 0.40603453 0.37443915 0.15044266 0.39297232 -0.39060828 -0.015846752 -0.33208925
0.2591615 -0.044247054 0.23962604 -0.083303824 0.17233828 0.31960976 -0.2853573 0.37407294
-0.40026686 -0.031104533 -0.09664228 -0.12304942 0.40490094 -0.25535545 0.015545064 0.021409338
0.14456077 -0.09362103 0.31299168 0.37759298 -0.23711064 -0.124149784 -0.29021493 0.23794533
-0.3782685 -0.13662352 -0.1902177 0.044666417 -0.13560468 0.3130655 0.12333812 0.090612635
0.24612571 -0.036189795 0.092230126 -0.19132459 0.17196564 -0.12558459 0.30834436 -0.1749226
-0.067222156 -0.35790095 0.24626587 -0.25030202 0.3654634 0.12304427 -0.023132443 -0.15301524
00000000: bdc3 2fbe e644 8b3e ba8a b4be 478c 153e
00000010: 7019 acbe 2c0f 083e 7e06 49be 96ff 953e
00000020: 6a42 a0be c2e3 cf3e 7db6 bf3e a40d 1a3e
00000030: ab33 c93e cffd c7be 0cd1 81bc 9a07 aabe
00000040: d1b0 843e 663c 35bd 8760 753e 329b aabd
00000050: 7279 303e e4a3 a33e 5a1a 92be 7d86 bf3e
00000060: c7ef ccbe efce febc 63ec c5bd 5601 fcbd
00000070: 2d4f cf3e f3bd 82be b9b0 7e3c a362 af3c
00000080: bd07 143e 62bc bfbd 7240 a03e de53 c13e
00000090: 22cd 72be 3e42 febd 0d97 94be f1a7 733e
000000a0: 69ac c1be 09e7 0bbe 6ec8 42be 22f4 363d
000000b0: f4db 0abe 1f4a a03e b298 fc3d 1e93 b93d
000000c0: 6108 7c3e c03b 14bd 26e3 bc3d 98ea 43be
000000d0: c317 303e 3f99 00be 50df 9d3e e91e 33be
000000e0: c5ab 89bd cb3e b7be 1f2d 7c3e 9627 80be
000000f0: 051e bb3e a2fe fb3d 4080 bdbc 07b0 1cbe

actor.network.task_encoder.1.weight f4 [64]
0.9879482 1.0069507 0.99488837 1.0033662 0.9970749 0.99168086 0.9898597 0.9919694
1.0011529 0.9867909 0.99927366 1.0003468 1.0077816 0.99634224 1.0066164 0.98992306
1.0133082 0.9959816 1.0018522 1.0013659 0.99284565 1.0085192 0.9964463 1.007478
0.9981471 1.0049397 1.0052644 1.0099874 0.99948066 1.0050588 0.9932957 0.99768597
1.001443 1.0012436 0.99238735 1.0044544 0.99737364 1.0004482 1.0009634 1.0000967
0.9964396 1.0032642 0.9936005 1.0033603 1.0061535 0.9926233 1.0092422 0.99309003
1.0014415 1.0034119 1.0069464 1.0031817 1.0180875 0.998627 0.9982765 1.0009388
0.9966167 1.0054451 1.0037471 1.0025278 1.001549 0.9971802 0.9937458 0.9962918
00000000: 2cea 7c3f c3e3 803f 01b1 7e3f 4e6e 803f
00000010: 4d40 7f3f ccde 7d3f 7267 7d3f b5f1 7d3f
00000020: c725 803f 549e 7c3f 66d0 7f3f 5d0b 803f
00000030: fdfe 803f 4910 7f3f ced8 803f 996b 7d3f
00000040: 15b4 813f a6f8 7e3f b13c 803f c22c 803f
00000050: 222b 7e3f 2817 813f 1b17 7f3f 0af5 803f
00000060: 9186 7f3f dda1 803f 81ac 803f 4447 813f
00000070: f7dd 7f3f c4a5 803f a148 7e3f 5968 7f3f
00000080: 492f 803f c028 803f 190d 7e3f f691 803f
00000090: e153 7f3f b00e 803f 921f 803f 2b03 803f
000000a0: aa16 7f3f f66a 803f 9a5c 7e3f 1c6e 803f
000000b0: a3c9 803f 901c 7e3f d92e 813f 263b 7e3f
000000c0: 3c2f 803f cd6f 803f 9fe3 803f 4268 803f
000000d0: b150 823f 05a6 7f3f 0c8f 7f3f c31e 803f
000000e0: 4622 7f3f 6db2 803f c97a 803f d552 803f
000000f0: c232 803f 3447 7f3f 2066 7e3f fb0c 7f3f

actor.network.task_encoder.1.bias f4 [64]
-0.0039833067 -0.015633507 -0.0048521785 0.014885664 0.008649855 -0.004750514 0.0017111426 -0.014553895
0.016009616 -0.026162127 -0.0037604987 0.01949077 0.0039531807 -0.0050677913 -0.00070959306 -0.0100730965
0.020781161 -0.012677708 0.001097443 -0.0012018341 -0.017158253 -0.0019630415 -0.004988829 0.016117679
-0.002555281 0.0048241965 -0.0021901964 0.018901302 0.0026291164 0.012489807 -0.015297235 0.0036138343
0.006888631 -0.0011202252 -0.019879289 -0.0104800295 -0.004038643 -0.020946862 -0.004181433 0.011947359
-0.015014615 0.008629563 -0.0046044197 0.010789032 0.010613152 0.0027028173 0.0049680453 -0.007229201
-0.016142655 0.0022357698 -0.0033853205 0.0067028473 -0.008651764 -0.014924819 -0.0054596253 0.006569941
-0.01625289 0.014471926 0.01322328 0.013451686 -0.009117512 -0.0073319133 -0.019201722 -0.01228353
00000000: 6686 82bb d711 80bc 06ff 9ebb 00e3 733c
00000010: 1fb8 0d3c 33aa 9bbb 6b48 e03a 7673 6ebc
00000020: 9926 833c f551 d6bc b372 76bb 1bab 9f3c
00000030: af89 813b b70f a6bb fc03 3aba a109 25bc
00000040: 413d aa3c 29b6 4fbc 14d8 8f3a dc86 9dba
00000050: 778f 8cbc 5fa6 00bb 5579 a3bb 3909 843c
00000060: 8076 27bb 4b14 9e3b 6689 0fbb e7d6 9a3c
00000070: 414d 2c3b 0ca2 4c3c 41a1 7abc 14d6 6c3b
00000080: 06ba e13b 85d4 92ba e4d9 a2bc 6eb4 2bbc
00000090: 9856 84bb c198 abbc 6704 89bb dbbe 433c
000000a0: dcff 75bc 0363 0d3c ace0 96bb 7bc4 303c
000000b0: c9e2 2d3c c021 313b fcca a23b efe2 ecbb
000000c0: 9a3d 84bc fe85 123b 41dc 5dbb 8fa3 db3b
000000d0: 21c0 0dbc 3a87 74bc a8e6 b2bb a948 d73b
000000e0: c824 85bc a81b 6d3c 75a6 583c 7664 5c3c
000000f0: 9e61 15bc 8c40 f0bb ee4c 9dbc dc40 49bc

actor.network.task_encoder.1.running_mean f4 [64]
20975.578 -6975.419 -12080.322 -4372.4653 -10433.618 -7848.453 -10202.387 8701.19
12790.479 -3119.5605 16814.89 16483.418 -8157.69 -491.95105 185.48788 14242.11
2585.355 13499.36 296.7249 -10950.499 11512.372 -12170.402 13744.151 -1545.4114
14302.532 9204.128 -10041.157 6291.8086 6212.2915 5235.1665 -14772.003 -3271.5833
3377.1885 -16065.132 -18175.977 -1961.2935 16809.186 -3834.014 6983.737 8059.593
-18486.988 426.6804 8242.159 19336.197 1706.9075 15504.568 -8892.375 -7564.8384
-13657.134 -12091.972 -7221.941 14851.485 -3826.32 -20990.957 -20932.973 10748.967
-3878.9924 -11280.037 -20245.88 8064.0107 -6128.5806 14851.306 3954.9749 -5908.666
00000000: 28df a346 5afb d9c5 4ac1 3cc6 b9a3 88c5
00000010: 7906 23c6 a043 f5c5 8c69 1fc6 c3f4 0746
00000020: ead9 4746 f8f8 42c5 c85d 8346 d6c6 8046
00000030: 85ed fec5 bcf9 f5c3 e67c 3943 7188 5e46
00000040: ae95 2145 71ed 5246 ca5c 9443 ff19 2bc6
00000050: 7de1 3346 9c29 3ec6 9bc0 5646 2a2d c1c4
00000060: 217a 5f46 83d0 0f46 a1e4 1cc6 789e c445
00000070: 5522 c245 5599 a345 03d0 66c6 5579 4cc5
00000080: 0413 5345 8704 7bc6 f4ff 8dc6 6429 f5c4
00000090: 5f52 8346 39a0 6fc5 e53d da45 bedc fb45
000000a0: fa6d 90c6 1757 d543 a3c8 0046 6510 9746
000000b0: 0a5d d544 4642 7246 80f1 0ac6 b566 ecc5
000000c0: 8964 55c6 e3ef 3cc6 87af e1c5 f10d 6846
000000d0: 1f25 6fc5 eafd a3c6 f289 a3c6 def3 2746
000000e0: e16f 72c5 2640 30c6 c32b 9ec6 1600 fc45
000000f0: a584 bfc5 390d 6846 992f 7745 54a5 b8c5

actor.network.task_encoder.1.running_var f4 [64]
5.9609076e+07 6.5923205e+06 1.9771144e+07 2.5899665e+06 1.4746901e+07 8.344864e+06 1.4102018e+07 1.0256825e+07
2.216551e+07 1.3188899e+06 3.830363e+07 3.6809484e+07 9.016653e+06 32695.79 4684.318 2.7482202e+07
905513.94 2.4688382e+07 11936.944 1.6245195e+07 1.7955422e+07 2.006662e+07 2.5593804e+07 323797.97
2.771772e+07 1.1476535e+07 1.3659027e+07 5.363387e+06 5.228895e+06 3.7138512e+06 2.9563502e+07 1.4497774e+06
1.5450139e+06 3.4966092e+07 4.4759852e+07 521131.38 3.8282012e+07 1.9913585e+06 6.607901e+06 8.800328e+06
4.630031e+07 24722.951 9.203549e+06 5.0654628e+07 394651.28 3.2567472e+07 1.0712091e+07 7.7536735e+06
2.5269822e+07 1.9809416e+07 7.066943e+06 2.9883104e+07 1.9836684e+06 5.9695052e+07 5.936913e+07 1.5652927e+07
2.0385116e+06 1.7236884e+07 5.5532496e+07 8.811414e+06 5.089336e+06 2.9882914e+07 2.1192342e+06 4.729576e+06
00000000: fd63 634c 812e c94a 84d7 964b 3a14 1e4a
00000010: 1505 614b 40aa fe4a 022e 574b b981 1c4b
00000020: 031c a94b 4fff a049 e41d 124c c36a 0c4c
00000030: 4d95 094b 946f ff46 8b62 9245 2dac d14b
00000040: 9f12 5d49 7f5b bc4b c783 3a46 cbe1 774b
00000050: 2ffd 884b 9e18 994b e643 c34b bf1a 9e48
00000060: 2c78 d34b 371e 2f4b 936b 504b 76ad a34a
00000070: be92 9f4a edac 624a 378d e14b 8bf9 b049
00000080: af99 bc49 9362 054c cbbe 2a4c 6c75 fe48
00000090: c708 124c f415 f349 3aa8 c94a 4848 064b
000000a0: 269f 304c e725 c146 5d6f 0c4b 693b 414c
000000b0: 69b3 c048 5878 f84b 1b74 234b 939f ec4a
000000c0: 1fcb c04b 4422 974b 7eaa d74a 70fd e34b
000000d0: a325 f249 f3b7 634c aa79 624c 3fd8 6e4b
000000e0: 7dd7 f849 ca81 834b f4d6 534c 9673 064b
000000f0: 7050 9b4a 11fd e34b 0959 014a d055 904a

actor.network.task_encoder.3.weight f4 [64, 64]
-0.026203396 -0.092381544 0.034483563 -0.120414734 -0.05758963 -0.0895624 0.04119394 0.042431332
0.11460212 -0.022371903 0.10548722 -0.08330713 -0.084138006 -0.09338562 0.005836052 -0.11073946
0.08718332 -0.095342636 0.04977659 -0.058178023 0.004735106 -0.037361145 0.06186996 0.11529214
-0.12077337 -0.10467159 -0.0137039265 0.0068788338 0.12168841 0.057625856 -0.0043874066 -0.110905014
0.029993257 -0.051533327 0.04452114 -0.047734745 -0.0042925873 0.083749235 0.11475474 -0.1075301
-0.07907762 -0.046391375 -0.0010797015 0.08922791 0.07851261 -0.008036976 -0.071671166 0.108014725
-0.04782726 -0.059197 0.053401347 0.07176397 0.03433853 -0.03315771 -0.052619047 -0.033967678
0.0883793 0.06597679 0.05113814 -0.009572736 0.056896593 0.018785618 -0.04563964 -0.052078784
0.02872592 0.0014729542 0.09701744 0.085358925 0.07193286 -0.09485161 -0.113833964 0.029542238
-0.035939187 -0.12281442 -0.08022948 -0.08792044 -0.07914622 0.026560545 0.014042959 -0.10002704
-0.13520364 0.05576671 0.06859446 0.039440144 0.018558037 -0.018631319 -0.041043073 -0.029610762
-0.08656258 -0.116930984 0.07788942 -0.047409978 -0.019695604 -0.13111311 0.0055383444 0.00029472102
-0.115788065 -0.105444215 -0.10063062 -0.11785683 0.07352662 -0.0593741 -0.053407244 0.050399914
0.033593103 -0.014960442 -0.0269542 -0.027726986 -0.028534766 -0.07217273 0.012299727 0.05207696
-0.06458541 0.09701365 0.029761702 -0.06383996 0.049311098 0.04676946 0.04876794 -0.05827643
0.08376008 0.004485452 0.090906024 -0.07100968 -0.039933894 0.025684625 -0.00958221 0.042950384
-0.045182873 -0.015657619 0.11058761 -0.060370795 0.05048498 -0.12981959 0.05850212 0.1088725
0.020362718 -0.03300828 0.06581238 0.04626146 0.055654317 0.008898841 -0.07905695 -0.07832901
0.1075172 0.01608357 0.08458 0.056077093 -0.05114598 -0.09257966 0.10207346 -0.047986753
0.09213835 -0.06240689 -0.028489823 0.036295578 0.009217319 0.11704542 -0.017668964 0.022347495
0.11364974 -0.13022798 0.018390939 0.07543825 -0.00028100007 0.009888946 0.0940308 0.068315
-0.043233365 0.13299935 -0.04622902 0.10707234 0.13732436 0.104587145 0.025864888 -0.0725844
0.085587084 -0.016619999 -0.10827446 0.093671836 0.008499775 0.073546484 -0.040891122 0.02907639
0.024566744 -0.072565 0.022980588 0.10591489 0.07906988 0.06493356 0.10297357 -0.043958943
-0.04682385 -0.039060615 0.09707081 -0.066397645 -0.09625947 0.040088054 -0.018653633 -0.07746751
-0.0974387 0.0735307 0.027377153 0.10239591 -0.10107677 0.09133751 -0.02868439 -0.007871076
0.042760406 -0.07375355 -0.0415716 -0.05225935 0.07021608 -0.109092146 0.02530106 -0.116103925
-0.045213033 -0.048203595 -0.07400022 -0.054309305 0.028561646 -0.08009257 -0.060810097 -0.088526204
0.009713709 -0.004665032 -0.07689321 -0.012107046 0.10309553 -0.029110055 -0.085255735 -0.12007259
0.084932566 0.0448807 0.086318344 0.078701325 -0.029344035 0.010117807 0.0061259684 0.025401587
-0.061731692 -0.14275527 0.099504024 0.06361156 -0.023036558 0.06343961 -0.06194902 -0.117403686
-0.010084629 -0.106904306 -0.09424578 0.09139801 -0.08703475 0.06057553 0.088052794 -0.110608704
00000000: 81a8 d6bc 8932 bdbd a33e 0d3d 009c f6bd
00000010: 1be3 6bbd 7e6c b7bd faba 283d 7acc 2d3d
00000020: 84b4 ea3d 4845 b7bc af09 d83d ee9c aabd
00000030: 8c50 acbd f640 bfbd 5a3c bf3b 5fcb e2bd
00000040: 2b8d b23d 0043 c3bd 8ae2 4b3d 144c 6ebd
00000050: f328 9b3b 0008 19bd 5b6b 7d3d 491e ec3d
00000060: 0758 f7bd 0f5e d6bd 6f86 60bc d767 e13b
00000070: c637 f93d 1709 6c3d 3cc4 8fbb 2b22 e3bd
00000080: 6bb4 f53c 9c14 53bd cd5b 363d 8285 43bd
00000090: d5a8 8cbb b884 ab3d 8804 eb3d be38 dcbd
000000a0: 72f3 a1bd e204 3ebd c584 8dba 1fbd b63d
000000b0: 38cb a03d 85ad 03bc 55c8 92bd d336 dd3d
000000c0: 84e6 43bd 8e78 72bd 5fbb 5a3d fdf8 923d
000000d0: 8fa6 0c3d 61d0 07bd 1287 57bd b121 0bbd
000000e0: 3500 b53d d71e 873d 3a76 513d f7d6 1cbc
000000f0: 670c 693d 4ce4 993c a2f0 3abd 9050 55bd
00000100: 9f52 eb3c 2410 c13a 14b1 c63d a9d0 ae3d
00000110: 8951 933d 9041 c2bd c821 e9bd 9002 f23c
00000120: f834 13bd 2086 fbbd 5b4f a4bd a20f b4bd
00000130: 6a17 a2bd 8095 d93c 7014 663c fada ccbd
00000140: d372 0abe a26b 643d 417b 8c3d fd8b 213d
00000150: 0607 983c b5a0 98bc c81c 28bd 4592 f2bc
00000160: b947 b1bd 8379 efbd 7d84 9f3d f730 42bd
00000170: ad58 a1bc 8442 06be 007b b53b c984 9a39
00000180: 4b22 edbd 23f3 d7bd 6d17 cebd ec5e f1bd
00000190: 2095 963d 4232 73bd 8ec1 5abd 2470 4e3d
000001a0: ec98 093d a41c 75bc 0ecf dcbc b423 e3bc
000001b0: bec1 e9bc 4ccf 93bd cb84 493c a74e 553d
000001c0: 5b45 84bd 18af c63d d0ce f33c 86be 82bd
000001d0: 6ffa 493d 5591 3f3d e4c0 473d 44b3 6ebd
000001e0: 688a ab3d b3fa 923b f02c ba3d 866d 91bd
000001f0: b991 23bd 9068 d23c b4fe 1cbc beec 2f3d
00000200: ad11 39bd 6844 80bc c27b e23d 5e47 77bd
00000210: 57c9 4e3d 6def 04be eb9f 6f3d 8cf8 de3d
00000220: b7cf a63c b133 07bd a4c8 863d a87c 3d3d
00000230: c8f5 633d 72cc 113c 9ce8 a1bd f66a a0bd
00000240: fa31 dc3d b1c1 833c 4738 ad3d 18b1 653d
00000250: 727e 51bd 689a bdbd e40b d13d c28d 44bd
00000260: 08b3 bc3d 5e9e 7fbd 7d63 e9bc acaa 143d
00000270: 3d04 173c 82b5 ef3d 81be 90bc 1812 b73c
00000280: 32c1 e83d 7c5a 05be 98a8 963c 5f7f 9a3d
00000290: 3153 93b9 3f05 223c 3893 c03d bce8 8b3d
000002a0: 7815 31bd fb30 083e a45a 3dbd be48 db3d
000002b0: c29e 0c3e c931 d63d 9ae2 d33c 21a7 94bd
000002c0: 4848 af3d aa26 88bc 00bf ddbd 05d7 bf3d
000002d0: a442 0b3c 8a9f 963d 737d 27bd 9c31 ee3c
000002e0: 3240 c93c f59c 94bd c941 bc3c e8e9 d83d
000002f0: 64ef a13d e3fb 843d cfe3 d23d 4b0e 34bd
00000300: 5eca 3fbd 06fe 1fbd 10cd c63d 7dfb 87bd
00000310: af23 c5bd 5f33 243d 81cf 98bc 49a7 9ebd
00000320: f18d c7bd 4397 963d 0d46 e03c f2b4 d13d
00000330: 5601 cfbd 290f bb3d 87fb eabc b0f5 00bc
00000340: 8925 2f3d 1a0c 97bd fb46 2abd e60d 56bd
00000350: 73cd 8f3d b46b dfbd 2b44 cf3c e5c7 edbd
00000360: 4d31 39bd 2271 45bd 6d8d 97bd 6f73 5ebd
00000370: 1dfa e93c 9307 a4bd 0214 79bd 3a4d b5bd
00000380: 4026 1f3c 20dd 98bb 307a 9dbd a25c 46bc
00000390: c023 d33d 3678 eebc 8f9a aebd 9ee8 f5bd
000003a0: 20f1 ad3d d3d4 373d acc7 b03d 292e a13d
000003b0: e762 f0bc 29c5 253c 59bc c83b fd16 d03c
000003c0: 5fda 7cbd 702e 12be c4c8 cb3d c746 823d
000003d0: 2ab7 bcbc a0ec 813d 41be 7dbd 5871 f0bd
000003e0: 003a 25bc a5f0 dabd ee03 c1bd e12e bb3d
000003f0: 463f b2bd 0c1e 783d 0655 b43d d186 e2bd

actor.network.task_encoder.3.bias f4 [64]
-0.002741682 -0.1147764 -0.117141224 0.121616505 -0.083738714 0.093214534 -0.09719381 -0.05454615
-0.04272359 0.057583615 0.09750849 -0.01130875 0.083118655 -0.06628778 0.08926865 -0.09183266
0.081007466 0.058141764 0.05689932 -0.03278415 0.09585705 -0.002818143 0.09713845 0.0010151061
0.038529772 0.10951018 -0.114224955 -0.06814329 -0.008769169 -0.07339057 -0.0058678915 -0.031989537
0.05478529 -0.086207084 -0.08373764 0.0070344238 -0.093303405 0.063007556 -0.06744789 -0.06538289
-0.092640646 -0.02302633 0.04924782 0.09724551 -0.025723636 -0.091248564 -0.072974175 0.11498418
-0.027879799 0.06272057 -0.09178169 -0.121239506 -0.091022916 0.021617202 -0.09090806 0.103283264
-0.009351761 0.1166554 -0.090111494 0.024551239 -0.09795415 -0.041125726 -0.09337357 -0.031403866
00000000: cbad 33bb e40f ebbd bde7 efbd 1312 f93d
00000010: 347f abbd 43e7 be3d 8c0d c7bd c96b 5fbd
00000020: eefe 2ebd ccdc 6b3d 88b2 c73d 5648 39bc
00000030: 1d3a aa3d e3c1 87bd 7bd2 b63d c312 bcbd
00000040: 3ee7 a53d 0f26 6e3d 430f 693d ac48 06bd
00000050: b350 c43d 98b0 38bb 86f0 c63d 4f0d 853a
00000060: 65d1 1d3d e046 e03d c6ee e9bd b68e 8bbd
00000070: 90ac 0fbc cc4d 96bd 7147 c0bb 7607 03bd
00000080: 8a66 603d 578d b0bd a47e abbd 0681 e63b
00000090: db15 bfbd 1b0a 813d 1f22 8abd 77e7 85bd
000000a0: 61ba bdbd b7a1 bcbc 15b8 493d a728 c73d
000000b0: 60ba d2bc 87e0 babd 7c73 95bd d37c eb3d
000000c0: 2d64 e4bc a473 803d 0af8 bbbd 6b4c f8bd
000000d0: 396a babd 8f16 b13c 012e babd 2d86 d33d
000000e0: 2138 19bc 07e9 ee3d 608c b8bd ae1f c93c
000000f0: 2f9c c8bd 7373 28bd a43a bfbd 57a1 00bd

actor.network.task_encoder.4.weight f4 [64]
0.9993313 1.0033764 1.0007769 1.0019373 0.995601 0.9985676 0.99989015 0.9891127
0.99805754 0.99125314 1.0019637 0.9896457 1.0057043 1.0050821 1.003376 1.0004414
1.0012405 1.0044236 1.0003802 0.9935797 0.9912922 0.99911004 0.9988637 0.99813443
1.0185434 0.9979605 0.9970568 0.99617004 0.99534196 1.0007031 0.99422294 0.99831074
1.0041597 0.99870884 0.99761504 1.0072359 0.99469906 1.000262 1.0011375 0.9993746
1.0007137 0.99572855 0.9859958 1.0026264 1.0070106 1.0050799 0.990926 0.9875238
0.9935893 0.9991379 1.0102564 0.9935469 0.99969035 1.0016646 0.9911008 0.9968133
0.9928357 0.9874703 0.9922482 1.0005594 0.99965256 1.0042785 1.0081995 0.9932432
00000000: 2dd4 7f3f a36e 803f 7519 803f 7b3f 803f
00000010: b5df 7e3f 20a2 7f3f cdf8 7f3f 7d36 7d3f
00000020: b380 7f3f c4c2 7d3f 5940 803f 6c59 7d3f
00000030: ebba 803f 88a6 803f a06e 803f 770e 803f
00000040: a628 803f f490 803f 750c 803f 3d5b 7e3f
00000050: 53c5 7d3f adc5 7f3f 88b5 7f3f bd85 7f3f
00000060: a15f 823f 577a 7f3f 1d3f 7f3f 0005 7f3f
00000070: bbce 7e3f 0a17 803f 6585 7e3f 4b91 7f3f
00000080: 4e88 803f 62ab 7f3f b363 7f3f 1bed 803f
00000090: 99a4 7e3f 9608 803f 4625 803f 04d7 7f3f
000000a0: 6317 803f 11e8 7e3f 396a 7c3f 1056 803f
000000b0: b9e5 803f 75a6 803f 54ad 7d3f 5cce 7c3f
000000c0: de5b 7e3f 80c7 7f3f 1550 813f 1759 7e3f
000000d0: b5eb 7f3f 8c36 803f c8b8 7d3f 282f 7f3f
000000e0: 7b2a 7e3f dbca 7c3f fa03 7e3f 5512 803f
000000f0: 3be9 7f3f 338c 803f ae0c 813f 3045 7e3f

actor.network.task_encoder.4.bias f4 [64]
0.0015212941 0.00034012675 0.0041121533 0.0023741983 -0.015176198 0.002275768 -0.006112211 -0.0111286985
-0.0014581563 -0.0077711972 0.0047478625 -0.011983822 0.006827217 -6.4990054e-05 0.0005933671 -0.001612394
0.003881449 -0.005552269 -0.0004874212 -0.004649136 -0.010511528 0.0052365344 -0.0007358943 0.0017011975
-0.004491488 -0.0072148726 -0.0020087867 -0.013442034 -0.0086484905 -0.0037814572 -0.006679081 -0.0062337993
3.5073368e-05 -0.014595775 -0.0046374 0.0028527065 -0.005142746 -0.005245346 -0.0077379765 -0.0012106015
-0.0015648899 -0.008577903 -0.009872415 0.000678909 -0.009053008 -0.004791771 0.0010860522 -0.012831516
0.0029150962 -0.0053597796 0.0017441468 -0.0033287576 0.0016538502 0.001893912 -0.0162768 -0.00062328245
-0.0052011735 -0.012951028 -0.009992368 -0.009866481 -0.018424738 -0.0019249734 0.0043525556 -0.00083392864
00000000: 2966 c73a 0a53 b239 3ebf 863b 7098 1b3b
00000010: 97a5 78bc 0d25 153b f148 c8bb 2555 36bc
00000020: 9b1f bfba 87a5 febb f593 9b3b cb57 44bc
00000030: d9b6 df3b 454b 88b8 318c 1b3a f756 d3ba
00000040: e95f 7e3b cfef b5bb 918c ffb9 c857 98bb
00000050: 8b38 2cbc 3c97 ab3b 08e9 40ba b7fa de3a
00000060: 552d 93bb bd6a ecbb d9a5 03bb fa3b 5cbc
00000070: 66b2 0dbc 53d2 77bb 31dc dabb e644 ccbb
00000080: be1b 1338 1e23 6fbc 55f5 97bb 79f4 3a3b
00000090: 7b84 a8bb 27e1 abbb da8e fdbb 0cad 9eba
000000a0: fe1c cdba 558a 0cbc e9bf 21bc d0f8 313a
000000b0: 1153 14bc 4a04 9dbb dd59 8e3a 473b 52bc
000000c0: 330b 3f3b 17a1 afbb db9b e43a 4927 5abb
000000d0: 01c6 d83a 243d f83a ec56 85bc c763 23ba
000000e0: 9b6e aabb 8c30 54bc 07b7 23bc 05a7 21bc
000000f0: 7aef 96bc 644f fcba e29f 8e3b 019c 5aba

actor.network.task_encoder.4.running_mean f4 [64]
-0.09078018 -0.50941205 0.4435814 -0.3046347 -0.45214587 -0.49112165 -0.7409717 -0.453143
-0.3312084 -0.49917945 0.6621637 -0.15191664 0.38045096 -0.8022928 -0.47018918 0.4318107
0.4301132 -0.14093918 0.0753388 -0.27812058 0.47566885 -0.4305849 0.5442771 -0.14628969
-0.5299198 0.6929363 -0.021939667 -0.559319 0.30062413 -0.57306695 -0.31571797 -0.19642164
-0.12272326 0.3777116 0.17222254 0.48623982 -0.56192964 -0.29887706 -0.5184192 0.5428439
0.38037074 0.50430423 0.17749532 0.003194845 -0.327516 -0.39107782 -0.47058913 0.15746492
-0.49754947 -0.29310182 -0.6627229 -0.4453911 0.44201797 -0.3494129 0.34636587 0.3460723
0.2075579 0.35059825 -0.47284216 -0.46115032 -0.51835364 -0.30960786 -0.44789615 0.22031869
00000000: f6ea b9bd d468 02bf 1a1d e33e 14f9 9bbe
00000010: aa7f e7be 4c74 fbbe 52b0 3dbf 5c02 e8be
00000020: 2694 a9be 7394 ffbe 8f83 293f 0990 1bbe
00000030: 78ca c23e 1063 4dbf a3bc f0be 4b16 dd3e
00000040: cc37 dc3e 5c52 10be 3b4b 9a3d d265 8ebe
00000050: de8a f33e a075 dcbe be55 0b3f f7cc 15be
00000060: d3a8 07bf 4664 313f d1ba b3bc 882f 0fbf
00000070: 68eb 993e 84b4 12bf c9a5 a1be c122 49be
00000080: 5556 fbbd 6a63 c13e 1b5b 303e 6df4 f83e
00000090: 9fda 0fbf 6a06 99be 1fb7 04bf d1f7 0a3f
000000a0: f4bf c23e 151a 013f 55c1 353e 9b60 513b
000000b0: 2db0 a7be 5a3b c8be 0ff1 f0be 7c3e 213e
000000c0: cebe febe 7111 96be 35a8 29bf 4d0a e4be
000000d0: 2e50 e23e 3fe6 b2be de56 b13e 6330 b13e
000000e0: 0f8a 543e 9d81 b33e 5e18 f2be e51b ecbe
000000f0: d3b2 04bf ec84 9ebe a552 e5be 399b 613e

actor.network.task_encoder.4.running_var f4 [64]
0.18456872 0.28003448 0.6811943 0.561071 0.16989377 0.19951072 0.885085 0.5015162
0.21715547 0.26059777 1.0060122 0.23329955 0.15483569 1.7611077 0.61326885 0.87382376
0.3127901 0.11871504 0.15542722 0.08377589 0.21760628 0.17070825 0.42836556 0.16775626
0.21814772 0.23588979 0.22172955 0.14359865 0.07163631 0.39706516 0.18770796 0.36282668
0.4339738 0.12222583 0.18204798 0.71574324 0.36178675 0.42988983 0.69925165 0.30203673
0.14378153 0.92271614 0.06250408 0.59924114 0.08459699 0.053029746 0.14740956 0.17288584
0.72242403 0.17410646 0.32481664 0.2447533 0.543571 0.2647453 0.12315711 0.08285403
0.15886353 0.08871196 0.4476222 0.27415875 0.53658926 0.10914159 0.15633194 0.038985565
00000000: 95ff 3c3e ae60 8f3e c062 2e3f 59a2 0f3f
00000010: a2f8 2d3e 8a4c 4c3e ee94 623f 5e63 003f
00000020: 015e 5e3e 126d 853e 02c5 803f 14e6 6e3e
00000030: 3f8d 1e3e fa6b e13f 30ff 1c3f eab2 5f3f
00000040: 0626 a03e df20 f33d 5028 1f3e b292 ab3d
00000050: 2ed4 5e3e 25ce 2e3e bb52 db3e 4cc8 2b3e
00000060: 1e62 5f3e 188d 713e 120d 633e 860b 133e
00000070: 0fb6 923d 204c cb3e 8436 403e 6bc4 b93e
00000080: d031 de3e 8951 fa3d c96a 3a3e f33a 373f
00000090: 1d3c b93e 851a dc3e 2802 333f 8fa4 9a3e
000000a0: 773b 133e 2037 6c3f 2402 803d de67 193f
000000b0: 3041 ad3d b835 593d 88f2 163e fc08 313e
000000c0: c8f0 383f f748 323e 5e4e a63e 9ca0 7a3e
000000d0: 7827 0b3f b28c 873e cb39 fc3d 60af a93d
000000e0: 1fad 223e 9eae b53d bd2e e53e 895e 8c3e
000000f0: ea5d 093f a085 df3d 7b15 203e 54af 1f3d

actor.network.task_encoder.6.weight f4 [32, 64]
0.106504716 0.098974764 -0.11549752 -0.009923361 -0.0035665806 0.07555892 0.07269506 0.035462998
0.085568376 0.04565928 0.008436531 0.0011183406 0.050642822 0.056954853 -0.012770299 -0.0823094
-0.084596425 -0.07666695 0.09998289 -0.045152266 -0.06622477 -0.022187995 0.03939492 -0.066113785
-0.015423829 -0.03410515 0.029493423 0.0632418 0.07688882 -0.060710553 0.07622761 -0.04022092
0.004120328 0.03134915 0.096179545 -0.12864105 -0.06375632 -0.017507374 -0.0074746693 -0.068804614
-0.013343809 -0.13374016 -0.014318185 -0.11546012 0.121843405 0.06748584 0.06090693 0.03457704
0.046939794 0.094773345 0.05899081 -0.023156105 -0.04362276 0.105714574 -0.0029513286 0.006922193
0.105234675 -0.092340395 0.05170047 0.06247528 -0.056555588 -0.046438303 0.04869168 -0.07978358
0.08712215 0.11695544 -0.1162912 -0.11957784 0.11661266 0.02318585 0.05475217 -0.06338071
-0.021137502 0.008339366 -0.012897959 -0.033644166 0.053051006 -0.021811454 -0.038010817 0.012272069
-0.010016675 -0.03537205 -0.12162232 0.109158054 0.07304251 -0.07954632 0.04815445 0.10582838
-0.10080546 -0.014954408 0.12306689 0.011950695 0.0027126332 0.040588893 -0.046184044 -0.08986604
-0.114077464 0.09376504 -0.0077335807 -0.061423983 -0.033445183 0.089019865 -0.11448894 0.001059699
0.0033350782 -0.039340362 0.060874283 0.073400654 0.096416265 -0.09663047 0.09107438 0.018709745
-0.084709495 -0.016139297 0.0776988 0.07004707 -0.03112031 0.008176668 0.10647341 -0.045535017
-0.12132044 -0.04254156 0.060618844 0.08154021 0.047022734 0.07352334 0.07675108 0.0964032
0.025980806 0.00075967045 0.10286032 -0.10047294 0.014693896 0.0050945985 0.069172405 0.051768854
-0.13712797 -0.09652854 0.015779521 -0.025367329 -0.078254186 -0.10868586 0.06414745 -0.043201555
0.05545084 -0.10357521 0.028861694 0.0145204365 -0.034692146 -0.052128773 0.076086506 -0.07252857
0.055618916 0.08022726 0.05370346 0.018212518 -0.006834587 0.064367 0.049853493 -0.022773078
-0.08150873 0.03123405 0.05651135 -0.028606083 0.09467278 -0.07540419 0.026194798 -0.060650423
-0.027779225 0.05262144 -0.040466305 -0.08299698 -0.059367258 0.048119407 0.020167097 0.02900993
-0.12442178 0.13272205 0.06883538 -0.049867287 0.09563367 -0.010181839 0.049725957 -0.055297535
0.11652723 -0.041039787 -0.03423085 0.043075807 0.031513877 -0.042031042 0.030731091 0.012884841
0.042944934 -0.059178773 0.043271564 0.04782907 -0.091295525 -0.0770761 0.03787742 -0.09415059
0.01475768 -0.08932997 -0.005212894 0.10558161 -0.106794946 -0.11809795 0.008293846 0.07821963
0.08347258 -0.024621315 0.12394012 -0.11231278 0.13099346 -0.1264978 -0.05905138 0.024152271
-0.113538034 0.08204364 0.060297888 -0.0047900006 0.12334472 -0.0027990837 0.10992721 0.07671991
0.10860063 -0.05270032 -0.11164463 0.038426496 -0.12010021 -0.01548332 -0.093482345 0.10556003
0.02210333 -0.08773235 0.017897977 0.011346973 -0.05858253 0.014791539 0.10498629 0.04980943
-0.02445626 -0.068192706 0.032722585 -0.069583 0.038619824 -0.034721028 0.068465576 -0.021203097
-0.066419 0.07626802 -0.015965333 -0.05094174 0.030702109 -0.0611167 -0.0313842 0.11015373
00000000: 251f da3d 48b3 ca3d f789 ecbd 9895 22bc
00000010: 4bbd 69bb a3be 9a3d 26e1 943d a641 113d
00000020: 793e af3d 3a05 3b3d 6039 0a3c 4995 923a
00000030: d96e 4f3d 7e49 693d 843a 51bc d591 a8bd
00000040: e440 adbd 9003 9dbd d4c3 cc3d 95f1 38bd
00000050: daa0 87bd 99c3 b5bc 915c 213d aa66 87bd
00000060: 3ab4 7cbc d7b1 0bbd 319c f13c eb84 813d
00000070: e377 9d3d a1ab 78bd 391d 9c3d b1be 24bd
00000080: d103 873b f767 003d c8f9 c43d 7bba 03be
00000090: ac92 82bd a06b 8fbc 12ee f4bb 6fe9 8cbd
000000a0: fe9f 5abc 2ef3 08be d296 6abc 5b76 ecbd
000000b0: 0989 f93d 0436 8a3d 8c79 793d a7a0 0d3d
000000c0: f143 403d 8718 c23d 59a0 713d dfb1 bdbc
000000d0: c7ad 32bd e280 d83d 146b 41bb 90d3 e23b
000000e0: 4785 d73d f61c bdbd dfc3 533d 14e6 7f3d
000000f0: d5a6 67bd 1736 3ebd ed70 473d 9365 a3bd
00000100: 196d b23d 5586 ef3d 152a eebd 3ae5 f4bd
00000110: 9ed2 ee3d 40f0 bd3c d043 603d bfcd 81bd
00000120: 8e28 adbc d6a1 083c f651 53bc 77ce 09bd
00000130: 034c 593d efad b2bc 3bb1 1bbd ca10 493c
00000140: fb1c 24bc 48e2 10bd 1f15 f9bd 428e df3d
00000150: 5097 953d 2ee9 a2bd 9a3d 453d 8dbc d83d
00000160: 1873 cebd 5503 75bc 7e0a fc3d d9cc 433c
00000170: 6fc6 313b 8a40 263d 7b2b 3dbd b00b b8bd
00000180: 72a1 e9bd e307 c03d fa69 fdbb b797 7bbd
00000190: d1fd 08bd 0c50 b63d 2d79 eabd 99e5 8a3a
000001a0: 5491 5a3b 5c23 21bd 5057 793d 1553 963d
000001b0: e475 c53d 32e6 c5bd 3485 ba3d 2e45 993c
000001c0: 2c7c adbd 8f36 84bc 8c20 9f3d d774 8f3d
000001d0: 05f0 febc 6ef7 053c bb0e da3d ed82 3abd
000001e0: da76 f8bd 0f40 2ebd 774b 783d 8efe a63d
000001f0: e99a 403d 6893 963d ac2f 9d3d 0a6f c53d
00000200: b3d5 d43c 9f24 473a 6ea8 d23d c2c4 cdbd
00000210: abbe 703c 97f0 a63b 43aa 8d3d 940b 543d
00000220: 466b 0cbe c1b0 c5bd 0e44 813c 25cf cfbc
00000230: bb43 a0bd b196 debd bd5f 833d 1df4 30bd
00000240: 6c20 633d 3d1f d4bd 5c6f ec3c 20e7 6d3c
00000250: 5a19 0ebd fb84 55bd 3ed3 9b3d dc89 94bd
00000260: a9d0 633d 314e a43d 29f8 5b3d 6b32 953c
00000270: acf4 dfbb d8d2 833d 2d33 4c3d 9b8e babc
00000280: 0dee a6bd 8dde ff3c 7278 673d 4e57 eabc
00000290: cde3 c13d 836d 9abd 7996 d63c 946c 78bd
000002a0: 4291 e3bc 9489 573d ffbf 25bd 52fa a9bd
000002b0: 152b 73bd db18 453d 7835 a53c 3ca6 ed3c
000002c0: d9d0 febd 4ae8 073e 90f9 8c3d a441 4cbd
000002d0: 96db c33d bad1 26bc 72ad 4b3d ab7f 62bd
000002e0: d4a5 ee3d 5619 28bd a635 0cbd 4270 303d
000002f0: b214 013d be28 2cbd c5bf fb3c f11a 533c
00000300: 07e7 2f3d 7165 72bd 863d 313d 6ae8 433d
00000310: 26f9 babd 13da 9dbd 5b25 1b3d 06d2 c0bd
00000320: 32ca 713c a2f2 b6bd edd0 aabb 2c3b d83d
00000330: 4fb7 dabd 57dd f1bd e9e2 073c 9d31 a03d
00000340: acf3 aa3d a4b2 c9bc 51d4 fd3d 3e04 e6bd
00000350: 2623 063e a488 01be dcdf 71bd fcda c53c
00000360: a186 e8bd 7f06 a83d ebfa 763d 70f5 9cbb
00000370: 289c fc3d d570 37bb 8421 e13d 541f 9d3d
00000380: 026a de3d 4adc 57bd f1a5 e4bd 1a65 1d3d
00000390: 19f7 f5bd c0ad 7dbc ac73 bfbd db2f d83d
000003a0: 0b12 b53c 05ad b3bd c79e 923c a7e8 393c
000003b0: 3cf4 6fbd 3658 723c 0d03 d73d f904 4c3d
000003c0: 7f58 c8bc 9ea8 8bbd 1e08 063d 8881 8ebd
000003d0: d22f 1e3d a337 0ebd ae37 8c3d 1eb2 adbc
000003e0: af06 88bd 6832 9c3d bbc9 82bc 49a8 50bd
000003f0: fd82 fb3c 8155 7abd b88c 00bd 4798 e13d

actor.network.task_encoder.6.bias f4 [32]
0.033979893 -0.012975448 0.0787846 -0.05987642 0.115923636 0.114126086 -0.03252862 0.06245302
-0.022613198 0.0697202 0.08342424 -0.023814863 -0.02728964 -0.057148423 -0.064329565 0.06757189
0.0006307445 0.09717182 0.028521359 -0.118470795 0.05137882 -0.064374566 0.10168661 0.066199675
0.04331214 -0.119109824 0.1217281 -0.100275345 0.0052772793 0.11160305 -0.022434708 -0.021062627
00000000: 802e 0b3d f996 54bc d259 a13d fa40 75bd
00000010: 5f69 ed3d f0ba e93d bb3c 05bd bdce 7f3d
00000020: 503f b9bc 77c9 8e3d 54da aa3d 6317 c3bc
00000030: 868e dfbc 7714 6abd 38bf 83bd 2263 8a3d
00000040: 8c58 253a 0502 c73d a0a5 e93c d1a0 f2bd
00000050: 9972 523d d0d6 83bd 1241 d03d b293 873d
00000060: 1268 313d daef f3bd 954c f93d 295d cdbd
00000070: 07ed ac3b 2490 e43d fec8 b7bc 888b acbc

actor.network.vm_encoder.0.weight f4 [64, 10]
0.29448116 -0.038379118 -0.24811298 0.2391813 0.27508906 -0.23929423 -0.20540293 0.078818105
0.20450516 0.21676165 0.22435714 0.020684803 0.18351713 -0.065752745 0.2430993 -0.0032364784
0.06941654 -0.20034048 -0.054105204 -0.22567615 -0.09053774 0.010397515 0.19757137 0.025718395
-0.018640356 0.17150533 -0.19946647 -0.23007074 0.15262704 -0.30925852 -0.28013307 -0.2824473
0.24842548 -0.00042991605 0.2266244 -0.07448645 0.26716867 -0.1593761 0.22916488 0.24712896
-0.18213028 0.044612817 -0.16974364 -0.11973572 0.07545843 0.2761983 -0.01988088 -0.31187925
-0.27215138 0.09279813 -0.26700017 -0.14179935 0.033768304 -0.23589683 -0.17244259 -0.13057223
-0.16847558 0.260054 -0.22674887 -0.039719995 -0.1393407 0.0702855 0.3081497 0.05282071
-0.026194634 -0.27349302 -0.05506806 -0.09516158 -0.23098877 0.17811042 0.16403298 -0.2799475
0.26041427 0.053924654 -0.27351612 -0.16895573 0.0012446963 0.022443395 0.17605335 -0.29652965
0.2897745 0.06597334 0.2326279 -0.047908366 -0.024088718 -0.24263671 -0.07349163 0.08509416
-0.12666117 -0.07873781 0.12230849 0.2217423 0.29211396 -0.1983355 -0.044479348 -0.08648327
-0.28549397 0.13352442 0.17404419 0.08914899 0.11872339 -0.094029024 -0.14524598 0.10841834
-0.110293895 -0.121862546 0.21030477 -0.2622516 -0.043376748 0.009497458 0.3127174 -0.13386367
0.22221427 -0.11789113 0.07710836 0.0057957624 -0.30146977 -0.012216252 -0.19465198 0.061221413
-0.14319485 -0.28765956 -0.2127708 -0.044559497 0.0409942 -0.088186875 0.25396734 -0.2632302
0.30985343 -0.021234129 -0.26970986 -0.07516598 0.2422125 0.30033833 -0.2829232 -0.07048189
0.08402357 0.25260735 -0.056451127 -0.29079467 0.0077714534 0.30337152 -0.20475347 0.2024389
0.2630246 -0.07736275 0.3157118 0.04343893 -0.15908313 0.18729724 -0.2556081 0.21102592
-0.0052995435 0.22286789 -0.22816761 -0.15256737 0.2578407 0.23779488 0.2921364 -0.027195323
0.058569588 -0.13442878 0.16416794 -0.23004162 0.12861182 -0.07697842 0.059121374 -0.1304041
-0.26183704 -0.1860589 -0.21588321 0.23945656 0.092837915 0.17773174 -0.04088006 -0.13645089
-0.24676946 0.30552593 -0.25069854 -0.032488056 -0.1701837 -0.29077128 -0.2059175 -0.18548247
0.07762654 0.17299226 0.018315667 -0.038412914 0.13873924 0.054261412 0.052421123 0.18855532
0.27874872 -0.011899317 -0.26991686 -0.24618454 -0.19191 -0.21562536 -0.08562606 0.28435048
-0.24086511 -0.026432622 0.2541269 -0.113699555 -0.24436332 0.08838447 0.27967322 -0.1872403
0.09280334 -0.068929076 -0.022552965 -0.14873454 0.11954706 -0.19237515 -0.2384932 0.16417621
-0.22288826 0.058512095 -0.09198045 -0.20996448 0.06953633 0.29832432 -0.19323215 0.100414
0.19002979 0.2868153 0.07788816 -0.14552446 -0.1112105 -0.2830007 -0.29639447 0.2660539
0.109242395 0.10556378 0.15098608 -0.16560143 0.3055192 0.050321426 0.2058387 0.10456904
0.0479891 -0.044839226 -0.31882155 0.24638835 0.19345337 0.3133601 -0.0040130806 0.1147198
0.17797843 0.016830273 -0.25907692 0.29219505 0.23441237 -0.012539489 0.26810414 -0.116273664
00000000: 3cc6 963e 6c33 1dbd 5411 7ebe f1eb 743e
00000010: 79d8 8c3e 8c09 75be 2555 52be 636b a13d
00000020: cd69 513e c4f6 5d3e e1bd 653e 2d73 a93c
00000030: eaeb 3b3e 60a9 86bd 06ef 783e 191b 54bb
00000040: 422a 8e3d 0e26 4dbe 6b9d 5dbd a617 67be
00000050: da6b b9bd 575a 2a3c 2650 4a3e 62af d23c
00000060: a9b3 98bc 189f 2f3e f040 4cbe aa97 6bbe
00000070: 434a 1c3e 2257 9ebe 9a6d 8fbe ef9c 90be
00000080: 4063 7e3e 5b66 e1b9 3a10 683e 5a8c 98bd
00000090: 55ca 883e 7d33 23be 33aa 6a3e 600f 7d3e
000000a0: 5c80 3abe eebb 363d 47d1 2dbe 0038 f5bd
000000b0: f389 9a3d dd69 8d3e 3add a2bc a3ae 9fbe
000000c0: 6d57 8bbe f20c be3d 3fb4 88be d933 11be
000000d0: a250 0a3d f08e 71be ca94 30be bab4 05be
000000e0: dd84 2cbe cc25 853e db30 68be 6fb1 22bd
000000f0: 54af 0ebe d8f1 8f3d ccc5 9d3e 875a 583d
00000100: 2196 d6bc 4707 8cbe 0c8f 61bd 13e4 c2bd
00000110: 5288 6cbe 9462 363e 43f8 273e 4755 8fbe
00000120: 0555 853e 19e0 5c3d 4e0a 8cbe bb02 2dbe
00000130: 1425 a33a 36db b73c 5447 343e bcd2 97be
00000140: 535d 943e 081d 873d 0236 6e3e 903b 44bd
00000150: b455 c5bc c275 78be c882 96bd d945 ae3d
00000160: 77b3 01be 4a41 a1bd e07c fa3d 6a10 633e
00000170: f68f 953e 7618 4bbe fa2f 36bd 241e b1bd
00000180: 442c 92be a0ba 083e a438 323e bf93 b63d
00000190: 4025 f33d 4a92 c0bd 5dbb 14be 6f0a de3d
000001a0: c4e1 e1bd 1293 f9bd 225a 573e d745 86be
000001b0: d1ab 31bd 3a9b 1b3c 7f1c a03e 8f13 09be
000001c0: 238c 633e e870 f1bd fdea 9d3d 61ea bd3b
000001d0: 3f5a 9abe ad26 48bc d952 47be 4ec3 7a3d
000001e0: aca1 12be 1d48 93be 97e0 59be 0584 36bd
000001f0: 89e9 273d 529b b4bd 0208 823e 1cc6 86be
00000200: 1ca5 9e3e 32f3 adbc 6917 8abe 9ff0 99bd
00000210: 8e06 783e f2c5 993e 4fdb 90be cf58 90bd
00000220: 8d14 ac3d c055 813e 4c39 67bd 0ae3 94be
00000230: ada7 fe3b 8353 9b3e e5aa 51be 254c 4f3e
00000240: 29ab 863e 5d70 9ebd faa4 a13e 05ed 313d
00000250: b0e6 22be d9ca 3f3e 11df 82be 2e17 583e
00000260: cba7 adbb 7b37 643e c5a4 69be 9f3a 1cbe
00000270: b203 843e 8080 733e e792 953e bac8 debc
00000280: aae6 6f3d b3a7 09be a41b 283e 0890 6bbe
00000290: d1b2 033e dda6 9dbd 4129 723d a788 05be
000002a0: 810f 86be 3986 3ebe 7d10 5dbe 1a34 753e
000002b0: ce21 be3d 4fff 353e da71 27bd c8b9 0bbe
000002c0: 22b1 7cbe e56d 9c3e 8f5b 80be 3212 05bd
000002d0: a344 2ebe f9df 94be 0adc 52be 1eef 3dbe
000002e0: aafa 9e3d e224 313e bd0a 963c dc56 1dbd
000002f0: a911 0e3e 3741 5e3d 88b7 563d a514 413e
00000300: 27b8 8e3e 5af5 42bc 8b32 8abe cd17 7cbe
00000310: 0e84 44be e5cc 5cbe b75c afbd 6396 913e
00000320: 58a5 76be 3a89 d8bc ec1c 823e 50db e8bd
00000330: 613a 7abe eb02 b53d 5431 8f3e ecbb 3fbe
00000340: ad0f be3d b02a 8dbd ffc0 b8bc de4d 18be
00000350: 17d5 f43d fefd 44be 9037 74be cf1d 283e
00000360: d23c 64be 61aa 6f3d 3f60 bcbd ee00 57be
00000370: 1069 8e3d f7bd 983e a6de 45be dba5 cd3d
00000380: 2b97 423e 74d9 923e d483 9f3d 5d04 15be
00000390: 55c2 e3bd 78e5 90be 04c1 97be 3738 883e
000003a0: 7aba df3d d331 d83d 189c 1a3e 6c93 29be
000003b0: 036d 9c3e d71d 4e3d 61c7 523e 4b28 d63d
000003c0: 3890 443d 56a9 37bd 943c a3be 3a4d 7c3e
000003d0: a418 463e bc70 a03e 2980 83bb 37f2 ea3d
000003e0: fa3f 363e a4df 893c bba5 84be 979a 953e
000003f0: cc09 703e 6e72 4dbc f244 893e e320 eebd

actor.network.vm_encoder.0.bias f4 [64]
-0.20583695 -0.15009099 0.27775314 -0.1814105 -0.08051948 -0.103258334 0.11311874 0.2802762
-0.08727778 -0.29395467 -0.31290618 -0.21635303 0.13429055 0.070362024 -0.16846126 -0.16382216
0.05203006 -0.31520405 0.21894683 -0.091530934 -0.21075357 -0.06289367 0.15388183 0.20559557
-0.2486283 0.25199464 0.23574628 -0.23699541 0.14661753 0.15250407 -0.085271 -0.0141136
-0.16035743 -0.033362035 -0.30631736 0.19472669 0.31234536 0.21966673 -0.12609588 -0.20674278
0.051408846 0.28605872 -0.24722178 -0.26188815 -0.21064961 0.16580793 0.009867453 0.020945894
0.24709901 -0.13040027 -0.22349565 -0.1414184 -0.02893655 -0.17003037 -0.026523283 0.07911289
0.30062836 0.01942511 0.101113886 0.22465536 0.066032305 0.28981385 0.26338062 0.2983721
00000000: ecc6 52be 74b1 19be a935 8e3e adc3 39be
00000010: 66e7 a4bd 1b79 d3bd ccaa e73d 5d80 8f3e
00000020: b1be b2bd 3a81 96be 3d35 a0be a68b 5dbe
00000030: 7683 093e f719 903d 1c81 2cbe ffc0 27be
00000040: 791d 553d 6d62 a1be 9933 603e 9274 bbbd
00000050: c9cf 57be 65ce 80bd 3393 1d3e a587 523e
00000060: 6b98 7ebe 7105 813e 7967 713e edae 72be
00000070: e822 163e 072a 1c3e 90a2 aebd bb3c 67bc
00000080: bd34 24be a1a6 08bd a1d5 9cbe 6f66 473e
00000090: bbeb 9f3e 51f0 603e 471f 01be 61b4 53be
000000a0: 1592 523d 4a76 923e b527 7dbe 3416 86be
000000b0: 88b4 57be 8ec9 293e 19ab 213c b996 ab3c
000000c0: 8607 7d3e a687 05be 0bdc 64be fccf 10be
000000d0: 580c edbc 711c 2ebe 5b47 d9bc f005 a23d
000000e0: f6eb 993e 6921 9f3c cc14 cf3d 0e0c 663e
000000f0: f23b 873d 7b62 943e d3d9 863e 3ac4 983e

actor.network.vm_encoder.1.weight f4 [64]
1.0027155 1.0020806 0.99903023 0.99412227 1.0156103 1.0095198 1.0014408 0.9900577
0.99584407 0.98565847 1.0012974 0.98623383 1.0101907 0.991442 1.0241565 1.0172485
0.99127066 1.010872 0.9887055 1.007744 0.99747014 0.99996346 1.0086256 0.99124783
0.9855181 0.99532646 0.9893092 1.0113465 0.9919369 0.9909408 0.9798676 1.005412
0.9984889 1.0107329 0.98982394 1.0032723 1.00276 0.9984185 1.0026699 0.9969764
1.0107766 0.99784946 1.0000772 0.98793393 0.99309206 0.98626935 1.0226705 0.9966125
0.9993966 1.0094997 1.0102208 1.0021421 0.9940223 1.0081959 0.99832916 0.99335116
0.98899704 1.0008429 0.99527264 0.9957687 1.0031381 0.9884959 1.0073231 0.98975474
00000000: fb58 803f 2d44 803f 72c0 7f3f cc7e 7e3f
00000010: 85ff 813f f237 813f 362f 803f 6c74 7d3f
00000020: a3ef 7e3f 1d54 7c3f 832a 803f d279 7c3f
00000030: ee4d 813f 25cf 7d3f 8f17 833f 3335 823f
00000040: eac3 7d3f 4164 813f ce1b 7d3f c1fd 803f
00000050: 345a 7f3f 9bfd 7f3f a51a 813f 6bc2 7d3f
00000060: ea4a 7c3f b7cd 7e3f 5e43 7d3f cd73 813f
00000070: 94ef 7d3f 4cae 7d3f 9ad8 7a3f 57b1 803f
00000080: f89c 7f3f b25f 813f 1a65 7d3f 3a6b 803f
00000090: 715a 803f 5b98 7f3f 7d57 803f d839 7f3f
000000a0: 2161 813f 1073 7f3f 8802 803f 3de9 7c3f
000000b0: 483b 7e3f 267c 7c3f dee6 823f ff21 7f3f
000000c0: 75d8 7f3f 4937 813f ea4e 813f 3146 803f
000000d0: 3f78 7e3f 900c 813f 8092 7f3f 434c 7e3f
000000e0: e92e 7d3f 9f1b 803f 30ca 7e3f b3ea 7e3f
000000f0: d466 803f 110e 7d3f f7ef 803f 9160 7d3f

actor.network.vm_encoder.1.bias f4 [64]
0.005095124 0.0040912847 -0.00056859106 -0.00056114903 0.011758545 0.005334371 0.0054125036 -0.0044890875
-0.0040022824 -0.0074059167 0.0023655922 -0.0075789643 0.008892374 -0.009084999 0.023004362 0.010732096
-0.0011585483 0.01911542 -0.012162484 0.0113656 -0.0048427153 -0.0015153895 0.009430192 -0.008076674
-0.015866926 -0.0065578185 -0.008205879 0.006137904 -0.004056401 -0.0017141508 -0.011516066 0.013197996
0.0038610462 -0.019944124 -0.011393503 -0.0016823205 0.0058572907 0.000692302 0.010457046 -0.008997748
0.011541216 -0.0005722893 0.0020615275 -0.0146573195 -0.010011923 -0.012950279 -0.0020865053 -0.00035462884
0.0065866257 -0.0205571 0.009841415 0.005362535 -0.011944199 0.006572898 -0.007332908 -0.00031482393
-0.018992107 0.0061168023 -0.003517075 -0.0039968253 0.0044613937 -0.015712999 0.00274997 -0.011894413
00000000: fff4 a63b 2f10 863b 800d 15ba 131a 13ba
00000010: eaa6 403c f2cb ae3b 5f5b b13b 3219 93bb
00000020: 9425 83bb 55ad f2bb 0d08 1b3b f658 f8bb
00000030: 52b1 113c 3fd9 14bc a573 bc3c acd5 2f3c
00000040: 6eda 97ba f197 9c3c 2845 47bc c836 3a3c
00000050: a4af 9ebb 09a0 c6ba 1881 1a3c 0754 04bc
00000060: 5bfb 81bc f8e2 d6bb f371 06bc 7820 c93b
00000070: 8feb 84bb 5bad e0ba e2ad 3cbc 683c 583c
00000080: 9b09 7d3b dc61 a3bc d1ab 3abc 4f81 dcba
00000090: 84ee bf3b 9a7b 353a 0854 2b3c 4a6b 13bc
000000a0: 5e17 3d3c af05 16ba b11a 073b 4125 70bc
000000b0: 0c09 24bc 682d 54bc c0bd 08bb 7aed b9b9
000000c0: 9fd4 d73b 5d67 a8bc e33d 213c 34b8 af3b
000000d0: 9ab1 43bc 7761 d73b e448 f0bb f40e a5b9
000000e0: 5695 9bbc 756f c83b ba7e 66bb cdf7 82bb
000000f0: e230 923b 8cb8 80bc d738 343b c9e0 42bc

actor.network.vm_encoder.1.running_mean f4 [64]
-135.23044 187.30142 172.92766 251.89842 -155.24338 -35.175457 272.04068 192.5086
190.87666 215.518 -126.89497 186.1396 -185.16649 213.80334 -104.76817 -4.834151
126.689545 101.6548 -195.81673 197.61966 164.87263 35.85594 -122.38118 136.17804
-208.22871 243.90913 -106.229744 -164.0036 -69.11195 131.22824 15.847618 217.71194
130.41635 3.7419188 -129.26787 -4.850722 -340.5702 124.71312 120.52363 -9.253837
135.61949 8.238228 115.53377 -20.045538 -59.229336 -167.91447 14.314698 240.99895
160.84416 26.004555 -11.110567 -173.25868 -141.16203 152.41515 -161.9717 6.7715487
-107.2916 308.00006 5.7296414 -28.10308 -16.062122 206.2274 -114.308624 -209.67113
00000000: fe3a 07c3 2a4d 3b43 7bed 2c43 ffe5 7b43
00000010: 4e3e 1bc3 abb3 0cc2 3505 8843 3482 4043
00000020: 6de0 3e43 9c84 5743 3aca fdc2 bd23 3a43
00000030: 9f2a 39c3 a8cd 5543 4e89 d1c2 5db1 9ac0
00000040: 0c61 fd42 424f cb42 15d1 43c3 a29e 4543
00000050: 65df 2443 7c6c 0f42 2ac3 f4c2 942d 0843
00000060: 8d3a 50c3 bde8 7343 a175 d4c2 ec00 24c3
00000070: 5239 8ac2 6e3a 0343 d88f 7d41 42b6 5943
00000080: 966a 0243 997b 6f40 9344 01c3 1d39 9bc0
00000090: fc48 aac3 1e6d f942 190c f142 b70f 14c1
000000a0: 979e 0743 c8cf 0341 4a11 e742 435d a0c1
000000b0: d7ea 6cc2 1bea 27c3 0109 6541 bbff 7043
000000c0: 1bd8 2043 5409 d041 e2c4 31c1 3942 2dc3
000000d0: 7b29 0dc3 476a 1843 c1f8 21c3 87b0 d840
000000e0: 4d95 d6c2 0200 9a43 3959 b740 1cd3 e0c1
000000f0: 3a7f 80c1 373a 4e43 049e e4c2 cfab 51c3

actor.network.vm_encoder.1.running_var f4 [64]
19552.969 17867.137 17996.814 32444.873 13742.675 85.897705 44016.42 26944.775
23525.646 34079.645 9710.18 21975.98 20817.275 27124.738 12957.061 16.798687
11091.835 4981.417 21062.336 30044.074 23146.084 3402.2224 13239.505 7713.812
36745.78 29760.504 7678.888 13668.007 2252.1118 11810.58 1287.2424 25693.805
8677.859 3.0378842 12233.859 641.4889 58410.098 5728.791 11016.969 191.25468
5825.651 1511.2852 12283.103 1099.8246 5993.4375 14491.373 1045.5968 31324.12
16562.99 65.34949 104.44408 22204.592 11249.73 16032.209 13524.916 48.47312
2653.2131 41346.36 78.35554 791.0851 784.8381 15634.585 6563.378 28701.295
00000000: f0c1 9846 4696 8b46 a199 8c46 bf79 fd46
00000010: b3ba 5646 a0cb ab42 6cf0 2b47 8d81 d246
00000020: 4bcb b746 a51f 0547 b8b8 1746 f6af ab46
00000030: 8da2 a246 7ae9 d346 3e74 4a46 b663 8641
00000040: 574f 2d46 56ab 9b45 ac8c a446 26b8 ea46
00000050: 2bd4 b446 8fa3 5445 05de 4e46 7f0e f145
00000060: c889 0f47 0281 e846 1bf7 ef45 0790 5546
00000070: cac1 0c45 528a 3846 c2e7 a044 9cbb c846
00000080: 7097 0746 b26c 4240 7027 3f46 4a5f 2044
00000090: 192a 6447 5406 b345 e023 2c46 3341 3f43
000000a0: 350d b645 20e9 bc44 69ec 3f46 637a 8944
000000b0: 804b bb45 7e6d 6246 19b3 8244 3db8 f446
000000c0: fb65 8146 f0b2 8242 5ee3 d042 2f79 ad46
000000d0: ecc6 2f46 d680 7a46 aa53 5346 7ae4 4142
000000e0: 69d3 2545 5c82 2147 09b6 9c42 72c5 4544
000000f0: a335 4444 574a 7446 061b cd45 973a e046
