logs/longcp_not_aligned/ablation/per_variant/hetero/hetero_best.pt (torch, 286379 bytes, 90 tensors)

actor.network.task_encoder.0.weight f4 [64, 6]
00000000: 2b81 c93e e6bb 9e3e 749c cd3e d826 02bd
00000010: a934 aebe 416e 86be 0e36 debd 6104 603d
00000020: f585 07be d6e6 70be d259 0abd 89d4 833e
00000030: 7e9e ad3e b1b5 4ebe e2d5 6fbe 2257 99bc
00000040: 6c20 383e 6822 3b3e 7650 1bbe 3544 103e
00000050: f729 99bd 039e 46bd ff14 a9be 50bb 953e
00000060: db28 93be 7329 d03d e8c1 51be 0148 b0be
00000070: 9a14 d4bc 0bb7 0a3e 28b4 bfbe 3cf2 f53c
00000080: 9f55 1dbe d553 6ebd 297a 3abe 5051 50bd
00000090: c333 bc3e ec07 c9be e4b7 44be 56a4 b13e
000000a0: 15d0 b1bc 17b5 adbd d69c 0c3e ad64 30be
000000b0: 0929 2b3e e125 81be a879 fbbd 0cf9 9f3e
000000c0: dd90 213d 902d a5be e1bc 7b3e 00d9 8abe
000000d0: 0388 dabc 6386 9aba fc94 39be 0ed3 3b3e
000000e0: 9b6c 14bd ac05 643e a1fe 533e 827a a3be
000000f0: 6c2d 9c3e 608f 263c 18fc a43e 800c 823e
00000100: 3af9 f5bd 5889 a5bd c4b2 18be 64de 45be
00000110: 280f a23e f3ed c23e 10a9 383e a9c6 bb3e
00000120: b356 0e3e 62ce 833d 98c8 25be 1809 c33e
00000130: 3f42 95be a665 9a3e 2f5c 6bbd 19ca 1ebe
00000140: 1305 ccba 48ed 803e 84bd bbbe d705 a2be
00000150: 1ce7 9dbd d910 cfbe a44c f73c 5eef 94be
00000160: 425e bdbe 09cd 29be f025 60be 364e 11bb
00000170: b906 8c3e f5bd cbbd 5f25 a63d 50d7 3c3e
00000180: 8463 df3d a806 9e3c 5fe0 803d e56f 753e
00000190: 725f bcbe d277 26be af93 b83e f7e7 dabd
000001a0: b3b3 843e 1be7 a6be 4495 ba3d 5d90 43bc
000001b0: ad41 c3be dff1 bb3d f405 6fbd 50c1 cabe
000001c0: a49d 01be 8236 ac3e 2c3a a83d 2294 7fbe
000001d0: 664f 57be f2c3 3ebe df9a 58be 566f 9d3d
000001e0: cf28 44be 5685 943e 283f 603e 5720 993e
000001f0: d968 ed3b 6fde bc3e 3b2e afbe dc7c 61be
00000200: 235a 6dbe 585e 433e 9dc8 c6be 4f16 46be
00000210: f56a 263e 19b0 c33e 04f0 873e b2a6 2c3e
00000220: 79b6 93be 9fc4 fd3d 951f 17be 5c4d c83c
00000230: 885a 6dbd 2f4b c33e 4255 883e b5f8 2e3d
00000240: 1847 cbbe 1797 a33e 124e 8f3e 3fe7 0d3e
00000250: 9cc3 cebe 99e1 8abe 4415 5c3e f22d c4be
00000260: 8525 323e 7860 413d 0b08 bf3e 6d1f 0f3e
00000270: d124 5d3e b1d3 063e 9c39 45be 1d03 63be
00000280: d8ad cabe 5d79 82bd ad5a de3b 7a2c 07be
00000290: 3257 e73d 948a 923e 4139 063d c163 22be
000002a0: 87a1 b5be dcc4 57be 6dbb 003e d8d9 c2be
000002b0: 50b5 cfbe 72c0 b53c aae2 303c 52e6 a4be
000002c0: bbdf c13d 6e53 363e 0990 a2be 3945 78bd
000002d0: 15d0 773e bb71 ba3e a42a 92be 3a94 60be
000002e0: bed4 6cbe d1ce 54be 2c8d 86be 286f a13e
000002f0: c29a 1ebc edd8 9fbe 98f1 93be 4ab6 b1be
00000300: 7f04 c5be 9416 c33c 2476 263d ab83 6f3e
00000310: 2abd ac3e 9d65 933e 7bde b53e fd02 22be
00000320: e47c 9dbe 67a0 1abd c908 b4bd a1e3 9ebc
00000330: c4c8 1f3c 7e09 6bbe d480 b2be 48f8 2bbe
00000340: 6400 9d3d d31f 563e 50b7 bbbe 965d bbbe
00000350: 0440 d6bc e347 1fbe 6f3d 2bbe 1026 cabe
00000360: 183b 3c3e 8d9a 8dbd 09ec a43e e23e 86be
00000370: 40b8 bdbe 1b8b adbb be3b c33d 115b 713e
00000380: c9a0 51bd bcd0 a03e 5295 65be b212 b1be
00000390: 488f 4ebe 4b3b 26be d90f 133e 1247 a73e
000003a0: 4cff c33e 87e2 46be 7187 c5bd 5eb2 87bd
000003b0: 6c3e 193e c3d8 00be 2cc7 14be 7c37 913d
000003c0: 3e39 85be d822 b33e 3cdd b5be 38a8 b8be
000003d0: f386 b5bc 6aa9 93be 11fd 46be 6207 763e
000003e0: 9aa1 953b 9d9c 17bd e88d bfbe 0182 08be
000003f0: c27f 0abe b3fc 993e fa97 233e ae6d 18bd
0.3935636 0.3100273 0.40158427 -0.031775326 -0.34024552 -0.26255992 -0.10850154 0.054691676
-0.13234694 -0.23525557 -0.033777066 0.2574809 0.33909982 -0.20186497 -0.23421434 -0.018718306
0.17981118 0.18274844 -0.15167412 0.14088519 -0.07478707 -0.048490535 -0.3302383 0.2924447
-0.28742108 0.10164156 -0.20484126 -0.34429935 -0.02588873 0.13546388 -0.37442136 0.030022733
-0.15364693 -0.058185417 -0.18210663 -0.050858796 0.3675824 -0.39263856 -0.19210774 0.3469569
-0.021705667 -0.08481806 0.13731703 -0.17225905 0.16714872 -0.25224212 -0.122790635 0.31244695
0.039444793 -0.32261324 0.2458377 -0.27118683 -0.026676184 -0.0011789318 -0.1812324 0.1834223
-0.036236387 0.22267789 0.20702602 -0.31929404 0.30503404 0.010166019 0.32223582 0.25400162
-0.12010427 -0.08082837 -0.14911944 -0.19323117 0.31652188 0.38072166 0.18033242 0.36675003
0.1390026 0.06435849 -0.16189802 0.38092875 -0.29152104 0.30155677 -0.05746096 -0.15506782
-0.0015565477 0.2518103 -0.36668026 -0.3164508 -0.07710096 -0.4044254 0.030187912 -0.29088873
-0.36985976 -0.16582121 -0.21889472 -0.0022171861 0.2734888 -0.09948341 0.08112597 0.1844151
0.10907653 0.019290283 0.062927954 0.23968466 -0.3679157 -0.16256645 0.36050174 -0.10688775
0.2591835 -0.32598194 0.091105014 -0.011936274 -0.38136044 0.091769926 -0.058355287 -0.3960061
-0.12657791 0.33635336 0.082142204 -0.24958852 -0.21026382 -0.18629435 -0.21152829 0.07687251
-0.19156192 0.29007977 0.21899092 0.29907486 0.007245165 0.36888453 -0.3421496 -0.22020286
-0.23178916 0.19078958 -0.3882493 -0.19344448 0.16251738 0.3822029 0.26550305 0.16860464
-0.28850153 0.12391018 -0.14758141 0.02445095 -0.057947665 0.38143298 0.26627547 0.042717654
-0.39702678 0.3195121 0.2798925 0.13857745 -0.40383613 -0.27125242 0.21492487 -0.38316303
0.17397125 0.04721114 0.37310824 0.13976832 0.21596076 0.13166691 -0.19260257 -0.22169156
-0.39585757 -0.063708045 0.0067857117 -0.1320056 0.11295928 0.28621352 0.032769445 -0.15858366
-0.35474798 -0.2107119 0.12571497 -0.38056827 -0.40568018 0.022186492 0.010796228 -0.3220697
0.09466501 0.17805263 -0.31750515 -0.06061289 0.24200471 0.36414894 -0.28548157 -0.21931544
-0.2312803 -0.20782019 -0.2627958 0.31530118 -0.009680452 -0.3122019 -0.2889526 -0.34709388
-0.38479993 0.023814477 0.04064001 0.23390071 0.3373807 0.28788462 0.35521302 -0.15821452
-0.30759346 -0.037750628 -0.08790738 -0.019395651 0.009752456 -0.2295284 -0.34863913 -0.1679393
0.0766609 0.20910577 -0.36663294 -0.36594838 -0.026153572 -0.15554766 -0.16722654 -0.39482164
0.18381917 -0.06914244 0.3221133 -0.2621985 -0.37054634 -0.0052961237 0.09532879 0.23569895
-0.051178727 0.31409252 -0.22420242 -0.34584576 -0.20171845 -0.16233556 0.14361514 0.3267141
0.38280714 -0.19422351 -0.09644974 -0.06625818 0.14965218 -0.12582688 -0.14529103 0.07090661
-0.26020235 0.3498752 -0.3552035 -0.3606584 -0.022159075 -0.2884019 -0.19432475 0.24026254
0.0045663835 -0.037014592 -0.37412953 -0.13330843 -0.13525298 0.30075607 0.15975943 -0.037213974

actor.network.task_encoder.0.bias f4 [64]
00000000: bdc3 2fbe e644 8b3e ba8a b4be 478c 153e
00000010: 7019 acbe 2c0f 083e 7e06 49be 96ff 953e
00000020: 6a42 a0be c2e3 cf3e 7db6 bf3e a40d 1a3e
00000030: ab33 c93e cffd c7be 0cd1 81bc 9a07 aabe
00000040: d1b0 843e 663c 35bd 8760 753e 329b aabd
00000050: 7279 303e e4a3 a33e 5a1a 92be 7d86 bf3e
00000060: c7ef ccbe efce febc 63ec c5bd 5601 fcbd
00000070: 2d4f cf3e f3bd 82be b9b0 7e3c a362 af3c
00000080: bd07 143e 62bc bfbd 7240 a03e de53 c13e
00000090: 22cd 72be 3e42 febd 0d97 94be f1a7 733e
000000a0: 69ac c1be 09e7 0bbe 6ec8 42be 22f4 363d
000000b0: f4db 0abe 1f4a a03e b298 fc3d 1e93 b93d
000000c0: 6108 7c3e c03b 14bd 26e3 bc3d 98ea 43be
000000d0: c317 303e 3f99 00be 50df 9d3e e91e 33be
000000e0: c5ab 89bd cb3e b7be 1f2d 7c3e 9627 80be
000000f0: 051e bb3e a2fe fb3d 4080 bdbc 07b0 1cbe
-0.17164512 0.27201003 -0.3526209 0.14604293 -0.33613157 0.13287038 -0.19631383 0.2929656
-0.3130067 0.40603453 0.37443915 0.15044266 0.39297232 -0.39060828 -0.015846752 -0.33208925
0.2591615 -0.044247054 0.23962604 -0.083303824 0.17233828 0.31960976 -0.2853573 0.37407294
-0.40026686 -0.031104533 -0.09664228 -0.12304942 0.40490094 -0.25535545 0.015545064 0.021409338
0.14456077 -0.09362103 0.31299168 0.37759298 -0.23711064 -0.124149784 -0.29021493 0.23794533
-0.3782685 -0.13662352 -0.1902177 0.044666417 -0.13560468 0.3130655 0.12333812 0.090612635
0.24612571 -0.036189795 0.092230126 -0.19132459 0.17196564 -0.12558459 0.30834436 -0.1749226
-0.067222156 -0.35790095 0.24626587 -0.25030202 0.3654634 0.12304427 -0.023132443 -0.15301524

actor.network.task_encoder.1.weight f4 [64]
00000000: 6435 803f caf7 803f 36e0 7e3f fa2d 7a3f
00000010: b375 813f 342b 7e3f b345 803f 249e 7d3f
00000020: 8daf 813f 878d 7e3f 459a 7c3f df90 803f
00000030: d545 803f 03a4 7c3f 43f5 813f 8df0 813f
00000040: 34f4 803f b8f6 803f fa36 813f 0601 7d3f
00000050: 35b0 7f3f 7608 823f 4d83 813f 141d 813f
00000060: eb0c 803f 35c8 813f c6a3 7c3f ad19 7e3f
00000070: b926 833f 0b9b 7a3f f2d6 7f3f d8d6 7e3f
00000080: 654d 7d3f 1582 7e3f 2f07 7d3f e5b4 803f
00000090: 7f4e 803f 35b1 7d3f 01f5 813f ba2f 803f
000000a0: 12a1 7f3f cee3 7a3f 0501 7c3f cc69 813f
000000b0: c476 803f 5dc5 813f 874e 773f 0b9e 7d3f
000000c0: 3dfe 7e3f 1d59 803f 6db9 7d3f be2e 823f
000000d0: 466c 833f 0f54 7f3f ebb8 803f c7f7 813f
000000e0: 5d45 803f 5515 7c3f db7c 7f3f 649c 823f
000000f0: 99c4 7f3f 3067 833f 6de2 7f3f f000 803f
1.0016294 1.0075619 0.9956087 0.97726405 1.0114044 0.9928467 1.002127 0.9906943
1.0131699 0.99434704 0.98672897 1.0044211 1.0021311 0.9868776 1.0152973 1.0151535
1.0074525 1.0075293 1.0094903 0.98829687 0.99878246 1.0158832 1.0118195 1.0086999
1.0003942 1.0139223 0.986874 0.9925793 1.0246192 0.97892827 0.99937356 0.99546576
0.9894622 0.9941724 0.98839086 1.0055205 1.0023955 0.9909852 1.0152894 1.0014565
0.9985515 0.9800385 0.98439056 1.0110412 1.0036244 1.0138355 0.966042 0.9906928
0.99606687 1.0027195 0.9911106 1.0170515 1.0267417 0.9973764 1.0056432 1.0153741
1.0021168 0.9847005 0.9979989 1.0203977 0.9990936 1.0265865 0.99954873 1.0000286

actor.network.task_encoder.1.bias f4 [64]
00000000: 7c63 08bc 3820 efbc 2ba6 dfbb b9f7 f3bc
00000010: e63e 9d3b f31f 163d adf1 dbbb 62a2 65bc
00000020: ee5f 483d 7fe2 f63b a7ec 1bbc 3ab7 56bc
00000030: 3ce1 26ba 6b1d 653c a586 fcba 6395 3f3b
00000040: 3949 2cbc 4f3c b23c ce31 fa3b c6b0 dbbc
00000050: 9ad4 50bb 373e e3bc e100 5ebb c127 92bc
00000060: d285 73bc 1961 953b 452b 5abc fc98 a8bb
00000070: 88bd 613c 4ef5 2abd 275b adbb 547f 7e3a
00000080: ca09 37bc 6f20 4cb9 6128 6b3b 8bf3 f7bc
00000090: e1a9 d13c 6e2b c9bc 4277 c13b 3541 36bb
000000a0: 3b12 9bbc 24e5 91bc d7fd 213c 54b6 c83c
000000b0: 0fd7 aa3b c6ac 163b 3bed fcbb 9fe5 15bc
000000c0: 6382 c8bc 8e03 57bc 22e7 9bbc 08fa f73c
000000d0: 23d1 5d3c ed51 d53b 1e82 3c3b 3d68 693c
000000e0: 165b afbc 8022 d83a 2818 babc e2a4 1d3b
000000f0: 4494 4f3c 1430 8a3c cf81 863c e4d2 f43a
-0.0083245 -0.029190168 -0.0068252287 -0.02978121 0.004798758 0.036651563 -0.0067121596 -0.014015766
0.04891961 0.0075343247 -0.0095168715 -0.013105208 -0.000636596 0.013984065 -0.0019266201 0.0029233329
-0.0105155045 0.021757273 0.0076353317 -0.02681769 -0.0031865002 -0.027739627 -0.0033875036 -0.017841222
-0.014863448 0.004558694 -0.01331598 -0.0051451903 0.013778098 -0.041737847 -0.005290407 0.00097083044
-0.0111717675 -0.00019467039 0.0035882222 -0.030267498 0.0255937 -0.024556842 0.005904109 -0.0027809863
-0.018929591 -0.017809458 0.00988718 0.024501003 0.0052136253 0.0022991165 -0.0077187098 -0.009148984
-0.024476236 -0.013123406 -0.019031111 0.030270591 0.013538632 0.0065100105 0.002876408 0.014246044
-0.021405738 0.0016489774 -0.022716597 0.0024054577 0.012669627 0.016868629 0.01641932 0.0018678573

actor.network.task_encoder.1.running_mean f4 [64]
00000000: 618e 8846 4e06 b4c5 fd49 1fc6 fd7a 4bc5
00000010: 5454 0bc6 4e01 d1c5 55a5 02c6 1a5a e345
00000020: 042f 2746 050b c5c4 682a 5b46 e047 5746
00000030: f931 dcc5 00ab 88c2 ec1e a444 33fe 3946
00000040: 4d33 2b45 de44 3046 becb 1ec5 ba02 0fc6
00000050: cbf1 1446 aca4 1dc6 9090 3446 3591 1dc5
00000060: 2d57 3e46 4ea8 ec45 9e00 03c6 7ca8 9945
00000070: 30f8 aa45 fabf 8045 f629 42c6 fa28 d3c3
00000080: 1134 dd44 4232 51c6 aa1b 6dc6 8956 8ec4
00000090: ff0d 5b46 cc38 0bc5 285d c345 368d cb45
000000a0: 8097 71c6 cef3 4543 c34f d945 dae8 7b46
000000b0: 2aaa ff44 116e 4b46 7935 e9c5 3fc2 d1c5
000000c0: 06cf 31c6 670e 1ac6 bb0f b9c5 bbf6 4046
000000d0: 4ec4 54c5 d4dd 88c6 cebc 88c6 20a3 0b46
000000e0: 6154 5bc5 bf18 14c6 ce04 84c6 ad44 c345
000000f0: bd26 54c5 e6db 4146 27c7 7345 5c5c a0c5
17479.19 -5760.788 -10194.497 -3255.6868 -8917.082 -6688.163 -8361.333 7275.2627
10699.754 -1576.3444 14026.602 13777.969 -7046.2466 -68.333984 1312.9663 11903.55
2739.2063 11281.217 -2540.734 -9152.682 9532.448 -10089.168 11556.141 -2521.0754
12181.794 7573.038 -8384.154 4917.0605 5471.0234 4119.997 -12426.49 -422.32013
1769.6271 -13388.564 -15174.916 -1138.7042 14019.499 -2227.5498 6251.6445 6513.6514
-15461.875 197.95236 6953.97 16122.213 2045.3176 13019.517 -7462.684 -6712.281
-11379.756 -9859.601 -5921.9663 12349.683 -3404.269 -17518.914 -17502.402 8936.781
-3509.2737 -9478.187 -16898.402 6248.5845 -3394.4211 12406.975 3900.447 -5131.545

actor.network.task_encoder.1.running_var f4 [64]
00000000: bac1 8c4c f49c f44a 0583 bf4b 033e 1c4a
00000010: 127f 924b 8bd9 244b 6ed8 804b 5414 434b
00000020: 97ff d24b 7eac 1249 6942 354c 49e4 2e4c
00000030: 5407 374b 56ba 8b44 ce87 cb48 4591 024c
00000040: 0a2a dd49 0989 ea4b c83f be49 8c5b 9a4b
00000050: 556e a74b 0496 bb4b 8119 f64b 6b8c bb49
00000060: c0be 084c da59 534b ff84 814b bd31 b24a
00000070: 86ad dc4a 7944 7a4a a245 0e4c 5cb8 2747
00000080: 0f8f 3849 6029 254c 092e 544c 03e4 9848
00000090: a81d 354c a354 9249 6b07 104b a45f 1c4b
000000a0: 973f 5c4c 95a3 1446 923a 324b 3e80 6f4c
000000b0: b6a4 7649 5b2b 1c4c c736 4d4b 7f0e 264b
000000c0: 11a4 ee4b 3225 b34b c546 014b dd87 0c4c
000000d0: 97d9 2a4a ca65 8d4c 7523 8d4c 5e28 934b
000000e0: e186 354a 288c a54b 1f8e 834c 7fea 0f4b
000000f0: 99eb 294a 83d5 0d4c 1543 604a 3913 c24a
7.379707e+07 8.015482e+06 2.5101834e+07 2.5598728e+06 1.9201572e+07 1.0803595e+07 1.6888028e+07 1.2784724e+07
2.7655982e+07 600775.9 4.7516068e+07 4.584682e+07 1.1994964e+07 1117.823 416830.44 3.4227476e+07
1.8117772e+06 3.074101e+07 1.558521e+06 2.023196e+07 2.1945514e+07 2.4587272e+07 3.225677e+07 1.5363974e+06
3.584691e+07 1.3851098e+07 1.6976382e+07 5.8390705e+06 7.231171e+06 4.1003822e+06 3.729575e+07 42936.36
755952.94 4.329613e+07 5.5621668e+07 313120.1 4.747843e+07 1.1987404e+06 9.439083e+06 1.02481e+07
5.7736796e+07 9512.8955 1.1680402e+07 6.2783736e+07 1.0102514e+06 4.093886e+07 1.3448903e+07 1.0882687e+07
3.1279138e+07 2.3480932e+07 8.472261e+06 3.6839284e+07 2.7992058e+06 7.413307e+07 7.3997224e+07 1.9288252e+07
2.9741362e+06 2.169864e+07 6.897279e+07 9.431679e+06 2.7839742e+06 3.718094e+07 3.6743092e+06 6.3594525e+06

actor.network.task_encoder.3.weight f4 [64, 64]
00000000: d8a6 00bd b68d d9bd 726b 973c cbc0 08be
00000010: c451 99bd 72be dfbd 938a c63c 67cb 173d
00000020: 2390 e13d f24c 24bd 58fb cc3d 520c b5bd
00000030: 3748 ccbd d103 e1bd 4ef9 3a3a 570a edbd
00000040: a098 a73d e531 cdbd f829 023d 17ab 93bd
00000050: 62ac 22ba 55f1 55bd 5666 683d efd6 cc3d
00000060: c03b 01be 5270 e0bd db47 eabc 1454 ec3a
00000070: 1903 ef3d 25a3 533d ccfa 9fbc 3a7f 02be
00000080: a0ed ca3c 5ff6 88bd 5b4d e83c dfe3 7bbd
00000090: 7071 16bc ae87 8d3d 1ced e03d 4a95 e6bd
000000a0: d069 c0bd 7928 7bbd cff8 c1bb d8c9 ac3d
000000b0: 4b31 963d 395c 59bc 82dc b2bd eaec bb3d
000000c0: 47dd 80bd 97b6 98bd 7cac 1e3d 8ebf 893d
000000d0: 8853 7f3c 34c8 4fbd a818 8fbd 4b84 1fbd
000000e0: b7b3 973d e7a8 473d 2af2 113d 7c90 6ebc
000000f0: 9899 213d 90ef 613c b841 4fbd 3f7d 8abd
00000100: 53e1 7c3d 3054 8c3c 57ee e73d e30e ce3d
00000110: 073d b53d 0a11 9ebd ce4d c7bd 3a11 7e3d
00000120: f023 cfba 49f2 d8bd 4111 43bd 30fe 58bd
00000130: 760d 81bd 15ee 2c3d e7f9 423d 544f 8abd
00000140: 0e64 cdbd ea05 b53d 34f4 b33d e70e 613d
00000150: e6c3 513d ab6e 39bb 0e53 10bc 06e6 5fbc
00000160: 1241 5ebd c550 abbd 6443 c03d 2349 4ebc
00000170: f3d4 553c 7f04 c7bd ee6b b23c 3cfb 863c
00000180: 1a81 a7bd a70b b7bd 0a32 acbd 81a4 d1bd
00000190: 36ae da3d 9c41 32bd 94fa a4bc 1f0a af3d
000001a0: 24b7 4a3d 2517 b63c 8e31 bb3b 595c de3b
000001b0: 1fba bb3b 6898 21bd 3389 e73c 131d 8c3d
000001c0: cab3 47bd c333 e73d 4b15 3a3d 1763 edbc
000001d0: 5c2d 883d a46e 823d e6d0 853d 2096 d0bc
000001e0: ebe2 cb3d 5d5e ac3c a426 db3d a20d 13bd
000001f0: f127 bcbc 960f 6f3d 3f59 ba3c 5b2f 733d
00000200: d17d 67bd 2212 d6bc b007 cd3d 041f 91bd
00000210: 5cb5 233d d4b3 0fbe 3097 443d 8fc4 c93d
00000220: 9056 0a3c 5021 32bd 0e1c 603d 9582 063d
00000230: cbb2 383d 4e7e c6ba 49be bbbd fb28 b6bd
00000240: bf15 c13d 4d0b c03b f881 993d 8cc4 3a3d
00000250: eb36 7dbd f80e d3bd ddb8 bb3d c59a 6fbd
00000260: a089 a63d f1ac 96bd 87ba 1fbd d028 c13c
00000270: 61cf 1abb 8a60 d63d d921 e7bc 5a0f 423c
00000280: 8c78 cf3d b725 10be 7340 003c 75f7 843d
00000290: 5a6c 3abc 5b57 14ba c7ec a93d e74c 5e3d
000002a0: 7413 5cbd aa48 c13d 2c56 6cbd 3173 c23d
000002b0: 7ba0 013e ce49 be3d 3d6d 7c3c 341c aabd
000002c0: 3ded 993d b5b6 debc 7a47 f3bd c015 a73d
000002d0: 92d8 03bb e018 813d be92 52bd 0ebe 933c
000002e0: b60a 663c 380a aabd 1c96 4c3c 580d bc3d
000002f0: f74b 8c3d b65e 5d3d cf00 bf3d 7737 5fbd
00000300: 9844 17bd d7cf efbc 5719 db3d 2897 6abd
00000310: e843 b1bd 8dd5 4c3d d1f4 0fbc 6d8c 8abd
00000320: 346e b3bd 359b ab3d eee8 183d f236 e63d
00000330: 099c bbbd 456a d03d d971 9bbc 10db eb3a
00000340: 0c0c 583d 1b60 83bd f558 22bd 27f6 2fbd
00000350: cfe0 a33d a8cf cbbd b51f 0f3d f81a dcbd
00000360: 49f2 10bd 9ead 1dbd 95a6 83bd ecee 35bd
00000370: f4f4 1c3d b61f 8fbd f560 51bd bb51 a0bd
00000380: 1233 a13c 8964 9a3b 52a7 88bd 4c93 0cbb
00000390: 5343 e73d 1812 9ebc 6e93 9abd d721 e1bd
000003a0: b943 c23d 0245 353d 75d3 c43d c84d b53d
000003b0: 6fb7 9fbc 4630 a43c cd68 7f3c eca2 103d
000003c0: e8fd 54bd 243e 08be f8b0 df3d 3b73 963d
000003d0: 6f92 58bc 1e09 963d 74ef 55bd 176f dcbd
000003e0: cb58 d4b9 309a c8bd 002f aebd a1bc cf3d
000003f0: 54fc 9dbd 5dfd 8f3d 99d3 c73d 6283 cebd
-0.031409115 -0.10622732 0.018483851 -0.13354795 -0.07486299 -0.109249964 0.024236 0.037059214
0.1101382 -0.040112443 0.100088775 -0.088402405 -0.099747114 -0.10987056 0.0007132486 -0.11574238
0.08183408 -0.10019282 0.031778306 -0.07210367 -0.00062054966 -0.052232105 0.05673822 0.10001933
-0.12620449 -0.109589234 -0.028598716 0.0018030428 0.11670513 0.05166926 -0.019528769 -0.12743846
0.024771512 -0.066876166 0.028357198 -0.06149661 -0.009182319 0.069106445 0.10982725 -0.112589434
-0.09395182 -0.061317895 -0.005919553 0.08436936 0.07333621 -0.0132666165 -0.08733465 0.09176047
-0.06292205 -0.07456701 0.038738713 0.06725989 0.01558388 -0.050728038 -0.06987125 -0.038944524
0.07407325 0.048745062 0.035631336 -0.014560815 0.03945312 0.013790026 -0.050599784 -0.0676217
0.061738323 0.017129987 0.113247566 0.10061433 0.08849531 -0.07718094 -0.09731637 0.062028147
-0.0015803557 -0.10593087 -0.047623876 -0.052976787 -0.063013956 0.04221924 0.047601607 -0.06753412
-0.100288495 0.08839019 0.087868124 0.054945853 0.051212214 -0.0028294723 -0.008808864 -0.013665682
-0.054261275 -0.08365015 0.09387854 -0.012590679 0.013051259 -0.097176544 0.02177998 0.01647722
-0.08178921 -0.089377694 -0.08407982 -0.10236455 0.10677759 -0.0435196 -0.020139016 0.08546852
0.049491063 0.022227833 0.0057126945 0.006785911 0.0057289745 -0.039451987 0.028263664 0.06841483
-0.048755445 0.1128917 0.045430463 -0.028977914 0.066492766 0.06368759 0.06533985 -0.02546221
0.099553905 0.02104109 0.107007295 -0.035901673 -0.022968264 0.058364473 0.022747634 0.059371334
-0.056516472 -0.026131693 0.10011232 -0.07085994 0.03996788 -0.14033443 0.047995746 0.09851944
0.00844349 -0.0434888 0.054714255 0.032839376 0.045092385 -0.0015143843 -0.091671534 -0.08894535
0.09427976 0.005860722 0.07495493 0.045597598 -0.061819952 -0.103055894 0.09166119 -0.05849721
0.08131719 -0.07357205 -0.038996246 0.023579031 -0.0023622143 0.10467632 -0.028214382 0.01184448
0.10130414 -0.14076887 0.007827866 0.06492511 -0.011378372 -0.0005658769 0.08297115 0.05427256
-0.05372949 0.09437688 -0.057699367 0.09494627 0.12658875 0.09291421 0.015406904 -0.083061606
0.07515953 -0.02718673 -0.118788674 0.08158445 -0.00201181 0.06303573 -0.051409476 0.018034961
0.01404064 -0.0830273 0.012486961 0.091822326 0.06850427 0.0540454 0.09326326 -0.054496255
-0.03693065 -0.02927391 0.106981926 -0.05727306 -0.0865553 0.050008345 -0.008786396 -0.06765065
-0.08761254 0.08379213 0.037331514 0.11240949 -0.09160621 0.10176519 -0.018975185 0.0017994363
0.052745864 -0.06414815 -0.039635617 -0.04295936 0.08001863 -0.09951717 0.034942348 -0.107473314
-0.03538731 -0.038495652 -0.064282574 -0.044417307 0.038319543 -0.0698847 -0.051117856 -0.07828089
0.019677673 0.0047116918 -0.06672539 -0.00214501 0.11292138 -0.019295737 -0.07547651 -0.109927826
0.09485573 0.044255264 0.09610645 0.08852726 -0.019496648 0.02004255 0.015588951 0.035311624
-0.051999956 -0.13304955 0.10922426 0.07346197 -0.013218506 0.07325958 -0.052230313 -0.10763376
-0.00040501947 -0.09795034 -0.08505058 0.101434 -0.077141434 0.07030747 0.09757156 -0.10083653

actor.network.task_encoder.3.bias f4 [64]
00000000: 29b2 33bb ef0f ebbd dde7 efbd 1012 f93d
00000010: 6180 abbd 96e6 be3d 9a0d c7bd 536b 5fbd
00000020: 55fe 2ebd abdd 6b3d 82b2 c73d f14a 39bc
00000030: 3d3a aa3d e0c1 87bd 62d2 b63d c212 bcbd
00000040: 34e7 a53d 6a26 6e3d d20d 693d 7a46 06bd
00000050: 6550 c43d 108b 38bb a2f0 c63d 8312 853a
00000060: 08d2 1d3d f546 e03d a0ee e9bd bb8e 8bbd
00000070: 35a8 0fbc b14d 96bd b02d c0bb 6207 03bd
00000080: 1968 603d 678d b0bd 227e abbd 047d e63b
00000090: e015 bfbd 0b0a 813d b121 8abd 68e7 85bd
000000a0: 32ba bdbd 0ea1 bcbc 3eb8 493d a728 c73d
000000b0: e4b9 d2bc fedf babd b473 95bd 127d eb3d
000000c0: fe64 e4bc 8373 803d adf7 bbbd d84c f8bd
000000d0: fb69 babd 0317 b13c ec2d babd 2486 d33d
000000e0: 0039 19bc bce7 ee3d 678c b8bd b61c c93c
000000f0: d69b c8bd ad73 28bd 143b bfbd 57a2 00bd
-0.0027419424 -0.114776485 -0.11714146 0.12161648 -0.08374096 0.093213245 -0.09719391 -0.05454571
-0.04272302 0.057584446 0.097508445 -0.011309371 0.08311889 -0.066287756 0.08926846 -0.09183265
0.08100739 0.058142103 0.056897946 -0.032782055 0.095856465 -0.002815906 0.09713866 0.0010152612
0.03853038 0.10951034 -0.11422467 -0.06814333 -0.008768131 -0.07339037 -0.0058648214 -0.031989463
0.054786775 -0.0862072 -0.08373667 0.007033946 -0.09330344 0.06300744 -0.067447074 -0.06538278
-0.092640296 -0.023026016 0.049247973 0.09724551 -0.025723405 -0.09124754 -0.07297459 0.11498465
-0.027880188 0.06272032 -0.091781 -0.12124032 -0.091022454 0.021617418 -0.0909079 0.1032832
-0.009351969 0.116652936 -0.090111546 0.024549823 -0.09795348 -0.041125942 -0.0933744 -0.03140482

actor.network.task_encoder.4.weight f4 [64]
00000000: 264d 7d3f 0ff9 7e3f 24cd 7e3f fb34 7e3f
00000010: d284 803f 8860 803f eca7 7b3f b85a 7d3f
00000020: 2f96 7e3f c349 7e3f 2d05 7f3f 96cf 7e3f
00000030: 9335 7d3f 76f7 7f3f efdb 7a3f 2a33 823f
00000040: 7c27 803f 222e 813f 4020 803f e670 803f
00000050: a7c3 7d3f f89a 7b3f 7b6c 7d3f 7355 7f3f
00000060: 63b5 7d3f 9a0a 803f e2b7 7d3f 76e5 7e3f
00000070: 3ce9 803f 3953 803f a20d 7c3f 751f 803f
00000080: eb8f 7f3f e1d7 7f3f 40fa 7b3f 238e 813f
00000090: df0a 7b3f 486c 803f 2224 803f 847b 7f3f
000000a0: 70d9 803f e6ec 813f 4772 7e3f c77c 7e3f
000000b0: 4980 7e3f 6f63 7e3f fbff 7f3f a5e1 7d3f
000000c0: a966 7e3f 5dd9 7d3f 4500 803f c183 813f
000000d0: 537f 7e3f 6cbc 773f 6437 7e3f f08a 7e3f
000000e0: 3ab6 813f 2556 803f 5920 7d3f ee0a 803f
000000f0: d188 7f3f 2b23 813f 3104 7d3f 7d4d 813f
0.98945844 0.99598783 0.9953177 0.9929959 1.0040534 1.0029459 0.98303103 0.9896655
0.9944791 0.993313 0.9961727 0.995355 0.9890987 0.9998697 0.9799184 1.0171864
1.001205 1.0092204 1.0009842 1.0034454 0.99126667 0.9828334 0.98993653 0.9973976
0.991049 1.0003235 0.9910871 0.9956888 1.0071177 1.0025398 0.984583 1.00096
0.99828976 0.9993878 0.98428726 1.0121502 0.9806346 1.0033045 1.0011027 0.99797845
1.0066357 1.0150421 0.99393123 0.99409145 0.994145 0.99370474 0.9999997 0.9917243
0.99375397 0.99159795 1.0000082 1.0118333 0.9941303 0.96771884 0.9930327 0.9943075
1.0133736 1.0026289 0.98877484 1.0003335 0.9981814 1.0088857 0.9883452 1.0101773

actor.network.task_encoder.4.bias f4 [64]
00000000: 6025 28bc 9906 cebb 9418 a9bb 8fe9 20bc
00000010: 72ac 333c c95b 7f3b f585 b0bc ebcb 0abc
00000020: 24d5 2cbc d6db 3339 4db2 15bc cb7d 57bb
00000030: 3e89 60bc 9650 a13a c32d 98bc a920 ac3b
00000040: c8f8 0fbb 4c7f 983b 038b 4dbb 2659 7dba
00000050: daa1 92bb fa32 8cbc 2fcd 45bb bd11 1dbc
00000060: 6d25 afbb 5a61 f13b 93c3 18bc cd13 87ba
00000070: 5d00 f6ba 2a39 403b 8495 8abc 4d8b 483a
00000080: 925c 27bb bb15 6cbb 35ac a6bc 8df7 6d3b
00000090: ea5d febc baa0 8aba 0d8a 3fba 6a76 313b
000000a0: fdce 893a 9630 2c3b 9d15 3cbc c7a8 69bb
000000b0: 9640 06bc 116c 8cbb 086e 9bbb 022c f5ba
000000c0: 1056 42bc d7c0 8abb b807 563a e581 893c
000000d0: 0f52 26bb e75d 94bc 0ce1 15bc d1f8 79bb
000000e0: 13f8 823b 36a5 1f3b a0f4 40bc 5495 c73a
000000f0: 5af2 76bb cf00 773c 93ff dcbb 5059 f4bb
-0.010262817 -0.0062874076 -0.0051604006 -0.00982131 0.010966407 0.003896462 -0.02154825 -0.008471469
-0.010548864 0.00017152666 -0.0091367485 -0.0032881375 -0.013704596 0.0012307342 -0.018576508 0.005252917
-0.0021968354 0.004653847 -0.0031363375 -0.0009664468 -0.0044748606 -0.017114151 -0.0030182113 -0.009586749
-0.0053450377 0.0073663415 -0.009323972 -0.0010305584 -0.0018768419 0.0029330947 -0.016916998 0.0007650152
-0.0025537354 -0.0036023695 -0.020345787 0.0036310882 -0.031050641 -0.0010576465 -0.0007306643 0.0027078637
0.0010513958 0.0026274077 -0.011479762 -0.0035653578 -0.008194109 -0.0042853435 -0.0047433414 -0.0018705132
-0.011861339 -0.004234414 0.00081646023 0.016785571 -0.00253785 -0.018111182 -0.009147894 -0.003814269
0.003996858 0.0024359948 -0.011777073 0.0015226998 -0.0037681074 0.015075876 -0.006744334 -0.007456936

actor.network.task_encoder.4.running_mean f4 [64]
00000000: 7fb0 b6be f642 cb3d 8441 1d3e 811b 5fbd
00000010: f39a 21bf 8bc3 f4be d23f 75bf f5f2 92be
00000020: a0de d4be 16bb 0dbf ec8e 073f 98a2 60bc
00000030: b60e 143f be86 28bf af45 bbbe 4f34 c53e
00000040: 23ef 953e e366 9dbe 2928 473e beb6 483e
00000050: e708 113d c4a2 6d3e 54ae 8dbe 48ba bc3e
00000060: 05c1 08bf 782e a1bd 0764 a83c 35ba 01bf
00000070: 0d9c b93e b05e 1dbf cf20 813e 6180 113d
00000080: 8107 e1bb 83ae e83e d49f d53e e063 da3e
00000090: f554 8e3e 16c9 bfbe 6910 d13d 4fee ed3e
000000a0: 1779 ed3e 6387 ad3e 2fa3 b33e adb5 0cbf
000000b0: 0e9f ecbe ecab c6be c042 f4be 952b d3be
000000c0: 2105 b23e 9e14 abbe 1683 49bf 78c6 44bf
000000d0: 99d5 0abf 50fb 96be 93ae ea3e fc37 f43e
000000e0: a49c d03e 31cf 813e 9d3a c83d 319a d9be
000000f0: af51 7e3e e9b9 0cbf 2404 03bf 6092 873e
-0.3568153 0.09924881 0.15357023 -0.05446959 -0.6312706 -0.47805437 -0.9580051 -0.28700987
-0.415761 -0.55363595 0.52952456 -0.01371064 0.5783495 -0.658306 -0.36576602 0.3851647
0.2928401 -0.3074256 0.19448914 0.1960096 0.03540888 0.23206621 -0.27672064 0.3686087
-0.53419524 -0.07870191 0.02055551 -0.50674754 0.3625187 -0.61472607 0.25220343 0.035522822
-0.0068673496 0.45445642 0.41723502 0.42654324 0.27799192 -0.37458104 0.10208208 0.46470878
0.46381447 0.33892354 0.35085437 -0.54964715 -0.462151 -0.3880304 -0.47707176 -0.41244188
0.34769538 -0.33414167 -0.78715646 -0.7686534 -0.54232174 -0.2948861 0.45836315 0.47698963
0.40744507 0.25353387 0.097768046 -0.4250045 0.24835847 -0.54971176 -0.51178193 0.26478863

actor.network.task_encoder.4.running_var f4 [64]
00000000: 69a2 ee3e 2deb 6a3e ab5d 1b3f d96d c43e
00000010: d2ed 103f 62fd 1d3f b9b1 9a3f e3be 913e
00000020: 0246 053e bd26 ad3e bf81 2e3e 70e3 373e
00000030: d2fe 993e 7dff ad3f 49a3 1f3f 4758 d13e
00000040: 176c f03e 5907 763e 65b1 8a3e 27b1 7a3e
00000050: 9393 403e dee7 663e c571 f93d f67c e93e
00000060: 8b92 733e 2400 293f f659 9c3e c7a3 003f
00000070: 7f5a 823e a07f df3e a40e fb3d 2416 9e3e
00000080: ba1d cb3e e581 6e3e 0699 b53e 40ea 7a3e
00000090: b967 c73d 627e a83e 1bb1 703e e575 053f
000000a0: effc d23e 9bc9 493e 7a35 eb3d 84ab 933f
000000b0: 7a99 943e 8147 ad3d 264c 073e e98d df3e
000000c0: 9e28 1f3f 184e 8d3e a785 423f cd41 1e3f
000000d0: ce97 213e 56a8 d03e 85d7 f93e 2890 003e
000000e0: 50c2 b13e 4dcc 423e a6fc 893e 54e2 903e
000000f0: b386 193e 17e7 033f 527c c93e da81 153e
0.46608284 0.22941275 0.606898 0.38365057 0.56612885 0.61714756 1.2085487 0.28465948
0.13014987 0.33818617 0.17041682 0.17957854 0.30077225 1.3593594 0.6235853 0.40887663
0.46957466 0.2402624 0.27088466 0.24481641 0.18806295 0.22549388 0.12179903 0.4560315
0.2378637 0.6601584 0.30537385 0.50249904 0.25459668 0.43652058 0.12258652 0.30876267
0.39671117 0.23291738 0.3546831 0.24503422 0.097365804 0.32908922 0.2350506 0.5213302
0.41208598 0.19705813 0.11484809 1.1536717 0.29023343 0.08460904 0.13212642 0.43662956
0.6217135 0.27598643 0.7598519 0.61819154 0.15780565 0.4075343 0.4879724 0.12554991
0.3471856 0.19023247 0.26950568 0.28297675 0.1499279 0.5152449 0.3935266 0.14600316

actor.network.task_encoder.6.weight f4 [32, 64]
00000000: 9c5a cb3d fbb1 cc3d a93b f7bd ef1e c9bb
00000010: 3fb9 19bb ca61 933d fbdb 9a3d d459 343d
00000020: d64f bb3d f589 2b3d 19ed 993c 2883 c939
00000030: 69cb 373d d59e 833d d097 20bc 3891 94bd
00000040: 70ec b9bd 9836 92bd fad3 d63d 1a65 42bd
00000050: 405f 93bd 35c5 a8bc 0406 163d 4817 90bd
00000060: c666 d1bc d46d 25bd db8b bb3c 749c 803d
00000070: 6055 993d 849c 77bd 0f64 983d 85e4 37bd
00000080: 0772 5cbb b364 d83c 2870 b83d eb97 f3bd
00000090: 2bc3 80bd a42c 24bc 8148 9fba eb75 97bd
000000a0: 9175 96bc 5f65 fdbd 1f42 b1bb 5a11 f9bd
000000b0: a3ac df3d 4219 753d 6efc 723d d37c 1d3d
000000c0: bd8e 423d 701e ab3d 7f2e 593d 3bd2 9abc
000000d0: 2a79 4cbd 0378 db3d 2504 1cbc 12a0 ae3a
000000e0: 9fbe e83d fcc0 c2bd 9cfe 5d3d 1892 803d
000000f0: 1a3b 49bd 6816 17bd d32f 403d d7e6 b0bd
00000100: 1656 9f3d 9465 e93d 28e7 febd 3946 04be
00000110: 1ef4 f63d cfcb fd3c 5a24 6f3d 4616 95bd
00000120: e1d2 06bd a00d 543c 2e00 84bc 9df3 02bd
00000130: 033e 393d da2d 04bd 6ee1 16bd c328 fe3b
00000140: 785c 97bc b943 3dbd 94f3 f4bd e2e8 dd3d
00000150: 501c 823d 8400 a5bd 6626 3e3d d1c8 c43d
00000160: 0dcf e3bd 6281 b5bc 5e2a e63d 1ad7 763c
00000170: d2db 92bb 1be3 303d 1d87 3bbd 3d05 cebd
00000180: dbc2 ffbd ae1c cb3d 7211 54bc ce68 84bd
00000190: eeb0 12bd c300 a23d c9ab fabd 81fa 25bc
000001a0: a681 b8bb 0178 30bd a0a8 6b3d 0275 803d
000001b0: 3f99 9a3d a7b8 d9bd d848 ad3d 8d6e ae3c
000001c0: dd16 bfbd d92d 19bd 220f 913d 0dea 983d
000001d0: bcdc 37bd 6b88 3e3c 75a5 d33d b471 59bd
000001e0: bd5c 02be a9b9 72bd 5bdf 4c3d 72b6 ac3d
000001f0: 8568 233d 3d96 9a3d 639b 763d 0762 b93d
00000200: ceed a13c 16c5 babc 6200 e03d 19d7 c2bd
00000210: 9d13 493c 7fab 343c dece 843d d283 7e3d
00000220: ec82 0dbe d32b c3bd 85ec 1abc bb6f e8bc
00000230: 5940 90bd aeaa d3bd 5192 6b3d 3716 8cbd
00000240: dc6f 7f3d 2810 dbbd f5f5 973c b20f 8dbc
00000250: aa32 e6bc 689d 8dbd fe0c ab3d 6fea 88bd
00000260: 07b6 2d3d 8d46 b53d d553 653d add3 533c
00000270: ff1e 1fbd c55e 883d d0bd d53c e681 93bc
00000280: 6985 a0bd 311f be3c 4692 873d 29b7 5dbd
00000290: 0516 8f3d 6994 94bd e254 2b3d 2b15 86bd
000002a0: b922 7ebd c326 e83c a737 75bd df4b b6bd
000002b0: 24b0 acbd d447 df3c 0a30 b73c 34e3 ce3c
000002c0: 9a58 e7bd 5758 da3d 14cb 5a3d 9bc0 5dbd
000002d0: fb73 b83d 43fe 64bc 1e4f 693d ecdf 39bd
000002e0: f67e b33d 550d 3dbd b2bd d4bc a02b 343d
000002f0: b26d 443d 355f 23bd 269e bd3c 0f7e 94bc
00000300: 6c97 1d3d 8af7 58bd c7a3 253d c0b7 5f3d
00000310: ffe6 b9bd 30d7 95bd cb02 103d 326e aabd
00000320: d57b d83c 3a83 a8bd 5de5 87bb 1b4f c63d
00000330: 50db dfbd 2d47 dcbd f046 f43b 5414 a73d
00000340: eca4 a73d c860 59bc 351d fb3d 3d87 d7bd
00000350: 8a64 063e 1a2a f9bd 0338 84bd ac97 753c
00000360: 1c00 dbbd f8a1 ad3d a4bd 713d 0342 50bb
00000370: 1c50 f93d 08ab 20bb 83e4 e83d 7f4e 973d
00000380: 5739 d43d 5e13 83bd d860 e4bd d2b9 213d
00000390: 8c90 efbd b0cf 7bbb e5e0 abbd 8616 cb3d
000003a0: 6aba 833c fbe7 acbd a182 713c 8da6 f53b
000003b0: 5b56 37bd 577f c63c e330 e93d 1ffb 263d
000003c0: 0813 d4bc 85f5 64bd bf00 133d ac81 95bd
000003d0: 2b0b 273d 5f20 0bbd 8bb5 823d cd73 a0bc
000003e0: 1478 84bd a1f3 9d3d 8ed9 37bc c351 4cbd
000003f0: 3f88 203d 4b76 75bd 4e48 95bc f677 de3d
0.09929392 0.099948846 -0.12071926 -0.006137721 -0.0023456363 0.07196386 0.07561489 0.04403098
0.09146087 0.041879613 0.018789815 0.00038435427 0.04487172 0.06426779 -0.00980182 -0.07254261
-0.090783 -0.07139319 0.1048965 -0.0474597 -0.07195902 -0.020601848 0.03662683 -0.070356905
-0.025561702 -0.040387943 0.022893837 0.06279841 0.07486987 -0.060452 0.0744096 -0.044895668
-0.0033637302 0.026415205 0.09005767 -0.118942104 -0.06287225 -0.010020409 -0.0012152345 -0.07395538
-0.018366607 -0.123728506 -0.0054094936 -0.12161513 0.109216 0.05983854 0.059322767 0.03844912
0.047499407 0.08355415 0.053022858 -0.018899074 -0.04992024 0.1071625 -0.0095224725 0.0013322851
0.11364483 -0.09509465 0.054197893 0.06277865 -0.04912863 -0.036886603 0.04692061 -0.08637779
0.077800915 0.113963276 -0.12446433 -0.12917413 0.120582804 0.030980973 0.058384277 -0.07279639
-0.032915954 0.012942702 -0.016113367 -0.03197061 0.045225155 -0.03227029 -0.03683608 0.007756324
-0.01847671 -0.046207163 -0.11960521 0.108354345 0.063530564 -0.08056739 0.04642334 0.09608615
-0.11123476 -0.022156421 0.1123855 0.015065933 -0.004481771 0.043185335 -0.04578315 -0.10059593
-0.124883376 0.099175796 -0.012943612 -0.064653024 -0.035813265 0.079103015 -0.12239797 -0.010130526
-0.0056306897 -0.043083195 0.05753386 0.062723175 0.075487606 -0.10630923 0.084611595 0.02129295
-0.09330533 -0.03739724 0.070829645 0.07466517 -0.044888243 0.011629204 0.10334293 -0.05308695
-0.1273069 -0.05925909 0.050017696 0.08433236 0.0398946 0.07548187 0.060206782 0.090519
0.019766714 -0.022799056 0.10937573 -0.09513683 0.012272743 0.011027216 0.06484769 0.062137432
-0.13819474 -0.09529843 -0.009455805 -0.02837359 -0.07043523 -0.10335289 0.057512585 -0.06840175
0.062362537 -0.10696441 0.018549899 -0.017219398 -0.02810033 -0.069147885 0.083520874 -0.0668534
0.042409923 0.08851347 0.05598815 0.012928885 -0.03884792 0.06658701 0.026091486 -0.018006276
-0.07837946 0.023208233 0.06619696 -0.054129753 0.06986622 -0.072548695 0.041828997 -0.06547006
-0.062044833 0.028338796 -0.059867527 -0.0890119 -0.08432034 0.02725593 0.022361774 0.025254823
-0.11296196 0.10661381 0.053416327 -0.05413876 0.090064965 -0.013976636 0.056960218 -0.045379564
0.0876445 -0.046155293 -0.02596936 0.043986917 0.047956176 -0.03988572 0.0231467 -0.018126516
0.038474485 -0.052970447 0.040439393 0.054618597 -0.09077262 -0.073164344 0.035158914 -0.08321799
0.026426235 -0.082281545 -0.0041472153 0.09683057 -0.109305024 -0.10755763 0.0074547455 0.08158174
0.08185753 -0.013267703 0.1226143 -0.105238415 0.1312429 -0.12166233 -0.06455996 0.014989775
-0.1069338 0.08478159 0.059018746 -0.0031777627 0.12173483 -0.0024516005 0.1137171 0.07388019
0.10362499 -0.064001784 -0.11151284 0.039483853 -0.11697492 -0.0038423352 -0.083925046 0.099164054
0.0160801 -0.08442684 0.014740617 0.007496661 -0.04476009 0.024230642 0.113862775 0.04076683
-0.025887981 -0.05589821 0.035889383 -0.073001236 0.040782135 -0.03396642 0.06382283 -0.019586468
-0.064682156 0.07712484 -0.011221303 -0.04988266 0.039192434 -0.059927266 -0.018222954 0.108627245

actor.network.task_encoder.6.bias f4 [32]
00000000: c843 023d c520 8abc f024 943d 5eb3 76bd
00000010: 618d e73d b0fa dd3d 4941 b1bc 48fb 8c3d
00000020: b222 80bc 6a6e 8c3d fe25 b03d 9c2f 8dbc
00000030: cff6 c8bc 638b 4ebd d803 7dbd a162 753d
00000040: 584b c13b aae5 b43d 404a 923c a330 eabd
00000050: 42ce 763d db44 93bd 6ea1 c93d ce7a 973d
00000060: b20d 2d3d 44fc f6bd 335f f23d b008 b7bd
00000070: f0e4 923b 61ca e93d 7015 1bbd 7fed 6fbc
0.031802922 -0.016861329 0.07233608 -0.06022965 0.11306263 0.108388305 -0.021637576 0.068838656
-0.015641544 0.06856997 0.086009964 -0.017234616 -0.02453175 -0.0504259 -0.061771244 0.059908513
0.0058988743 0.088328674 0.01785767 -0.11435058 0.060255297 -0.071908675 0.098452434 0.0739647
0.04224939 -0.120598346 0.11834564 -0.08937204 0.004482858 0.11415554 -0.03786224 -0.014644026

actor.network.vm_encoder.0.weight f4 [64, 10]
00000000: cd88 963e 6c33 1dbd e057 5bbe caaf 8b3e
00000010: a2a2 9e3e 8f16 75be 5b47 39be b7fa a93d
00000020: 9bbf 553e 42e3 5d3e e28a 633e 2d73 a93c
00000030: 16bd 283e 8902 3ebd 847d 863e a6b7 54bb
00000040: 123a 833d 6309 4dbe fe1d 5dbd 6b1b 67be
00000050: b58b b5bd 575a 2a3c be93 503e e4d1 a23c
00000060: 1325 c9bc f09c 2f3e cbe4 45be 3dae 6bbe
00000070: 6736 1c3e f058 9ebe f8f4 8fbe ef9c 90be
00000080: f57a 833e 2948 21bc f4ca 5e3e 8d94 98bd
00000090: 9f41 883e ac25 23be 65bb 6a3e 400a 7d3e
000000a0: 508c 2dbe eebb 363d 7336 35be 039e ffbd
000000b0: 4bb0 8d3d 1d75 8d3e 37e7 e4ba 0ef2 9fbe
000000c0: 4ca9 8bbe 2660 be3d 90ea 90be df33 11be
000000d0: 7280 493d 08e7 61be b0cd 20be e045 05be
000000e0: 9762 5bbe 2844 8f3e bef3 53be cc27 1fbd
000000f0: 70cf 0fbe d8f1 8f3d 1df9 9d3e a9c2 053d
00000100: ef0e 3cbd 6f08 8cbe bada 6abd 44fa c2bd
00000110: 4191 6cbe 735f 363e 2326 283e 4755 8fbe
00000120: 2767 743e cfc3 053d 33d8 96be c104 2dbe
00000130: 1e71 533a f204 b73c d92c 343e 09d3 97be
00000140: 2da9 943e 081d 873d 899c 793e 674c a9bc
00000150: 9ecc 4f3b 6175 78be 5265 96bd 0c92 ae3d
00000160: 148c 01be 2243 a1bd af46 f73d 6a10 633e
00000170: 80b2 8c3e 6a40 5dbe 5524 7ebd 1f22 b1bd
00000180: 16a0 92be 60b6 083e 6f34 323e 9193 b63d
00000190: dd4f e43d 4a92 c0bd ad69 16be 0473 653d
000001a0: c123 23be f13f fabd 5111 323e a536 88be
000001b0: 1712 40bd 1ed8 153c 3dfd 9f3e 8f13 09be
000001c0: 55ab 623e a965 f2bd 8590 9d3d a29d bd3b
000001d0: af7a 9abe 893c 48bc ea4e 47be dcac 7a3d
000001e0: 702c 1cbe 1d48 93be d97d 7cbe 6a9b 68bd
000001f0: 8301 f43c 02c2 b4bd 4567 5e3e 9278 87be
00000200: c200 9e3e c812 afbc 7387 8abe 9ff0 99bd
00000210: d54f 763e 753e 903e 326a 9abe 9e59 90bd
00000220: d690 af3d 9a4e 813e d473 67bd eee2 94be
00000230: 0839 e2ba 8353 9b3e bc17 71be ac56 363e
00000240: 320a 763e 6fc1 9ebd f5a5 7f3e 97e3 2b3d
00000250: 093a 24be 5c8f 3f3e c3bd 89be 3717 583e
00000260: 6063 223c c7eb 5d3e 3d46 70be 0c0a 1cbe
00000270: 320d 7b3e 4dbe 623e d129 8d3e c435 eabc
00000280: 73b9 683d b3a7 09be 5c70 1f3e c231 77be
00000290: 79a3 f03d a6b2 9dbd 6d25 723d 0c65 05be
000002a0: 99fc 85be cb89 3ebe 79cd 5dbe 1a34 753e
000002b0: ba72 b43d 1158 3b3e 5453 11bd 5cbe 0bbe
000002c0: d885 7cbe 326a 9c3e 385f 80be 3018 05bd
000002d0: e718 30be f9df 94be cb76 51be 56e6 40be
000002e0: 8c98 953d c03e 313e 1039 703c 99e8 1fbd
000002f0: 4c56 0d3e 04be 5e3d de0a 543d a514 413e
00000300: e500 833e 55ce 0bbd 4e71 95be d019 7cbe
00000310: 25ca 46be c9da 5cbe 6479 afbd 9196 913e
00000320: f776 76be 3a89 d8bc f002 943e abc0 9fbd
00000330: b81a 56be af0a b53d 7238 903e 5988 3fbe
00000340: cc66 be3d 6c18 8dbd 4598 bfbc de4d 18be
00000350: 72b7 fc3d ac99 42be 09b5 71be 5820 283e
00000360: 6f20 6abe 04c3 6f3d 1a47 bcbd a106 57be
00000370: 04b6 8b3d f7bd 983e 6ee5 41be b936 d63d
00000380: 6dc4 473e 61d6 923e eb2a 833d a9ff 14be
00000390: 0498 e3bd 2cef 90be 3313 98be 3738 883e
000003a0: 4ae1 fe3d 9414 bc3d 3be6 0c3e 6f99 29be
000003b0: 53d1 993e e8ec 4d3d d9bf 523e 0f1b d63d
000003c0: df1a 383d 56a9 37bd 2ba3 9ebe 8cea 823e
000003d0: 4d84 4f3e b177 a03e b313 88bc 8be0 eb3d
000003e0: 98a6 363e b99b 8a3c f74c 84be 979a 953e
000003f0: 71d1 773e 5adc 9fbc 38bd 853e 3d1c eebd
0.29401246 -0.038379118 -0.2142024 0.27282554 0.30983454 -0.23934387 -0.18093626 0.08299773
0.20873873 0.21668723 0.22220948 0.020684803 0.1647838 -0.046389136 0.26267636 -0.0032458096
0.064075604 -0.20023112 -0.05398368 -0.22569053 -0.088645376 0.010397515 0.20368859 0.019875474
-0.024553811 0.1714971 -0.19325559 -0.23015685 0.15255128 -0.3092723 -0.28116584 -0.2824473
0.25679746 -0.0098438645 0.21757108 -0.07450209 0.26612565 -0.1593234 0.22923048 0.24710941
-0.16948056 0.044612817 -0.17696552 -0.1248131 0.06918391 0.27628413 -0.0017463927 -0.3123936
-0.272776 0.092956826 -0.28303957 -0.14179944 0.04919476 -0.22060788 -0.15703464 -0.13014936
-0.21424328 0.27981687 -0.20698449 -0.038856313 -0.14043975 0.0702855 0.3085412 0.032656346
-0.04591268 -0.27350184 -0.0573375 -0.09520391 -0.23102285 0.17809848 0.16420798 -0.2799475
0.23867474 0.03265744 -0.29461822 -0.16896345 0.0008065867 0.022341225 0.17595233 -0.29653195
0.2903532 0.06597334 0.2437612 -0.020666314 0.0031707655 -0.24263526 -0.07343544 0.0852395
-0.12651092 -0.07874133 0.12074029 0.2217423 0.27479935 -0.21606603 -0.062046368 -0.08649086
-0.2863776 0.1335082 0.17402814 0.08914865 0.11148045 -0.094029024 -0.1468875 0.05601789
-0.15931608 -0.12219227 0.17389418 -0.2660419 -0.04689225 0.009145765 0.31247893 -0.13386367
0.2213567 -0.118357964 0.076935805 0.0057866136 -0.30171725 -0.012221464 -0.19463697 0.061200008
-0.15251327 -0.28765956 -0.24657382 -0.05678884 0.029785877 -0.088260666 0.21719082 -0.26459175
0.30859953 -0.02137126 -0.27056465 -0.07516598 0.24053891 0.2817265 -0.30159146 -0.07048343
0.08572547 0.2525528 -0.056506947 -0.29079384 -0.0017259428 0.30337152 -0.2354421 0.178065
0.24027327 -0.07751738 0.24965651 0.041965093 -0.16037764 0.18707031 -0.2690259 0.21102606
0.009911388 0.21671973 -0.23464294 -0.15238208 0.24516752 0.22142906 0.27570966 -0.02859009
0.056817483 -0.13442878 0.15570205 -0.24140075 0.1174993 -0.0770009 0.059117723 -0.13026828
-0.2616928 -0.18607251 -0.21660413 0.23945656 0.08810945 0.18295313 -0.03547986 -0.13646835
-0.24660432 0.3054977 -0.25072646 -0.03249377 -0.17197 -0.29077128 -0.20455472 -0.18837866
0.07304487 0.17309093 0.014662042 -0.03904018 0.13802451 0.05438043 0.051768176 0.18855532
0.2558662 -0.03413232 -0.29188007 -0.24619222 -0.1941305 -0.21567835 -0.08568075 0.28435186
-0.24068819 -0.026432622 0.2890849 -0.078004204 -0.2090863 0.08839928 0.28168064 -0.18704356
0.09296951 -0.06889424 -0.023388037 -0.14873454 0.12339677 -0.19003934 -0.23604216 0.16418588
-0.22863935 0.05853559 -0.09193249 -0.20998622 0.06821826 0.29832432 -0.18935177 0.10459656
0.19508524 0.28679183 0.0640467 -0.14550652 -0.11112979 -0.28307474 -0.29702148 0.2660539
0.12445314 0.091836125 0.13759701 -0.16562437 0.30042514 0.05027476 0.20580997 0.1045438
0.0449475 -0.044839226 -0.30983862 0.2556957 0.20265312 0.31341317 -0.016610956 0.115174375
0.17836988 0.016919957 -0.2583997 0.29219505 0.2420099 -0.019514252 0.26120925 -0.1162648

actor.network.vm_encoder.0.bias f4 [64]
00000000: ecc6 52be 74b1 19be a935 8e3e adc3 39be
00000010: 66e7 a4bd 1b79 d3bd ccaa e73d 5d80 8f3e
00000020: b1be b2bd 3a81 96be 3d35 a0be a68b 5dbe
00000030: 7683 093e f719 903d 1c81 2cbe ffc0 27be
00000040: 791d 553d 6d62 a1be 9933 603e 9274 bbbd
00000050: c9cf 57be 65ce 80bd 3393 1d3e a587 523e
00000060: 6b98 7ebe 7105 813e 7967 713e edae 72be
00000070: e822 163e 072a 1c3e 90a2 aebd bb3c 67bc
00000080: bd34 24be 8fa6 08bd a1d5 9cbe 6f66 473e
00000090: bbeb 9f3e 51f0 603e 471f 01be 61b4 53be
000000a0: 1592 523d 4a76 923e b527 7dbe 3416 86be
000000b0: 88b4 57be 8ec9 293e 19ab 213c b996 ab3c
000000c0: 8607 7d3e a687 05be 0bdc 64be fccf 10be
000000d0: 580c edbc 711c 2ebe 5b47 d9bc f005 a23d
000000e0: f6eb 993e 6921 9f3c cc14 cf3d 0e0c 663e
000000f0: f23b 873d 7b62 943e d3d9 863e 3ac4 983e
-0.20583695 -0.15009099 0.27775314 -0.1814105 -0.08051948 -0.103258334 0.11311874 0.2802762
-0.08727778 -0.29395467 -0.31290618 -0.21635303 0.13429055 0.070362024 -0.16846126 -0.16382216
0.05203006 -0.31520405 0.21894683 -0.091530934 -0.21075357 -0.06289367 0.15388183 0.20559557
-0.2486283 0.25199464 0.23574628 -0.23699541 0.14661753 0.15250407 -0.085271 -0.0141136
-0.16035743 -0.033361968 -0.30631736 0.19472669 0.31234536 0.21966673 -0.12609588 -0.20674278
0.051408846 0.28605872 -0.24722178 -0.26188815 -0.21064961 0.16580793 0.009867453 0.020945894
0.24709901 -0.13040027 -0.22349565 -0.1414184 -0.02893655 -0.17003037 -0.026523283 0.07911289
0.30062836 0.01942511 0.101113886 0.22465536 0.066032305 0.28981385 0.26338062 0.2983721

actor.network.vm_encoder.1.weight f4 [64]
00000000: 664b 803f a177 7f3f e866 803f 405d 7f3f
00000010: 34c5 7c3f 140a 7e3f 121b 7f3f 02d2 7b3f
00000020: 9bce 7e3f f3a3 7c3f 1075 803f 1726 7d3f
00000030: 1b13 803f e40f 7d3f 8505 803f 1752 7e3f
00000040: dab3 7d3f d21d 7c3f 450a 803f 9a0a 7d3f
00000050: 383f 823f 38e3 7c3f 25e8 7d3f 5020 803f
00000060: a7f1 7e3f 3b14 7e3f 9c88 7b3f eb36 803f
00000070: 517f 7b3f 8947 7e3f f962 803f 5e9a 7d3f
00000080: b010 7c3f 9dd4 833f 3073 7c3f f457 783f
00000090: d0d5 793f d5d7 7a3f 44fc 7e3f 9015 7e3f
000000a0: f257 803f ab24 803f ea1f 803f 7910 823f
000000b0: 6890 813f ead7 7e3f 707b 843f d69f 7a3f
000000c0: dd8b 803f 3001 853f dc02 7d3f ca55 7f3f
000000d0: 9979 7e3f 390a 803f 0a73 803f 5adb 7d3f
000000e0: d838 823f ab89 7d3f d901 7c3f a1a0 803f
000000f0: 88d5 7c3f 165b 7c3f 1730 813f 12d8 803f
1.002301 0.99791914 1.0031404 0.99751663 0.9873841 0.9923413 0.9965068 0.9836732
0.99534005 0.98687667 1.0035725 0.98886245 1.000583 0.9885237 1.0001684 0.9934401
0.99102557 0.98483 1.0003134 0.988443 1.0175543 0.9878421 0.9918235 1.0009861
0.9958748 0.9924962 0.98255324 1.001676 0.98241144 0.99327904 1.0030204 0.9906367
0.98462963 1.029926 0.9861326 0.97009206 0.97591877 0.97985584 0.99603677 0.9925165
1.0026839 1.001119 1.0009739 1.0161277 1.0122194 0.9954821 1.035017 0.9790014
1.0042683 1.0390987 0.9883249 0.9974028 0.99404293 1.000312 1.0035107 0.9916283
1.0173597 0.9903819 0.9844032 1.004902 0.9876332 0.98576486 1.0092801 1.006594

actor.network.vm_encoder.1.bias f4 [64]
00000000: 5b37 923b c583 a0bb ec08 fbba fc49 193c
00000010: e5e8 8ebc 9da1 eb3a bddb 173c 49e4 3bbb
00000020: 7df7 a9bc cd18 333c 10ec 4839 fd12 78bc
00000030: 8c14 98bb 18b8 46bc cc9a ab3a 7014 d3bb
00000040: c7d1 3e3b 2911 5ebb ea01 25bb 83ed f43b
00000050: ed1a 2e3b 21e5 26bc 17d3 fdbb 9bcf 4a3c
00000060: 6a2d debb 8d43 65bc 1d0e 5cbc 7ecc babb
00000070: 209f a6bc f173 0dbc be28 653b 61e9 63bb
00000080: b635 5ebc ce31 24bc daaa 63bc 20d8 e9bc
00000090: 39c8 bcbc eeab 56bc 2763 6c3c 0360 6dbc
000000a0: 1451 fd3b faa8 cdbb 4e44 323b 314f 983b
000000b0: 01f0 963b 0788 20bc c6fa db3a 6600 0fbc
000000c0: ba8d 623a cda7 923c daa7 4abc c6bc 2b3b
000000d0: 038d 46bc bb00 e23b b51a 353b d583 543b
000000e0: 434e af3b 6b1e de3b a96b bdbc 433c ce3b
000000f0: 667c 44bc 7edd 80bb d264 cd3b 0ff6 863b
0.0044621653 -0.0048985207 -0.0019152439 0.009356018 -0.017445037 0.0017977242 0.009268698 -0.0028670004
-0.020747894 0.010931206 0.00019161426 -0.015141246 -0.0046411213 -0.012128852 0.0013092398 -0.0064416453
0.0029116736 -0.003388474 -0.0025178143 0.0074746027 0.0026566342 -0.0101864645 -0.007746111 0.012378599
-0.006780316 -0.013993156 -0.013431099 -0.005700647 -0.020339549 -0.0086336 0.0034966911 -0.0034776556
-0.01356261 -0.01002164 -0.013895715 -0.02854544 -0.023044692 -0.013102515 0.014427937 -0.014488223
0.0077306125 -0.006276247 0.0027201357 0.004648112 0.0046062474 -0.009798056 0.001678311 -0.008728122
0.0008642335 0.01790228 -0.0123691205 0.0026205047 -0.012118581 0.0068970597 0.0027634327 0.003242721
0.0053499057 0.0067785284 -0.023122625 0.006293805 -0.0119925495 -0.003932654 0.0062681222 0.004118688

actor.network.vm_encoder.1.running_mean f4 [64]
00000000: ac9a bdc2 6b25 3143 4f74 3043 ce0b 8043
00000010: 0856 23c3 f4ac 87c1 700b 8543 47fe 2643
00000020: 9a3d 5143 930a 4343 a359 10c3 f17b 3943
00000030: c76f 5ac3 3a65 4e43 da12 0bc3 83f6 c640
00000040: 758f e742 157a c642 e2de 43c3 60db 2a43
00000050: 8d4a 4e43 8224 2042 7f2b ebc2 69f1 1043
00000060: 1683 45c3 9c43 7843 0451 83c2 524a 24c3
00000070: 79a7 6fc2 609f e342 19dd 8942 1477 5543
00000080: ba84 fd42 2e46 2240 9c5c cfc2 baf7 f6c1
00000090: 6924 a7c3 7381 0943 f95d ae42 93f2 3642
000000a0: 93cb 0d43 1805 2742 0101 c542 ded6 8941
000000b0: 8752 90c1 3919 21c3 9967 cd41 19fe 7743
000000c0: 8b8e 1543 e6c4 9541 d62f 74c2 2f4e 11c3
000000d0: 6e96 0cc3 8db1 2143 7f04 36c3 6a19 7c41
000000e0: 4ef9 c9c2 e2a9 9f43 51ba c841 e893 bbc1
000000f0: 78e2 21c1 a8a8 5243 2afd dcc2 f6f6 66c3
-94.80209 177.14616 176.45433 256.09222 -163.33606 -16.95945 266.08936 166.99327
209.24063 195.0413 -144.35014 185.48415 -218.43663 206.39542 -139.07364 6.217592
115.78019 99.23844 -195.87064 170.85693 206.29121 40.035652 -117.58495 144.94301
-197.51205 248.2641 -65.65823 -164.29031 -59.913548 113.81128 68.93183 213.46515
126.75923 2.5355334 -103.68088 -30.87096 -334.28445 137.50566 87.18354 45.73689
141.79521 41.754974 98.50196 17.229916 -18.040297 -161.09853 25.675585 247.99257
149.55681 18.721142 -61.046715 -145.3054 -140.58762 161.69356 -182.01756 15.756205
-100.98692 319.3272 25.090975 -23.44722 -10.11779 210.65881 -110.49446 -230.96469

actor.network.vm_encoder.1.running_var f4 [64]
00000000: 4726 4946 602c 6d46 3cfe 9346 6a91 0547
00000010: 3537 6b46 fa11 7043 6dd7 2847 63f0 a846
00000020: 359d d146 0540 e446 da03 2d46 0e11 aa46
00000030: 3d4e dd46 cacb cb46 9d38 9246 560f fd41
00000040: e64f 1746 b874 9045 943e a346 86a0 bc46
00000050: 1cfa fb46 bde2 6845 b29b 4346 a220 1246
00000060: f314 0547 87cc f446 b384 6245 23d2 5746
00000070: 8057 d944 fe43 1346 412e 9c45 a380 bd46
00000080: 77df f845 dc85 0741 01d1 0446 dda5 e344
00000090: 9ccc 5a47 67e0 f145 4afb d545 2a2d 1545
000000a0: c73b d645 54e2 6445 9973 1a46 a4d1 df42
000000b0: 93a8 2445 893b 4846 fd97 2544 c831 0547
000000c0: 1282 6546 159f d642 2708 f144 d70a 8546
000000d0: b5e6 2846 2870 8946 05be 9146 8a04 3d43
000000e0: 87b7 0445 e1e4 3347 7964 4242 e5bd 1c44
000000f0: 9558 1444 bffc 8246 1361 bf45 ecb5 0247
12873.569 15179.094 18943.117 34193.414 15053.802 240.07022 43223.426 21624.193
26830.604 29216.01 11072.963 21768.527 28327.12 26085.895 18716.307 31.632488
9683.975 4622.59 20895.29 24144.262 32253.055 3726.1711 12518.924 9352.158
34068.95 31334.264 3624.2937 13812.534 1738.7344 9424.998 4997.7817 24256.318
7963.933 8.4701805 8500.251 1821.1832 56012.61 7740.0503 6847.411 2386.8228
6855.472 3662.1455 9884.899 111.909454 2634.536 12814.884 662.3748 34097.78
14688.518 107.31071 1928.2548 17029.42 10809.677 17592.078 18655.01 189.01773
2123.4705 46052.88 48.598118 626.9671 593.3841 16766.373 6124.1343 33461.92
