logs/wide_homopower/ablation/per_variant/hetero/hetero_best.pt (torch, 286379 bytes, 90 tensors)

actor.network.task_encoder.0.weight f4 [64, 6]
0.39285305 0.31055036 0.40178856 -0.03182507 -0.34035167 -0.26255992 -0.11157236 0.059019346
-0.12470543 -0.23543517 -0.042599276 0.2575662 0.3380734 -0.20001636 -0.24048527 -0.018900225
0.17526083 0.1827849 -0.1496651 0.1405782 0.0077553177 -0.049074218 -0.33346066 0.29292354
-0.28692827 0.10051722 -0.20651935 -0.34409428 -0.024938276 0.13545607 -0.37300596 0.027772931
-0.16153711 -0.057982657 -0.17831539 -0.05089337 0.36686713 -0.39211187 -0.19433537 0.3469748
-0.022992983 -0.084805615 0.13604432 -0.17086186 0.17114866 -0.25188583 -0.12121427 0.31245568
0.040414177 -0.32347238 0.24445829 -0.2713251 -0.026233213 -0.0011964935 -0.18084644 0.18445627
-0.04742517 0.22279026 0.2022299 -0.31924066 0.30454117 0.010496669 0.32308847 0.25408196
-0.11886471 -0.08082994 -0.14948426 -0.19325122 0.3172145 0.3805796 0.1791075 0.36675024
0.13995843 0.061954517 -0.16513328 0.38104123 -0.28959578 0.30155158 -0.04927806 -0.1683544
0.0008610346 0.24642348 -0.4227711 -0.31605932 -0.07673838 -0.40566185 0.029277131 -0.2898646
-0.36995757 -0.16576493 -0.21885508 -0.0019850673 0.27322313 -0.099350534 0.08229277 0.18441537
0.108533345 0.019946393 0.06731467 0.24019934 -0.36632553 -0.16263293 0.36069763 -0.1068067
0.25758258 -0.3261123 0.094457485 -0.011927159 -0.3827303 0.08990026 -0.051811576 -0.39590022
-0.12710434 0.33634323 0.081179425 -0.24831592 -0.2120762 -0.18628217 -0.2115817 0.07687075
-0.19177854 0.29071495 0.21733157 0.29948854 0.009425747 0.36888453 -0.3419598 -0.22001538
-0.2330602 0.19074877 -0.38777533 -0.19344462 0.1624702 0.38220444 0.26462352 0.16869923
-0.28926376 0.12391683 -0.14184129 0.016115062 -0.0010858533 0.38281646 0.3005591 0.042061675
-0.3963921 0.3189771 0.28281626 0.1386245 -0.40275973 -0.2712519 0.21432126 -0.38235927
0.17308566 0.046914753 0.3747676 0.13977642 0.21410984 0.13353671 -0.19280736 -0.2217922
-0.39608675 -0.063711144 0.0052647945 -0.1313244 0.11497689 0.28603065 0.030321691 -0.15858045
-0.35641345 -0.20899916 0.12929726 -0.38016164 -0.40427464 0.0221833 0.009125084 -0.31955168
0.10346167 0.17850076 -0.31674558 -0.060608722 0.24120131 0.3648735 -0.2840445 -0.21945365
-0.23262396 -0.20781757 -0.27933636 0.32485774 0.0052386145 -0.30984497 -0.29800844 -0.34703937
-0.3859349 0.025280565 0.043978047 0.23445527 0.33557218 0.28783605 0.35518876 -0.15849604
-0.3076024 -0.037679203 -0.08747749 -0.019403348 0.009939203 -0.22982468 -0.34870622 -0.16793841
0.075418465 0.20910624 -0.35951716 -0.37448046 -0.014859067 -0.1561889 -0.16672596 -0.39481366
0.1824076 -0.06773281 0.32166904 -0.26207688 -0.37198827 -0.0052892435 0.09731606 0.23363596
0.0029570826 0.31355694 -0.29364204 -0.34573308 -0.20239358 -0.16159636 0.12009136 0.32667482
0.39128813 -0.19420177 -0.09786781 -0.06529769 0.15070304 -0.125594 -0.14387599 0.07091141
-0.26078606 0.35101604 -0.3533605 -0.3607385 -0.025557388 -0.2883966 -0.19223878 0.2540692
0.005996108 -0.046200283 -0.41005042 -0.1333112 -0.13715382 0.302157 0.15838392 -0.037363052
00000000: 0924 c93e 7500 9f3e 3bb7 cd3e 015b 02bd
00000010: 9342 aebe 416e 86be 0d80 e4bd 45be 713d
00000020: 8f65 ffbd eb15 71be 947c 2ebd b8df 833e
00000030: f517 ad3e 17d1 4cbe c541 76be a5d4 9abc
00000040: 9377 333e f72b 3b3e cf41 19be bbf3 0f3e
00000050: 5220 fe3b 0c02 49bd 5bbb aabe 13fa 953e
00000060: 43e8 92be f9db cd3d cf79 53be 202d b0be
00000070: 5b4b ccbc ffb4 0a3e a3fa bebe 0f84 e33c
00000080: fc69 25be 397f 6dbd 4f98 36be 9175 50bd
00000090: 02d6 bb3e e3c2 c8be daff 46be aea6 b13e
000000a0: c85b bcbc 91ae adbd 344f 0b3e 69f6 2ebe
000000b0: 9841 2f3e 2ef7 80be 303f f8bd 31fa 9f3e
000000c0: 5689 253d 2c9e a5be 4653 7a3e 20eb 8abe
000000d0: 09e7 d6bc a9d3 9cba cf2f 39be 1be2 3c3e
000000e0: e540 42bd 2123 643e 5b15 4f3e 8373 a3be
000000f0: d2ec 9b3e 39fa 2b3c da6b a53e 0817 823e
00000100: 576f f3bd 2b8a a5bd 6712 19be a6e3 45be
00000110: f069 a23e 54db c23e f567 373e b0c6 bb3e
00000120: 4351 0f3e 05c4 7d3d b318 29be d617 c33e
00000130: e645 94be f864 9a3e cbd7 49bd 1965 2cbe
00000140: 0eb7 613a 7056 7c3e 7475 d8be 87d2 a1be
00000150: 0329 9dbd e9b2 cfbe 98d6 ef3c 2269 94be
00000160: 146b bdbe 48be 29be 8c1b 60be e717 02bb
00000170: e7e3 8b3e 4b78 cbbd 1d89 a83d 62d7 3c3e
00000180: bb46 de3d 9e66 a33c 46dc 893d d1f6 753e
00000190: 058f bbbe 3f89 26be 5cad b83e 79bd dabd
000001a0: dde1 833e 31f8 a6be ed72 c13d 216a 43bc
000001b0: 3af5 c3be a11d b83d 6038 54bd 6fb3 cabe
000001c0: a427 02be 2e35 ac3e 6641 a63d 8746 7ebe
000001d0: 812a 59be c1c0 3ebe e0a8 58be 696e 9d3d
000001e0: 9861 44be 97d8 943e 2b8c 5e3e 9056 993e
000001f0: 736e 1a3c 6fde bc3e 5b15 afbe b64b 61be
00000200: 55a7 6ebe a553 433e 7d8a c6be 5916 46be
00000210: 975e 263e 4db0 c33e bc7c 873e 7ebf 2c3e
00000220: 611a 94be 1bc8 fd3d d83e 11be bc03 843c
00000230: 3153 8eba 8500 c43e e2e2 993e dd48 2c3d
00000240: e8f3 cabe f750 a33e 4bcd 903e 95f3 0d3e
00000250: 8636 cebe 87e1 8abe 0877 5b3e 98c4 c3be
00000260: 5e3d 313e af29 403d 8ae1 bf3e 8d21 0f3e
00000270: 9c3f 5b3e d9bd 083e 4b6f 45be 7f1d 63be
00000280: e2cb cabe fd7a 82bd 4c84 ac3b e779 06be
00000290: 0179 eb3d 9c72 923e 3265 f83c ea62 22be
000002a0: d37b b6be e003 56be 8066 043e 8ca4 c2be
000002b0: 16fd cebe c1b9 b53c 6081 153c 479c a3be
000002c0: b6e3 d33d e7c8 363e 7a2c a2be da40 78bd
000002d0: 7afd 763e b3d0 ba3e 486e 91be 75b8 60be
000002e0: fa34 6ebe 21ce 54be 2d05 8fbe c153 a63e
000002f0: afa8 ab3b 00a4 9ebe 9094 98be 25af b1be
00000300: 4299 c5be 3019 cf3c 5322 343d 0b15 703e
00000310: 1ed0 ab3e 3f5f 933e 4ddb b53e c94c 22be
00000320: 107e 9dbe 8255 1abd 6627 b3bd c5f3 9ebc
00000330: 0ad8 223c 2957 6bbe 9f89 b2be 0cf8 2bbe
00000340: ff74 9a3d f21f 563e a212 b8be e7bb bfbe
00000350: 7273 73bc fcef 1fbe 36ba 2abe 0425 cabe
00000360: 0fc9 3a3e 80b7 8abd ceb1 a43e f12e 86be
00000370: 3f75 bebe 6451 adbb a44d c73d 443e 6f3e
00000380: 9dcb 413b 898a a03e 4058 96be ed03 b1be
00000390: 4340 4fbe 8479 25be 75f2 f53d ec41 a73e
000003a0: eb56 c83e d4dc 46be eb6e c8bd ccba 85bd
000003b0: e651 1a3e b79b 00be 3a54 13be 003a 913d
000003c0: c085 85be 60b8 b33e abeb b4be b7b2 b8be
000003d0: ba5d d1bc b8a8 93be 3eda 44be 5c15 823e
000003e0: 007b c43b 823c 3dbd 21f2 d1be bb82 08be
000003f0: 0d72 0cbe 53b4 9a3e 652f 223e 000a 19bd

actor.network.task_encoder.0.bias f4 [64]
-0.17164512 0.27201003 -0.3526209 0.14604293 -0.33613157 0.13287038 -0.19631383 0.2929656
-0.3130067 0.40603453 0.37443915 0.15044266 0.39297232 -0.39060828 -0.015846752 -0.33208925
0.2591615 -0.044247054 0.23962604 -0.083303824 0.17233828 0.31960976 -0.2853573 0.37407294
-0.40026686 -0.031104533 -0.09664228 -0.12304942 0.40490094 -0.25535545 0.015545064 0.021409338
0.14456077 -0.09362103 0.31299168 0.37759298 -0.23711064 -0.124149784 -0.29021493 0.23794533
-0.3782685 -0.13662352 -0.1902177 0.044666417 -0.13560468 0.3130655 0.12333812 0.090612635
0.24612571 -0.036189795 0.092230126 -0.19132459 0.17196564 -0.12558459 0.30834436 -0.1749226
-0.067222156 -0.35790095 0.24626587 -0.25030202 0.3654634 0.12304427 -0.023132443 -0.15301524
00000000: bdc3 2fbe e644 8b3e ba8a b4be 478c 153e
00000010: 7019 acbe 2c0f 083e 7e06 49be 96ff 953e
00000020: 6a42 a0be c2e3 cf3e 7db6 bf3e a40d 1a3e
00000030: ab33 c93e cffd c7be 0cd1 81bc 9a07 aabe
00000040: d1b0 843e 663c 35bd 8760 753e 329b aabd
00000050: 7279 303e e4a3 a33e 5a1a 92be 7d86 bf3e
00000060: c7ef ccbe efce febc 63ec c5bd 5601 fcbd
00000070: 2d4f cf3e f3bd 82be b9b0 7e3c a362 af3c
00000080: bd07 143e 62bc bfbd 7240 a03e de53 c13e
00000090: 22cd 72be 3e42 febd 0d97 94be f1a7 733e
000000a0: 69ac c1be 09e7 0bbe 6ec8 42be 22f4 363d
000000b0: f4db 0abe 1f4a a03e b298 fc3d 1e93 b93d
000000c0: 6108 7c3e c03b 14bd 26e3 bc3d 98ea 43be
000000d0: c317 303e 3f99 00be 50df 9d3e e91e 33be
000000e0: c5ab 89bd cb3e b7be 1f2d 7c3e 9627 80be
000000f0: 051e bb3e a2fe fb3d 4080 bdbc 07b0 1cbe

actor.network.task_encoder.1.weight f4 [64]
0.9832274 1.0059993 0.99206185 1.0028378 0.996682 0.9826932 0.9950668 1.0061866
0.994378 1.0171062 1.0119052 1.0010768 0.99739003 0.9986652 1.0090641 1.005813
1.0033138 1.0005959 0.99812764 0.9929807 1.0001541 0.9919281 1.00672 0.99409866
1.0054638 1.0072316 0.99834394 1.021962 1.0083969 1.0121423 0.98739856 0.99332476
1.0044428 0.9820776 1.0022513 0.99944764 0.99895376 0.9889048 1.0036148 0.9874008
1.0012665 0.99998206 1.0090697 1.0075109 0.9988739 1.0135914 1.0006791 0.99859214
1.0032679 0.99075854 1.0056129 1.0074847 0.98543584 1.010879 1.0023141 1.0006567
1.0047305 1.0009456 0.99586093 1.0054755 0.99647576 1.0048823 0.9973696 0.9999701
00000000: cab4 7b3f 96c4 803f c4f7 7d3f fd5c 803f
00000010: 8d26 7f3f c891 7b3f b3bc 7e3f b9ca 803f
00000020: 8e8f 7e3f 8930 823f 1c86 813f 4923 803f
00000030: f454 7f3f 86a8 7f3f 0329 813f 7bbe 803f
00000040: 966c 803f 8713 803f 4b85 7f3f fc33 7e3f
00000050: 0d05 803f 00ef 7d3f 33dc 803f 407d 7e3f
00000060: 0ab3 803f f7ec 803f 7893 7f3f a7cf 823f
00000070: 2613 813f e18d 813f 27c6 7c3f 884a 7e3f
00000080: 9591 803f 7069 7b3f c549 803f cddb 7f3f
00000090: 6fbb 7f3f dd28 7d3f 7376 803f 4dc6 7c3f
000000a0: 8029 803f d3fe 7f3f 3229 813f 1ef6 803f
000000b0: 33b6 7f3f 5dbd 813f 4116 803f bca3 7f3f
000000c0: 156b 803f 5aa2 7d3f ecb7 803f 42f5 803f
000000d0: 8645 7c3f 7c64 813f d44b 803f 8515 803f
000000e0: 029b 803f fc1e 803f bef0 7e3f 6cb3 803f
000000f0: 0919 7f3f fc9f 803f 9d53 7f3f 0afe 7f3f

actor.network.task_encoder.1.bias f4 [64]
0.012418719 0.03716896 0.01845418 0.016366042 0.021227794 -0.017380482 -0.0035973084 0.008896637
-0.03612395 0.020857606 -0.0048464383 0.02532806 -0.020853803 -0.0075122546 -0.0011284549 0.005883993
-0.027340738 0.014125435 0.004597428 0.020717531 -0.012311929 -0.017651614 0.014504172 -0.016939651
-0.0052176346 0.0083686635 0.01880144 0.016007531 0.013167571 0.014707467 0.007371024 -0.018181704
-0.020414842 -0.014839 -0.021075103 -0.0198792 -0.009123848 0.00053385174 0.021526264 0.016009845
0.026541224 0.0024555898 0.011018449 -0.013161374 -0.0029176048 0.027824895 0.0017134334 0.011889894
-0.008087624 0.0069977874 0.05885173 -0.00031904312 0.0034671547 0.045059185 0.029924206 -0.020218521
0.017188573 -0.017179737 0.030085647 -0.014138713 -0.03317368 -0.019119546 -0.008042445 0.011958903
00000000: e277 4b3c 7b3e 183d 382d 973c 1412 863c
00000010: e9e5 ad3c 8361 8ebc d2c0 6bbb 33c3 113c
00000020: b5f6 13bd 92dd aa3c dfce 9ebb cb7c cf3c
00000030: 98d5 aabc 5c29 f6bb aae8 93ba 83ce c03b
00000040: aff9 dfbc 5e6e 673c 05a6 963b d0b7 a93c
00000050: f9b7 49bc 1e9a 90bc e8a2 6d3c 06c5 8abc
00000060: b1f8 aabb b81c 093c 7a05 9a3c 3a22 833c
00000070: ccbc 573c 96f7 703c a288 f13b ccf1 94bc
00000080: 073d a7bc 471f 73bc b2a5 acbc b4d9 a2bc
00000090: 317c 15bc 2ff2 0b3a d957 b03c 1427 833c
000000a0: fb6c d93c f6ed 203b ba86 343c cea2 57bc
000000b0: 4935 3fbb 09f1 e33c 4995 e03a d4cd 423c
000000c0: f481 04bc b24d e53b 830e 713d 3e45 a7b9
000000d0: 3439 633b fb8f 383d 9c23 f53c 50a1 a5bc
000000e0: 0dcf 8c3c 85bc 8cbc 2d76 f63c 0fa6 67bc
000000f0: 20e1 07bd 98a0 9cbc 76c4 03bc 46ef 433c

actor.network.task_encoder.1.running_mean f4 [64]
20951.219 -6502.723 -12540.306 404.03937 -10769.647 -8423.792 -10133.914 8924.782
12747.001 -2472.3188 16848.104 16541.742 -8610.896 43.853535 1525.9105 14247.115
3509.9988 13432.042 -2701.9119 -11059.353 11333.173 -12153.578 13798.54 -55.820377
14746.636 9026.191 -10054.654 5995.484 6741.832 5394.3 -14811.852 272.68823
2293.762 -16040.292 -18183.25 -775.0294 16772.951 153.81694 6262.435 7858.4775
-18426.752 311.9258 8259.415 19305.68 1348.4795 15495.743 -9331.337 -8084.946
-13420.086 -11813.521 -7117.984 14828.301 -4325.6 -20969.023 -20975.938 10649.744
-5577.9067 -11297.52 -20197.674 7215.4785 -3493.9375 14877.769 4616.019 -6079.183
00000000: 70ae a346 c935 cbc5 39f1 43c6 0a05 ca43
00000010: 9746 28c6 2b9f 03c6 a857 1ec6 2173 0b46
00000020: 012c 4746 1a85 1ac5 35a0 8346 7c3b 8146
00000030: 968b 06c6 056a 2f42 23bd be44 769c 5e46
00000040: fb5f 5b45 2be0 5146 97de 28c5 69cd 2cc6
00000050: b114 3146 50e6 3dc6 299a 5746 1148 5fc2
00000060: 8b6a 6646 c408 0d46 9e1a 1dc6 df5b bb45
00000070: a8ae d245 6692 a845 686f 67c6 1858 8843
00000080: 315c 0f45 2ba1 7ac6 800e 8ec6 e2c1 41c4
00000090: e709 8346 23d1 1943 7bb3 c345 d293 f545
000000a0: 81f5 8fc6 81f6 9b43 a90d 0146 5cd3 9646
000000b0: 588f a844 f91e 7246 59cd 11c6 91a7 fcc5
000000c0: 58b0 51c6 1696 38c6 df6f dec5 34b1 6746
000000d0: cd2c 87c5 0cd2 a3c6 e0df a3c6 fa66 2646
000000e0: 414f aec5 1486 30c6 59cb 9dc6 d47b e145
000000f0: 005f 5ac5 1377 6846 2740 9045 77f9 bdc5

actor.network.task_encoder.1.running_var f4 [64]
5.9476524e+07 5.729736e+06 2.1307334e+07 22135.914 1.5713852e+07 9.614261e+06 1.3914431e+07 1.0791831e+07
2.201731e+07 828548.25 3.8459056e+07 3.7074204e+07 1.0047203e+07 269.84427 315677.9 2.750408e+07
1.6692478e+06 2.4445226e+07 989109.94 1.6571311e+07 1.7402382e+07 2.0013102e+07 2.57992e+07 430.94485
2.9468222e+07 1.103831e+07 1.3697133e+07 4.870617e+06 6.158818e+06 3.9434892e+06 2.972625e+07 10096.877
712728.9 3.4861236e+07 4.479994e+07 81379.45 3.8120916e+07 3215.0056 5.3139845e+06 8.3674075e+06
4.600398e+07 13224.757 9.242916e+06 5.049975e+07 246338.61 3.2533632e+07 1.179714e+07 8.85728e+06
2.440277e+07 1.8909356e+07 6.8655875e+06 2.979263e+07 2.535295e+06 5.957626e+07 5.9618944e+07 1.5366811e+07
4.2155305e+06 1.729197e+07 5.527387e+07 7.055336e+06 1.6545329e+06 2.9992414e+07 2.8871298e+06 5.00699e+06
00000000: 8be2 624c 90db ae4a e38f a24b d4ef ac46
00000010: 3cc6 6f4b b5b3 124b 3f51 544b 97ab 244b
00000020: 8ffa a74b 4448 4a49 acb5 124c 476d 0d4c
00000030: e34e 194b 11ec 8643 bd23 9a48 e8d6 d14b
00000040: fec3 cb49 9580 ba4b 5f7b 7149 afdb 7c4b
00000050: 07c5 844b 17b0 984b 10d5 c44b f178 d743
00000060: 1fd3 e04b 666e 284b 6d00 514b b2a3 944a
00000070: c4f3 bb4a 05b1 704a 15cb e24b 82c3 1d46
00000080: 8e01 2e49 2dfc 044c f1e5 2a4c baf1 9e47
00000090: 756b 114c 17f0 4845 812b a24a 5f5a ff4a
000000a0: c37d 2f4c 07a3 4e46 2409 0d4b 2aa4 404c
000000b0: a790 7048 4036 f84b 9402 344b c026 074b
000000c0: a92d ba4b 5644 904b 6785 d14a bb4c e34b
000000d0: fcbd 1a4a f143 634c a06d 634c 9b7a 6a4b
000000e0: d5a5 804a 61ed 834b 64da 524c d04f d74a
000000f0: 27f8 c949 efd2 e44b 6737 304a 1ccd 984a

actor.network.task_encoder.3.weight f4 [64, 64]
-0.024039028 -0.103761554 0.02334946 -0.126147 -0.0685582 -0.09963486 0.030955492 0.044553522
0.115495734 -0.0331221 0.10736236 -0.08099588 -0.09404692 -0.09038193 0.007875737 -0.108665094
0.08860792 -0.09319195 0.03942786 -0.06958796 0.0064206957 -0.04740192 0.06408799 0.106190234
-0.118965454 -0.10258499 -0.024603656 0.009159116 0.123977005 0.05987543 -0.015105204 -0.11200385
0.031574436 -0.061745543 0.03457076 -0.057883892 -0.002553277 0.0776279 0.117045805 -0.10535081
-0.0903643 -0.047977697 0.0012208112 0.09090622 0.08014021 -0.0055978964 -0.082062796 0.09702042
-0.058056995 -0.070039324 0.04117858 0.0735719 0.02402194 -0.044941615 -0.06400751 -0.03245683
0.0772896 0.05596943 0.03940685 -0.007739087 0.047105044 0.020452652 -0.043869674 -0.0627484
0.032059103 -0.003600028 0.09188758 0.080293864 0.06670458 -0.100082755 -0.11909257 0.032140963
-0.029620111 -0.1277927 -0.07716281 -0.08296874 -0.08456413 0.0020044497 0.017836407 -0.09711531
-0.12896857 0.058539413 0.06572912 0.034394708 0.022131285 -0.023989506 -0.038806878 -0.034906033
-0.08351973 -0.11345473 0.072731405 -0.042854834 -0.01694404 -0.12734638 0.00042363448 -0.0060057184
-0.11097466 -0.110620685 -0.105856344 -0.12307041 0.07765647 -0.058494683 -0.05019276 0.05562124
0.028487785 0.007424924 -0.024357924 -0.022273714 -0.023564149 -0.06986309 0.007018424 0.04708639
-0.06985198 0.09190679 0.02474915 -0.05812989 0.043931104 0.04184481 0.04363475 -0.05444975
0.078641646 -0.0008191296 0.085809 -0.06512017 -0.045286987 0.02935562 -0.006507336 0.03777691
-0.059686147 -0.00014309159 0.12605247 -0.04681828 0.06595049 -0.114428945 0.07392106 0.09547473
0.005079119 -0.017538123 0.05171554 0.029632598 0.07102285 0.027523285 -0.0945723 -0.09217854
0.091417775 0.0024959822 0.10088017 0.071508 -0.0649353 -0.07717268 0.088576384 -0.03255489
0.078441165 -0.07685432 -0.0130654685 0.020388294 -0.0056242715 0.10166894 -0.0022705023 0.035255384
0.09833694 -0.11483859 0.033696685 0.09078147 -0.014719326 0.02129032 0.07951691 0.051095095
-0.027767386 0.107906096 -0.060990356 0.09160373 0.12330814 0.08946696 0.041277498 -0.057145126
0.1010203 -0.0011979695 -0.09274815 0.07816144 0.023957469 0.08899477 -0.025377728 0.014940377
0.04003464 -0.05717048 0.03843179 0.08865271 0.09439297 0.05096213 0.08996064 -0.028564516
-0.049027003 -0.034865476 0.09863446 -0.06295957 -0.09517472 0.033832792 -0.02239568 -0.07971893
-0.09840619 0.072917946 0.025518052 0.10007592 -0.10897826 0.10393676 -0.030643253 -0.010041875
0.04149279 -0.076083265 -0.052347653 -0.049775317 0.06840081 -0.11478114 0.02293249 -0.12560041
-0.047122337 -0.05035696 -0.07382478 -0.056551922 0.026362887 -0.08224906 -0.061608646 -0.07568119
0.008170254 -0.009550348 -0.08508738 -0.018544521 0.10133847 0.004212658 -0.08762593 -0.1219391
0.08837012 0.04272566 0.08401602 0.07705737 -0.031287964 0.0075342474 0.0032847037 0.025637705
-0.064965844 -0.14329816 0.10746999 0.061866224 -0.025252208 0.06841277 -0.058618825 -0.11901066
-0.008399255 -0.115710475 -0.090143286 0.089941956 -0.09795797 0.058844864 0.08613881 -0.111120276
00000000: 7fed c4bc f080 d4bd 5e47 bf3c ae2c 01be
00000010: 3e68 8cbd 5d0d ccbd 5f96 fd3c c17d 363d
00000020: 0789 ec3d 0aab 07bd cce0 db3d 2be1 a5bd
00000030: ac9b c0bd 291a b9bd 3c09 013c ce8b debd
00000040: 1278 b53d 6cdb bebd 1c7f 213d 2284 8ebd
00000050: b364 d23b 8428 42bd 9040 833d 447a d93d
00000060: 29a4 f3bd 1418 d2bd 9b8d c9bc 1e10 163c
00000070: a8e7 fd3d f03f 753d d17b 77bc 4662 e5bd
00000080: 3254 013d e5e8 7cbd 129a 0d3d a917 6dbd
00000090: e154 27bb 60fb 9e3d b6b5 ef3d 2ac2 d7bd
000000a0: eb10 b9bd 4384 44bd a003 a03a 0a2d ba3d
000000b0: 8d20 a43d 8f6e b7bb 8a10 a8bd a4b2 c63d
000000c0: 2ccd 6dbd c770 8fbd dfaa 283d ddac 963d
000000d0: a9c9 c43c b314 38bd 5f16 83bd 74f1 04bd
000000e0: 034a 9e3d 3340 653d 1469 213d 2b98 fdbb
000000f0: 38f1 403d 528c a73c b0b0 33bd 3c82 80bd
00000100: 6850 033d 73ee 6bbb 8e2f bc3d 1c71 a43d
00000110: 699c 883d 30f8 ccbd cee6 f3bd 3ea6 033d
00000120: e0a5 f2bc 17dc 02be 8907 9ebd 84eb a9bd
00000130: f52f adbd 165d 033b a81d 923c 64e4 c6bd
00000140: 5610 04be 06c7 6f3d fd9c 863d 77e1 0c3d
00000150: ab4c b53c a485 c4bc f6f3 1ebd a1f9 0ebd
00000160: 640c abbd f45a e8bd 34f4 943d 8d88 2fbd
00000170: 3ace 8abc 1767 02be 421b de39 9ecb c4bb
00000180: af46 e3bd 198d e2bd 36cb d8bd 570c fcbd
00000190: 5b0a 9f3d 1f98 6fbd ec96 4dbd 19d3 633d
000001a0: 375f e93c c74c f33b 458a c7bc 5d77 b6bc
000001b0: 9a09 c1bc 6114 8fbd cffa e53b a9dd 403d
000001c0: 8e0e 8fbd a139 bc3d bbbe ca3c 9c19 6ebd
000001d0: 1af1 333d 7765 2b3d 5aba 323d b306 5fbd
000001e0: df0e a13d dbba 56ba a1bc af3d b95d 85bd
000001f0: d97e 39bd 327b f03c 7e3b d5bb f6bb 1a3d
00000200: 7679 74bd db0a 16b9 e613 013e 86c4 3fbd
00000210: 0d11 873d b959 eabd ed63 973d 4188 c33d
00000220: bd6e a63b 1cac 8fbc add3 533d 10c0 f23c
00000230: 6e74 913d 8378 e13c 1faf c1bd 1ac8 bcbd
00000240: 3e39 bb3d a293 233b 439a ce3d c972 923d
00000250: ccfc 84bd b60c 9ebd 8967 b53d 4758 05bd
00000260: c3a5 a03d cc65 9dbd 8c10 56bc 5a05 a73c
00000270: cf4b b8bb ce37 d03d b5cc 14bb f367 103d
00000280: e164 c93d 7f30 ebbd 8905 0a3d a3eb b93d
00000290: 5429 71bc 0a69 ae3c c3d9 a23d 1749 513d
000002a0: 6e78 e3bc dffd dc3d 06d1 79bd bd9a bb3d
000002b0: fa88 fc3d 743a b73d 9812 293d 0211 6abd
000002c0: bbe3 ce3d 3005 9dba bef2 bdbd 1b13 a03d
000002d0: 7442 c43c e442 b63d f4e4 cfbc 7cc8 743c
000002e0: 5dfb 233d 982b 6abd a76a 1d3d 8d8f b53d
000002f0: 1a51 c13d abbd 503d 493d b83d 2200 eabc
00000300: 8ad0 48bd 1acf 0ebd dd00 ca3d f2f0 80bd
00000310: f7ea c2bd 4194 0a3d 2577 b7bc ae43 a3bd
00000320: 2f89 c9bd 0156 953d 3c0b d13c 9bf4 cc3d
00000330: fe2f dfbd ccdc d43d 8f07 fbbc ad86 24bc
00000340: 58f4 293d 8bd1 9bbd 7e6a 56bd 34e1 4bbd
00000350: b915 8c3d 6012 ebbd ebdc bb3c 659d 00be
00000360: 5a03 41bd 1a43 4ebd 7231 97bd fda2 67bd
00000370: fbf6 d73c 3272 a8bd 5959 7cbd bdfe 9abd
00000380: 87dc 053c 1079 1cbc 4b42 aebd aeea 97bc
00000390: 8b8a cf3d 560a 8a3b 3975 b3bd 35bb f9bd
000003a0: 65fb b43d 1a01 2f3d 9710 ac3d 41d0 9d3d
000003b0: cf27 00bd d9e1 f63b 2f44 573b 2a06 d23c
000003c0: d00c 85bd c1bc 12be 3a19 dc3d 7067 7d3d
000003d0: b8dd cebc ff1b 8c3d 4b1a 70bd dcbb f3bd
000003e0: 079d 09bc 9df9 ecbd 0b9d b8bd 7d33 b83d
000003f0: 309e c8bd 5007 713d 8b69 b03d 0793 e3bd

actor.network.task_encoder.3.bias f4 [64]
-0.0027415673 -0.1147762 -0.11714137 0.12161647 -0.08374072 0.09321378 -0.097193874 -0.054546226
-0.042723514 0.05758306 0.097508386 -0.0113086635 0.08311855 -0.06628774 0.08926864 -0.09183265
0.081007436 0.05814293 0.05689946 -0.032781903 0.095856726 -0.0028168566 0.097138435 0.0010152739
0.038530577 0.10951027 -0.11422472 -0.06814338 -0.008768121 -0.07339032 -0.005865938 -0.031989146
0.05478528 -0.08620713 -0.083737016 0.007034052 -0.0933035 0.06300794 -0.0674473 -0.065382786
-0.09264027 -0.023027109 0.049248405 0.0972455 -0.02572307 -0.09124809 -0.07297441 0.1149843
-0.027879806 0.062720194 -0.09178121 -0.1212399 -0.091022745 0.021617832 -0.090907864 0.10328325
-0.009350863 0.116653755 -0.09011153 0.024550287 -0.0979527 -0.041123375 -0.09337415 -0.031404972
00000000: deab 33bb c90f ebbd d1e7 efbd 0e12 f93d
00000010: 4180 abbd dee6 be3d 950d c7bd dd6b 5fbd
00000020: dafe 2ebd 37dc 6b3d 7ab2 c73d f947 39bc
00000030: 0f3a aa3d dec1 87bd 7ad2 b63d c212 bcbd
00000040: 3ae7 a53d 4827 6e3d 680f 693d 5146 06bd
00000050: 8850 c43d 039b 38bb 84f0 c63d f012 853a
00000060: 3dd2 1d3d ec46 e03d a6ee e9bd c28e 8bbd
00000070: 2aa8 0fbc aa4d 96bd 0e37 c0bb 0d07 03bd
00000080: 8866 603d 5d8d b0bd 507e abbd e87d e63b
00000090: e815 bfbd 4f0a 813d cf21 8abd 69e7 85bd
000000a0: 2fba bdbd 59a3 bcbc b2b8 493d a628 c73d
000000b0: 30b9 d2bc 47e0 babd 9c73 95bd e47c eb3d
000000c0: 3164 e4bc 7273 803d c9f7 bbbd a04c f8bd
000000d0: 226a babd e117 b13c e72d babd 2b86 d33d
000000e0: 5d34 19bc 2ae8 ee3d 658c b8bd af1d c93c
000000f0: 6d9b c8bd fc70 28bd f23a bfbd 80a2 00bd

actor.network.task_encoder.4.weight f4 [64]
1.0001584 0.9990741 0.9984785 0.9914048 0.9985065 0.9952217 0.98993087 0.99960023
0.9908054 0.99881464 0.9817897 0.9897708 1.0003502 1.0026995 0.99733543 0.98713106
1.0064095 1.0054427 1.0084376 0.9999061 1.0041189 0.9913137 0.9953971 0.9987029
1.0027099 1.0046889 1.0047531 0.98919606 1.0035275 0.9908042 0.990879 0.98961955
0.9922103 0.99772114 1.0022703 1.0046937 0.99011517 0.9916829 0.9973666 1.002589
0.99281716 0.9943427 0.9824029 1.0029247 0.9932954 0.9965199 0.9989182 0.99213237
0.9915104 0.9887448 1.0043877 0.99621403 0.99810845 0.99507207 1.0041399 0.99461174
0.99202937 0.9886231 1.0017018 1.0039985 0.99253476 0.9996962 0.99143714 0.9982027
00000000: 3105 803f 52c3 7f3f 499c 7f3f b4cc 7d3f
00000010: 1f9e 7f3f d9c6 7e3f 1c6c 7d3f cde5 7f3f
00000020: 6ca5 7d3f 51b2 7f3f 9256 7b3f 9f61 7d3f
00000030: 7a0b 803f 7558 803f 6051 7f3f 9fb4 7c3f
00000040: 07d2 803f 59b2 803f 7c14 813f d9f9 7f3f
00000050: f886 803f bcc6 7d3f 58d2 7e3f feaa 7f3f
00000060: cc58 803f a599 803f c09b 803f f43b 7d3f
00000070: 9773 803f 58a5 7d3f 3faa 7d3f b557 7d3f
00000080: 7f01 7e3f a76a 7f3f 654a 803f ce99 803f
00000090: 3078 7d3f eede 7d3f 6b53 7f3f d654 803f
000000a0: 4429 7e3f 3e8d 7e3f c27e 7b3f d65f 803f
000000b0: 9b48 7e3f ee1b 7f3f 1ab9 7f3f 63fc 7d3f
000000c0: a0d3 7d3f 611e 7d3f c78f 803f e207 7f3f
000000d0: 0984 7f3f 0bbd 7e3f a887 803f e09e 7e3f
000000e0: a3f5 7d3f 6716 7d3f c437 803f 0683 803f
000000f0: c216 7e3f 17ec 7f3f d3ce 7d3f 368a 7f3f

actor.network.task_encoder.4.bias f4 [64]
0.0014761068 -0.0006077881 -0.012538401 0.00547441 -0.01036602 -0.0008031108 -0.013575234 0.00075465743
0.00056055444 -0.008723585 -0.009371268 -0.0066287005 -0.025016291 -0.0027371428 -0.010696005 0.0033304119
-0.0006726131 -0.003218421 -0.00088484917 -0.0032164443 -0.013054455 -0.016012538 -0.0013885647 -0.0087041175
-0.0068841875 0.0016026585 -0.0036360181 -0.01685393 -0.0018738711 0.0035187448 -0.0010862763 -0.009447561
-0.006537097 -0.0042369603 0.0026185026 -0.0027198966 -0.010437884 -0.010681459 -0.0021519582 0.00027308892
-0.02215051 -0.012185465 -0.009989512 0.0014252824 -0.01136031 -0.0009260812 -0.013730848 -0.00587248
-0.0077760727 -0.0069548516 -0.01802911 -0.005779498 -5.105393e-05 -0.022252876 -0.009002252 -0.0057404144
-0.004369111 -0.016356202 -0.0072768773 -0.01754503 -0.007011308 -0.0015991596 -0.014825687 0.0016730902
00000000: ed79 c13a f853 1fba de6d 4dbc ae62 b33b
00000010: 3dd6 29bc da87 52ba a96a 5ebc 34d4 453a
00000020: 2cf2 123a 5eed 0ebc f289 19bc 9235 d9bb
00000030: f7ee ccbc a361 33bb 4c3e 2fbc 0a43 5a3b
00000040: 4d52 30ba 25ec 52bb 39f5 67ba fbca 52bb
00000050: 5ae2 55bc ba2c 83bc 8000 b6ba b79b 0ebc
00000060: c094 e1bb 4c10 d23a 434a 6ebb 4111 8abc
00000070: ae9c f5ba be9a 663b 6261 8eba f1c9 1abc
00000080: 2535 d6bb 33d6 8abb 2f9b 2b3b 4b40 32bb
00000090: a903 2bbc 4901 2fbc de07 0dbb 602d 8f39
000000a0: fd74 b5bc 8ba5 47bc 0dab 23bc 8bd0 ba3a
000000b0: 9820 3abc 42c4 72ba 5af7 60bc ef6d c0bb
000000c0: 6dce febb 86e5 e3bb c9b1 93bc f161 bdbb
000000d0: bd22 56b8 aa4b b6bc 2e7e 13bc 161a bcbb
000000e0: c22a 8fbb 71fd 85bc df72 eebb 98ba 8fbc
000000f0: 1dbf e5bb e49a d1ba 70e7 72bc 974b db3a

actor.network.task_encoder.4.running_mean f4 [64]
-0.20730315 -0.5163721 0.4655296 -0.3124634 -0.43784335 -0.47982228 -0.87901264 0.15952772
-0.36552936 -0.48652804 0.570798 -0.39053044 0.4879061 0.3152076 -0.6005693 -0.03940344
-0.28573993 -0.31263813 -0.61081815 0.24810569 -0.2502662 -0.47206506 0.102816604 0.48107073
-0.5568072 0.76697266 -0.5705556 0.2436178 0.40348047 -0.6293569 -0.34049916 -0.19526906
-0.28659093 0.44392425 0.47663015 0.4771206 0.011276691 -0.23289683 -0.14076558 0.6016236
0.42845854 -0.7131371 -0.043221034 -0.40650624 -0.31624797 -0.23356521 -0.52263033 0.3964515
-0.2339735 -0.32491228 -0.7149729 -0.47421542 -0.09331195 -0.55031836 0.5578704 0.41769606
0.050003026 0.41579953 -0.64573914 -0.6225959 -0.38539022 -0.41695082 -0.47578198 0.039859682
00000000: 4747 54be f630 04bf e559 ee3e 34fb 9fbe
00000010: 012d e0be 44ab f5be f906 61bf 3c5b 233e
00000020: aa26 bbbe 341a f9be d11f 123f 9bf3 c7be
00000030: d4ce f93e e462 a13e e9be 19bf 8065 21bd
00000040: 814c 92be 1b12 a0be 945e 1cbf 6b0f 7e3e
00000050: e422 80be 83b2 f1be 8391 d23d e74e f63e
00000060: eb8a 0ebf 5258 443f ef0f 12bf f276 793e
00000070: fe94 ce3e 891d 21bf e855 aebe 9df4 47be
00000080: 0cbc 92be 0a4a e33e de08 f43e 2749 f43e
00000090: dfc1 383c 827c 6ebe da24 10be 0104 1a3f
000000a0: eb5e db3e 2790 36bf 8a08 31bd 9621 d0be
000000b0: 41eb a1be b82b 6fbe 1acb 05bf b1fb ca3e
000000c0: c096 6fbe e75a a6be 7708 37bf 5dcc f2be
000000d0: 561a bfbd aae1 0cbf 98d0 0e3f 42dc d53e
000000e0: f9cf 4c3d ade3 d43e 294f 25bf 7262 1fbf
000000f0: de51 c5be 947a d5be b299 f3be e843 233d

actor.network.task_encoder.4.running_var f4 [64]
0.14307028 0.20183504 0.21371782 0.53114164 0.08021669 0.21636489 0.61563873 0.24938595
0.25445727 0.42430243 0.12990285 0.10545998 0.10124714 0.2439265 0.871034 0.33508807
0.51181877 0.14027138 0.7321837 0.08032833 0.081957415 0.21989816 0.18394351 0.2940684
0.40302736 1.0101095 0.87090063 0.38331473 0.1452009 0.27412024 0.09424358 0.3465479
0.3947865 0.17492135 0.53792274 0.31030753 0.17897952 0.2681214 0.19438866 0.24818657
0.15520214 0.6900866 0.16966602 1.1038961 0.39829195 0.17845361 0.13699904 0.38908112
0.5335314 0.28971365 0.21518236 0.22181757 0.31585222 0.2700201 0.36940402 0.13357617
0.12306747 0.12554419 0.49920565 0.637199 0.3865894 0.18123387 0.13562277 0.10666723
00000000: 0481 123e d8ad 4e3e d8d8 5a3e e6f8 073f
00000010: a648 a43d c28e 5d3e 809a 1d3f 085f 7f3e
00000020: 3948 823e 2b3e d93e 4105 053e 67fb d73d
00000030: a95a cf3d dec7 793e 16fc 5e3f aa90 ab3e
00000040: 8e06 033f 4da3 0f3e 6470 3b3f 2e83 a43d
00000050: 4ad9 a73d fc2c 613e b05b 3c3e 2290 963e
00000060: 9a59 ce3e 454b 813f 58f3 5e3f d441 c43e
00000070: 8baf 143e 7d59 8c3e c702 c13d ba6e b13e
00000080: 7521 ca3e 951e 333e 4eb5 093f a1e0 9e3e
00000090: 6846 373e 3547 893e d20d 473e 9f24 7e3e
000000a0: 4fed 1e3e 84a9 303f eebc 2d3e 784c 8d3f
000000b0: ecec cb3e 8bbc 363e 7a49 0c3e a435 c73e
000000c0: 8495 083f 5955 943e c458 5c3e 2524 633e
000000d0: 62b7 a13e 1340 8a3e 8622 bd3e 31c8 083e
000000e0: cc0a fc3d a88e 003e e297 ff3e 791f 233f
000000f0: 0cef c53e 5f95 393e b2e0 0a3e 5974 da3d

actor.network.task_encoder.6.weight f4 [32, 64]
0.10648119 0.08747133 -0.11931014 0.0023072984 -0.008829518 0.07206211 0.057371505 0.04445778
0.09970735 0.045239475 0.027505038 0.004185845 0.04824203 0.06647322 -0.026753996 -0.071954586
-0.08388221 -0.08091704 0.08996005 -0.045773674 -0.07257638 -0.031855468 0.03645278 -0.07235785
-0.019847514 -0.042914804 0.03013389 0.05417437 0.078400865 -0.07320506 0.0778934 -0.03915178
0.0049399836 0.030725218 0.086846806 -0.11629158 -0.06542857 -0.0039188256 0.0058024526 -0.06664036
-0.010210024 -0.13400905 -0.0042244764 -0.11494801 0.11480822 0.048280828 0.06415088 0.03692708
0.053184297 0.08888004 0.045309614 -0.035222773 -0.047038443 0.089076385 -0.012211584 -0.00044962723
0.11261239 -0.08942408 0.0626223 0.047710467 -0.03978312 -0.046623573 0.05361391 -0.0862952
0.08323289 0.1068138 -0.11619699 -0.11371814 0.12616077 0.03637525 0.050708983 -0.07516943
-0.016544623 0.011599955 -0.017658433 -0.028835451 0.04963399 -0.03020808 -0.04589448 0.00010117731
-0.004302984 -0.03411337 -0.12873225 0.10067059 0.08382861 -0.075520635 0.03974514 0.09642065
-0.10639506 -0.023521097 0.12741838 0.0014577502 -0.011325163 0.042643253 -0.03735593 -0.09776191
-0.11148442 0.09283559 -0.014667894 -0.072772376 -0.046846833 0.094471134 -0.11734167 -0.008329276
-0.00435919 -0.044876408 0.049888633 0.07729353 0.09367477 -0.11061288 0.08765524 0.0077215717
-0.08783523 -0.027464764 0.07722479 0.057877656 -0.040581945 0.007643756 0.108458675 -0.05450298
-0.13562419 -0.06262648 0.063721225 0.075732924 0.055169884 0.078967236 0.072823144 0.08279
0.029098693 -0.009908012 0.10193589 -0.08435362 0.012769473 0.007402682 0.057269882 0.059120145
-0.118620254 -0.09343278 0.02505947 -0.015297278 -0.07487649 -0.09745554 0.051573012 -0.03923002
0.062096056 -0.1037233 0.01551987 0.013081526 -0.025766838 -0.05955862 0.07654489 -0.07956714
0.047478497 0.07740897 0.060757842 0.018203793 -0.006304805 0.055193696 0.051865257 -0.017809939
-0.074697524 0.031052949 0.050925557 -0.021959195 0.09382345 -0.056832355 0.038550626 -0.06596802
-0.030880205 0.045567848 -0.042706043 -0.076080605 -0.06815587 0.029161915 0.023554215 0.032574024
-0.1169887 0.124418154 0.0522263 -0.059111465 0.09676974 -0.020268027 0.044553507 -0.05826997
0.11709476 -0.0403014 -0.01918651 0.03162664 0.05031587 -0.040704496 0.037803914 3.498765e-05
0.029815802 -0.049285296 0.034393966 0.048785623 -0.07944441 -0.06097073 0.04839446 -0.09468106
0.019349985 -0.07747926 0.00014221075 0.1005568 -0.117547505 -0.118294284 0.018695509 0.08515919
0.074877754 -0.011542228 0.13102734 -0.10108081 0.1326 -0.11621646 -0.06853199 0.0054960237
-0.0996431 0.07297411 0.050083518 0.0069730263 0.12580737 0.009665448 0.118106365 0.06500329
0.09537373 -0.06476295 -0.12001017 0.044950422 -0.11091524 -0.01140125 -0.09095941 0.09708911
0.014314867 -0.08142221 0.006701151 -0.0011079605 -0.051941138 0.02979342 0.1241424 0.05331922
-0.033373825 -0.05780618 0.048858777 -0.06001567 0.028145486 -0.022191793 0.055657245 -0.03071051
-0.060461268 0.07781634 -0.01877644 -0.039795313 0.036566835 -0.046622057 -0.017972415 0.099820346
00000000: cf12 da3d 2b24 b33d e058 f4bd 0b36 173b
00000010: afa9 10bc 4d95 933d 62fe 6a3d 5c19 363d
00000020: 5e33 cc3d 074d 393d 3f52 e13c 6a29 893b
00000030: 6f99 453d 1d23 883d 322b dbbc ed5c 93bd
00000040: 70ca abbd d5b7 a5bd fa3c b83d 2d7d 3bbd
00000050: eda2 94bd e17a 02bd 834f 153d 5a30 94bd
00000060: 4197 a2bc 6fc7 2fbd 59db f63c f2e5 5d3d
00000070: a290 a03d 89ec 95bd 9386 9f3d 9e5d 20bd
00000080: 96df a13b 74b3 fb3c bddc b13d 482a eebd
00000090: 6aff 85bd 7e69 80bb 8022 be3b be7a 88bd
000000a0: f247 27bc ab39 09be 7a6d 8abb dd69 ebbd
000000b0: 9220 eb3d 1ec2 453d 8961 833d da40 173d
000000c0: c7d7 593d bd06 b63d 9396 393d c145 10bd
000000d0: 62ab 40bd ae6d b63d 1813 48bc f2bb ebb9
000000e0: 53a1 e63d f923 b7bd 1f40 803d 0d6c 433d
000000f0: a0f3 22bd 5cf8 3ebd 429a 5b3d 8abb b0bd
00000100: 0176 aa3d 32c1 da3d b0f8 edbd 0ee5 e8bd
00000110: 4a30 013e 37fe 143d 39b4 4f3d 6ef2 99bd
00000120: 9788 87bc bd0d 3e3c 6ba8 90bc 5338 ecbc
00000130: 034d 4b3d ef76 f7bc dafb 3bbd 282f d438
00000140: 0c00 8dbb 76ba 0bbd 63d2 03be 622c ce3d
00000150: 56ae ab3d 90aa 9abd cdcb 223d 3178 c53d
00000160: a7e5 d9bd 51af c0bc f779 023e fb11 bf3a
00000170: 2d8d 39bc b1aa 2e3d 8802 19bd 6537 c8bd
00000180: f251 e4bd 9620 be3d 9b51 70bc af09 95bd
00000190: 77e2 3fbd 157a c13d d450 f0bd 8477 08bc
000001a0: 89d7 8ebb 53d0 37bd 0658 4c3d 124c 9e3d
000001b0: 8fd8 bf3d 0189 e2bd 9784 b33d 3d05 fd3b
000001c0: f5e2 b3bd c9fd e0bc 0828 9e3d 1f11 6d3d
000001d0: 4139 26bd 7978 fa3b 951f de3d 843e 5fbd
000001e0: 11e1 0abe 5042 80bd 4680 823d dd19 9b3d
000001f0: d1f9 613d 93b9 a13d 4d24 953d ce8d a93d
00000200: 6260 ee3c 3755 22bc c4c3 d03d 97c1 acbd
00000210: 0d37 513c 3392 f23b d393 6a3d f727 723d
00000220: 2def f2bd af59 bfbd 8549 cd3c 6fa1 7abc
00000230: d858 99bd c596 c7bd 393e 533d a8af 20bd
00000240: 6f58 7e3d e26c d4bd 0e47 7e3c e653 563c
00000250: fa14 d3bc bdf3 73bd 91c3 9c3d 19f4 a2bd
00000260: d078 423d 9888 9e3d 37dd 783d 1f20 953c
00000270: 8a98 cebb c912 623d aa70 543d 26e6 91bc
00000280: 04fb 98bd c162 fe3c 5197 503d c5e3 b3bc
00000290: 8226 c03d 0bc9 68bd 43e7 1d3d 3e1a 87bd
000002a0: 7cf8 fcbc 5aa5 3a3d 88ec 2ebd 26d0 9bbd
000002b0: 4e95 8bbd f8e4 ee3c c5f4 c03c 576c 053d
000002c0: c697 efbd f2ce fe3d 3feb 553d dd1e 72bd
000002d0: 372f c63d 2209 a6bc bd7d 363d 7eac 6ebd
000002e0: 61cf ef3d 1513 25bd 072d 9dbc f08a 013d
000002f0: 0418 4e3d c2b9 26bd 47d8 1a3d b4bf 1238
00000300: 4540 f43c 61df 49bd b0e0 0c3d 6fd3 473d
00000310: c0b3 a2bd 72bc 79bd 4539 463d 25e8 c1bd
00000320: dc83 9e3c 72ad 9ebd 681e 1539 b9f0 cd3d
00000330: bfbc f0bd 4644 f2bd 5327 993c f167 ae3d
00000340: 8259 993d 9d1b 3dbc 082c 063e 7503 cfbd
00000350: 4bc8 073e e502 eebd 805a 8cbd fd17 b43b
00000360: ae11 ccbd 7373 953d 6024 4d3d fc7d e43b
00000370: a6d3 003e d45b 1e3c c0e1 f13d 7220 853d
00000380: 4d53 c33d 70a2 84bd e4c7 f5bd ef1d 383d
00000390: 8827 e3bd 4fcc 3abc ed48 babd a8d6 c63d
000003a0: e788 6a3c b0c0 a6bd 5495 db3b fc38 91ba
000003b0: 3bc0 54bd 5511 f43c 5f3e fe3d 4165 5a3d
000003c0: feb2 08bd 2cc6 6cbd 2420 483d fed2 75bd
000003d0: 5d91 e63c 90cb b5bc daf8 633d 9c94 fbbc
000003e0: 3ca6 77bd 2c5e 9f3d 0cd1 99bc 6900 23bd
000003f0: 1bc7 153d c5f6 3ebd e33a 93bc 9c6e cc3d

actor.network.task_encoder.6.bias f4 [32]
0.030053124 -0.023388866 0.075741895 -0.057141013 0.11451764 0.11498386 -0.032190938 0.06483532
-0.017374612 0.07166718 0.09172014 -0.018935084 -0.023583392 -0.06179367 -0.05735445 0.069686435
0.0023412055 0.087913215 0.026177773 -0.111692354 0.05915318 -0.060592074 0.09581021 0.07135346
0.044272922 -0.119021215 0.11461858 -0.09612744 -0.0001861534 0.118159026 -0.02793464 -0.0154930595
00000000: f831 f63c 029a bfbc 911e 9b3d b20c 6abd
00000010: 3988 ea3d a87c eb3d a5da 03bd 61c8 843d
00000020: 3455 8ebc 3ec6 923d c5d7 bb3d c01d 9bbc
00000030: f531 c1bc 5c1b 7dbd 80ec 6abd c3b7 8e3d
00000040: e96e 193b d80b b43d c572 d63c f6be e4bd
00000050: 9b4a 723d 652f 78bd 2538 c43d c321 923d
00000060: 8657 353d 65c1 f3bd 25bd ea3d 77de c4bd
00000070: 2c32 43b9 5cfd f13d 30d7 e4bc 9ad6 7dbc

actor.network.vm_encoder.0.weight f4 [64, 10]
0.27191368 -0.038379118 -0.24380851 0.26313868 0.31903777 -0.23955333 -0.18543924 0.070802756
0.19704778 0.21616644 0.24592769 0.020683916 0.16267881 -0.025505392 0.28642485 -0.0031085305
0.027981183 -0.16651706 -0.021050021 -0.22546524 -0.11242532 0.010398039 0.19840203 0.023973592
-0.020729601 0.17268686 -0.21658227 -0.24385382 0.13851275 -0.3083185 -0.2962927 -0.2824473
0.24180876 -0.023859346 0.18874352 -0.07395598 0.3056922 -0.17031777 0.21707429 0.24867071
-0.18925084 0.04461354 -0.18343715 -0.09870484 0.09433431 0.27682653 -0.036608137 -0.3214097
-0.28174654 0.093470536 -0.28488642 -0.14179944 0.044890404 -0.13582154 -0.066047765 -0.13012648
-0.27570397 0.2743953 -0.21212447 -0.03902343 -0.14145957 0.070283905 0.2996285 0.038031407
-0.041112095 -0.26634133 -0.08678817 -0.10105047 -0.23738001 0.1874454 0.1634273 -0.2799475
0.2557651 0.048260454 -0.27439913 -0.16897412 -0.031167578 0.02363742 0.17729734 -0.29658386
0.30124924 0.06597334 0.23397948 -0.05763681 -0.040870942 -0.2422904 -0.051843397 0.078463
-0.13384663 -0.077931404 0.123438805 0.2217423 0.285199 -0.17030929 -0.015058508 -0.08656638
-0.3142288 0.13202566 0.17272562 0.08895042 0.062426195 -0.09403413 -0.12471095 0.116730526
-0.10130145 -0.118697226 0.2681032 -0.24285525 -0.024357673 0.009901113 0.30046988 -0.13386156
0.22249427 -0.10553917 0.0898603 0.005764303 -0.31615463 -0.03847176 -0.2205522 0.062062137
-0.19723079 -0.28766033 -0.20899364 -0.03872755 0.047362965 -0.08898375 0.25977898 -0.27975875
0.294135 -0.021378456 -0.3281445 -0.075168625 0.22998083 0.2948541 -0.28889412 -0.06532204
0.06204108 0.26683098 -0.044149935 -0.27835968 -0.010293676 0.30337152 -0.21696147 0.17785536
0.24258049 -0.07743317 0.3051977 0.04300858 -0.15944904 0.1872003 -0.23067784 0.21102022
-0.0029839939 0.21824439 -0.23307772 -0.14863569 0.25541016 0.20878555 0.26136532 -0.01646435
0.056242935 -0.13442878 0.15610024 -0.26641515 0.09999542 -0.0770344 0.026428092 -0.12550311
-0.2568116 -0.18622893 -0.23040067 0.23945656 0.07397601 0.18006198 -0.055645667 -0.13482459
-0.2524594 0.337896 -0.22268759 -0.027214691 -0.22063427 -0.2907635 -0.2096464 -0.14125635
0.1212531 0.17404148 -0.07535766 -0.08920961 0.088833936 0.056544743 0.05659992 0.18855532
0.27507997 -0.022855796 -0.28163433 -0.24617031 -0.18042399 -0.21584082 -0.08589148 0.28440136
-0.2427504 -0.026432622 0.25498065 -0.1403774 -0.27021712 0.088390194 0.24789178 -0.18748234
0.09262237 -0.06896777 -0.021995299 -0.14873454 0.14508845 -0.15793467 -0.20202525 0.16414055
-0.23767884 0.060868416 -0.08951882 -0.21007912 0.08386284 0.29832432 -0.19662976 0.11119235
0.16573112 0.28728223 0.07365761 -0.15112057 -0.117790185 -0.28171644 -0.28122383 0.2660539
0.11561529 0.13656513 0.16068386 -0.1645744 0.28315276 0.058216814 0.21124384 0.10762385
0.044995274 -0.044839226 -0.29984036 0.28236052 0.18363588 0.3136715 0.049431663 0.11114911
0.17355423 0.017889852 -0.23388445 0.29219505 0.23715612 -0.04543574 0.24536048 -0.11655269
00000000: 4538 8b3e 6c33 1dbd f0a8 79be 1dba 863e
00000010: eb58 a33e 784d 75be c9e3 3dbe 0901 913d
00000020: e5c6 493e bc5a 5d3e 78d4 7b3e 5171 a93c
00000030: 4695 263e aff0 d0bc 47a6 923e 7db8 4bbb
00000040: cb38 e53c 7383 2abe 1871 acbc 5ce0 66be
00000050: 3f3f e6bd 895c 2a3c e729 4b3e 4464 c43c
00000060: 20d1 a9bc d3d4 303e bec7 5dbe d1b4 79be
00000070: 49d6 0d3e ecdb 9dbe adb3 97be ef9c 90be
00000080: b79c 773e ad74 c3bc fb45 413e 3c76 97bd
00000090: b083 9c3e c867 2ebe b948 5e3e 89a3 7e3e
000000a0: f9ca 41be b0bc 363d f3d6 3bbe c325 cabd
000000b0: 5932 c13d 35bc 8d3e 6af2 15bd d08f a4be
000000c0: 1541 90be 7b6d bf3d a2dc 91be df33 11be
000000d0: 00df 373d cd14 0bbe 0d44 87bd e03f 05be
000000e0: 1229 8dbe 8a7d 8c3e 2837 59be 08d7 1fbd
000000f0: c7da 10be 02f1 8f3d e868 993e d2c6 1b3d
00000100: 2865 28bd e45d 88be ffbd b1bd 8cf3 cebd
00000110: bf13 73be b0f1 3f3e 7c59 273e 4755 8fbe
00000120: a5f3 823e c1ac 453d 0b7e 8cbe 8d07 2dbe
00000130: 2653 ffbc 43a3 c13c 6f8d 353e d7d9 97be
00000140: 573d 9a3e 081d 873d 5198 6f3e 9314 6cbd
00000150: 4a68 27bd fa1a 78be be59 54bd 36b1 a03d
00000160: 170f 09be 809a 9fbd 7ccd fc3d 6a10 633e
00000170: 9a05 923e 8f65 2ebe f6b7 76bc b749 b1bd
00000180: 99e2 a0be bc31 073e fcde 303e a32b b63d
00000190: 9cb2 7f3d f794 c0bd 7468 ffbd 6a10 ef3d
000001a0: 2277 cfbd 8817 f3bd d344 893e 0caf 78be
000001b0: be89 c7bc 4738 223c 30d7 993e 0113 09be
000001c0: 8ad5 633e ec24 d8bd ad08 b83d 7ae2 bc3b
000001d0: 05df a1be 9094 1dbd 70d8 61be de34 7e3d
000001e0: def6 49be 3748 93be 6e02 56be c8a0 1ebd
000001f0: abff 413d 1d3d b6bd c001 853e 8a3c 8fbe
00000200: dd98 963e df21 afbc 8e02 a8be 02f2 99bd
00000210: 1880 6b3e 1ef7 963e eee9 93be 90c7 85bd
00000220: ca1e 7e3d 129e 883e 90d6 34bd 2985 8ebe
00000230: cea6 28bc 8353 9b3e 262b 5ebe b71f 363e
00000240: 0567 783e 4895 9ebd df42 9c3e c429 303d
00000250: 9c46 23be 6fb1 3f3e d036 6cbe af15 583e
00000260: 1c8f 43bb 757b 5f3e edab 6ebe f433 18be
00000270: 1fc5 823e e1cb 553e add1 853e 3fe0 86bc
00000280: fe5e 663d b3a7 09be bed8 1f3e 9167 88be
00000290: 66ca cc3d 36c4 9dbd ba7f d83c e383 00be
000002a0: cf7c 83be ccb2 3ebe 27ee 6bbe 1a34 753e
000002b0: bc80 973d 2b62 383e b6ec 63bd 750f 0abe
000002c0: 5c42 81be b400 ad3e 3708 64be 58f1 debc
000002d0: f3ed 61be f4de 94be 8cad 56be 81a5 10be
000002e0: 8c53 f83d ee37 323e 1e55 9abd 87b3 b6bd
000002f0: 91ee b53d 769b 673d 51d5 673d a514 413e
00000300: 48d7 8c3e 143c bbbc 6032 90be 1214 7cbe
00000310: 11c1 38be 6005 5dbe dfe7 afbd 0e9d 913e
00000320: 9093 78be 3a89 d8bc d38c 823e 18bf 0fbe
00000330: e659 8abe eb05 b53d 58d7 7d3e 5ffb 3fbe
00000340: ccb0 bd3d f93e 8dbd 7c2f b4bc de4d 18be
00000350: 1192 143e a0b9 21be b5df 4ebe 7614 283e
00000360: 1562 73be 2951 793d a555 b7bd fb1e 57be
00000370: 48c0 ab3d f7bd 983e 5059 49be d1b8 e33d
00000380: 6bb5 293e a816 933e cdd9 963d 5abf 1abe
00000390: fb3b f1bd 233d 90be 92fc 8fbe 3738 883e
000003a0: b6c7 ec3d bbd7 0b3e 4f8a 243e 3186 28be
000003b0: 66f9 903e c174 6e3d 4e50 583e e569 dc3d
000003c0: f74c 383d 56a9 37bd ad84 99be 8f91 903e
000003d0: 0b0b 3c3e 8d99 a03e db78 4a3d 25a2 e33d
000003e0: 33b8 313e bd8d 923c 687f 6fbe 979a 953e
000003f0: 0ed9 723e d41a 3abd c73f 7b3e 2db3 eebd

actor.network.vm_encoder.0.bias f4 [64]
-0.20583695 -0.15009099 0.27778992 -0.1814105 -0.08055023 -0.103258334 0.111724176 0.2802762
-0.08727778 -0.29395467 -0.31295526 -0.2163521 0.13429227 0.07025344 -0.16846126 -0.16382109
0.05203006 -0.31520405 0.21894233 -0.091530934 -0.21075357 -0.06289367 0.15388183 0.20559557
-0.2486283 0.25199464 0.23574628 -0.23699541 0.14661753 0.15250407 -0.085271 -0.014113386
-0.16035743 -0.03336209 -0.30631736 0.19472669 0.31234536 0.21966673 -0.12609588 -0.20674278
0.051408846 0.28605872 -0.24722178 -0.26188815 -0.21064961 0.16580793 0.009867453 0.020945728
0.24709901 -0.13040027 -0.22347282 -0.1414184 -0.028936427 -0.17003037 -0.026523283 0.07911237
0.30062836 0.01942511 0.101113886 0.22465533 0.066032305 0.28981385 0.26338062 0.2983721
00000000: ecc6 52be 74b1 19be 7b3a 8e3e adc3 39be
00000010: 85f7 a4bd 1b79 d3bd a5cf e43d 5d80 8f3e
00000020: b1be b2bd 3a81 96be ac3b a0be 688b 5dbe
00000030: ea83 093e 09e1 8f3d 1c81 2cbe b7c0 27be
00000040: 791d 553d 6d62 a1be 6b32 603e 9274 bbbd
00000050: c9cf 57be 65ce 80bd 3393 1d3e a587 523e
00000060: 6b98 7ebe 7105 813e 7967 713e edae 72be
00000070: e822 163e 072a 1c3e 90a2 aebd d53b 67bc
00000080: bd34 24be b0a6 08bd a1d5 9cbe 6f66 473e
00000090: bbeb 9f3e 51f0 603e 471f 01be 61b4 53be
000000a0: 1592 523d 4a76 923e b527 7dbe 3416 86be
000000b0: 88b4 57be 8ec9 293e 19ab 213c 6096 ab3c
000000c0: 8607 7d3e a687 05be 0fd6 64be fccf 10be
000000d0: 160c edbc 711c 2ebe 5b47 d9bc ab05 a23d
000000e0: f6eb 993e 6921 9f3c cc14 cf3d 0c0c 663e
000000f0: f23b 873d 7b62 943e d3d9 863e 3ac4 983e

actor.network.vm_encoder.1.weight f4 [64]
0.9981886 1.0041411 0.9892565 0.992645 0.9981679 1.0100964 1.0067576 1.0020179
0.98600227 0.99566686 0.9986804 1.0067818 0.9987726 1.006954 0.9994383 1.046293
0.99814886 1.004097 1.0115937 1.0089933 0.99860716 0.99658304 0.9822299 1.0007087
1.0033933 1.0019194 1.0038643 0.98479563 0.9982112 1.0053189 0.99143225 0.9909946
1.00793 1.0018009 0.99509794 1.0016897 0.9935927 0.9924127 0.9958238 1.0042175
0.99290913 1.0025587 1.012614 0.98041105 0.9876254 1.0100117 1.0124571 0.99169594
0.99655855 1.003313 1.0027024 0.9776885 1.0059487 1.003669 0.99760133 0.9910368
0.99232036 0.99603045 0.9914657 0.99677056 0.99522686 0.9970294 0.998097 0.9994887
00000000: 4a89 7f3f b287 803f ea3f 7d3f fc1d 7e3f
00000010: ee87 7f3f d74a 813f 6fdd 803f 1f42 803f
00000020: a56a 7c3f 06e4 7e3f 85a9 7f3f 3ade 803f
00000030: 90af 7f3f dee3 803f 30db 7f3f eeec 853f
00000040: af86 7f3f 4086 803f e77b 813f b126 813f
00000050: b8a4 7f3f 1120 7f3f 6b73 7b3f 3917 803f
00000060: 316f 803f e53e 803f a07e 803f 911b 7c3f
00000070: c58a 7f3f 4aae 803f 81ce 7d3f d2b1 7d3f
00000080: da03 813f 033b 803f bdbe 7e3f 5e37 803f
00000090: 175c 7e3f c20e 7e3f 4fee 7e3f 338a 803f
000000a0: 4b2f 7e3f d853 803f 569d 813f 38fc 7a3f
000000b0: 05d5 7c3f 1048 813f 3298 813f c9df 7d3f
000000c0: 761e 7f3f 8f6c 803f 8d58 803f cb49 7a3f
000000d0: edc2 803f 3a78 803f cd62 7f3f 96b4 7d3f
000000e0: b508 7e3f dafb 7e3f b2d0 7d3f 5b2c 7f3f
000000f0: 30c7 7e3f 523d 7f3f 4983 7f3f 7ede 7f3f

actor.network.vm_encoder.1.bias f4 [64]
-0.049790386 0.092587076 -0.025063021 -0.062367316 0.0016187603 0.1015089 0.030323878 0.021370826
-0.058662824 0.049155828 0.028369045 0.0137416 -0.03466848 0.0037303655 -7.1161754e-05 0.06864222
0.012688663 0.023903636 0.0472817 0.0040148683 0.069141224 0.021835128 -0.053727493 0.016274655
0.0027473797 0.07033799 0.03212886 0.044015117 -0.062371206 0.020664666 0.023963017 -0.0036955685
-0.009622253 -0.022601785 0.04484034 0.07868269 -0.02563805 -0.042618614 0.037376363 0.015629364
-0.029441422 0.06430605 0.08350165 0.055707276 -0.015484265 0.06398519 0.07379047 0.04531665
-0.022753175 0.047885306 0.026840596 -0.002106721 -0.0006684114 0.0529726 0.036289465 0.014552232
0.003386964 -0.04829428 -0.02549592 0.04401141 -0.0004747553 -0.03367731 0.04238365 0.050652362
00000000: 01f1 4bbd 4b9e bd3d f750 cdbc df74 7fbd
00000010: 952c d43a e6e3 cf3d c869 f83c df11 af3c
00000020: 6e48 70bd 9f57 493d 3366 e83c 7324 613c
00000030: 8900 0ebd 2679 743b ad3c 95b8 4b94 8c3d
00000040: 1ce4 4f3c 8fd1 c33c 75aa 413d 288f 833b
00000050: ea99 8d3d 95df b23c 5c11 5cbd 6d52 853c
00000060: 620d 343b 5d0d 903d 8d99 033d 3249 343d
00000070: f378 7fbd f248 a93c 174e c43c 5a31 72bb
00000080: a7a6 1dbc 6127 b9bc 81aa 373d 6424 a13d
00000090: e306 d2bc db90 2ebd f517 193d 2709 803c
000000a0: 232f f1bc e4b2 833d ea02 ab3d 502d 643d
000000b0: b7b1 7dbc ab0a 833d 751f 973d f49d 393d
000000c0: de64 babc 6223 443d cfe0 db3c ea10 0abb
000000d0: 5438 2fba ccf9 583d 43a4 143d 7c6c 6e3c
000000e0: d4f7 5d3b 39d0 45bd d2dc d0bc 4f45 343d
000000f0: 94e8 f8b9 38f1 09bd 7a9a 2d3d da78 4f3d

actor.network.vm_encoder.1.running_mean f4 [64]
-18.407843 113.97497 89.67497 134.98825 -83.86987 -12.005836 134.06262 79.962524
89.6213 98.70416 -53.828594 96.80733 -92.201 104.76543 -31.363194 -3.1040149
43.848885 52.268982 -97.40374 75.34334 50.228325 8.273609 -44.894215 99.55687
-61.601284 137.9149 -52.816986 -100.89942 -33.252075 49.096306 -6.7583213 113.52177
81.19894 -1.513964 -39.95705 -29.776505 -202.91805 79.650085 50.96247 -12.61504
111.394485 -29.13303 66.77941 -8.828933 2.8175776 -101.11161 36.57685 124.92405
75.500145 34.787926 -11.176652 -77.838165 -68.586395 63.802242 -105.89544 10.40974
-92.98172 196.54991 10.654822 -18.052181 3.8726957 154.89043 -75.03012 -96.605
00000000: 4343 93c1 2ff3 e342 9659 b342 fefc 0643
00000010: 60bd a7c2 e717 40c1 0810 0643 d0ec 9f42
00000020: 1b3e b342 8868 c542 7b50 57c2 5a9d c142
00000030: e966 b8c2 e687 d142 d2e7 fac1 2ea8 46c0
00000040: 4265 2f42 7013 5142 b7ce c2c2 caaf 9642
00000050: cee9 4842 b460 0441 ad93 33c2 1e1d c742
00000060: b767 76c2 37ea 0943 9844 53c2 81cc c9c2
00000070: 2002 05c2 9e62 4442 2b44 d8c0 250b e342
00000080: db65 a242 93c9 c1bf 05d4 1fc2 4836 eec1
00000090: 05eb 4ac3 d84c 9f42 92d9 4b42 34d7 49c1
000000a0: fac9 de42 7210 e9c1 0f8f 8542 4f43 0dc1
000000b0: 3153 3440 2539 cac2 b24e 1242 1dd9 f942
000000c0: 1300 9742 d626 0b42 91d3 32c1 24ad 9bc2
000000d0: 3c2c 89c2 7f35 7f42 77ca d3c2 4c8e 2641
000000e0: a4f6 b9c2 c78c 4443 277a 2a41 de6a 90c1
000000f0: 3fda 7740 f3e3 1a43 6c0f 96c2 c335 c1c2

actor.network.vm_encoder.1.running_var f4 [64]
1157.8748 235.52501 0.12737417 102.27096 0.18227437 151.12466 0.1433168 176.3136
34.33032 128.37558 1.8046246 2.1947985 0.88090783 0.26790804 632.54047 0.30894852
96.74322 48.89095 1.7715204 330.5867 567.1443 463.03296 267.60507 320.80557
758.05304 132.4407 29.012808 69.68137 6.756499 99.57782 371.949 23.83597
128.99554 2.1473877 206.83371 29.469189 510.40533 183.66127 72.44519 234.6256
801.904 815.88715 22.11996 87.779816 727.6437 124.21625 1157.683 14.038111
24.129663 402.00427 0.9341629 143.69028 18.867702 105.61544 78.74663 0.57867676
761.22186 893.2274 58.017925 1.4959729 121.03117 869.4584 108.227554 28.378191
00000000: febb 9044 6786 6b43 606e 023e bb8a cc42
00000010: 22a6 3a3e ea1f 1743 a4c1 123e 4850 3043
00000020: 3f52 0942 2660 0043 f0fd e63f 9477 0c40
00000030: 2d83 613f 3e2b 893e 9722 1e44 802e 9e3e
00000040: 877c c142 5590 4342 2ec1 e23f 194b a543
00000050: 3cc9 0d44 3884 e743 73cd 8543 1d67 a043
00000060: 6583 3d44 d270 0443 3b1a e841 dd5c 8b42
00000070: 3d35 d840 d827 c742 79f9 b943 11b0 be41
00000080: dcfe 0043 cd6e 0940 6ed5 4e43 e6c0 eb41
00000090: e233 ff43 49a9 3743 f0e3 9042 27a0 6a43
000000a0: db79 4844 c7f8 4b44 aef5 b041 448f af42
000000b0: 32e9 3544 b86e f842 dbb5 9044 1a9c 6041
000000c0: 8d09 c141 8c00 c943 4d25 6f3f b6b0 0f43
000000d0: 0ef1 9641 1b3b d342 467e 9d42 2924 143f
000000e0: 334e 3e44 8e4e 5f44 5b12 6842 0a7c bf3f
000000f0: f60f f242 565d 5944 8274 d842 8906 e341
