logs/wide_homospeed/ablation/per_variant/hetero/hetero_best.pt (torch, 286379 bytes, 90 tensors)

actor.network.task_encoder.0.weight f4 [64, 6]
000000 7d 5a c9 3e 8d c0 9e 3e 8c e2 cd 3e 97 27 02 bd
       0.3932685 0.3100628 0.40211904 -0.031776037
000010 ab 0a ae be 41 6e 86 be 9f da dd bd cc 7f 61 3d
       -0.33992514 -0.26255992 -0.10832714 0.055053517
000020 82 98 07 be dc c6 70 be ae d8 0b bd 3a d6 83 3e
       -0.13241771 -0.23513359 -0.03414219 0.2574938
000030 32 c4 ad 3e 84 45 4e be bd 6c 70 be 4e 45 9a bc
       0.33938748 -0.20143706 -0.2347898 -0.018831875
000040 b5 42 37 3e 4a 24 3b 3e b0 a2 1b be a3 a0 10 3e
       0.1789654 0.18275562 -0.15198779 0.14123778
000050 4d fc 8a bd 6e 38 48 bd 00 be a9 be 27 bb 95 3e
       -0.06786404 -0.04888194 -0.3315277 0.29244348
000060 60 ce 93 be 4c d2 d2 3d cd 3a 4f be 92 3c b0 be
       -0.2886839 0.10294017 -0.20237274 -0.3442121
000070 f6 cf df bc 0c be 0a 3e 4a a3 bf be a4 34 f1 3c
       -0.027320843 0.1354906 -0.37429267 0.029444046
000080 e7 3b 1c be 60 5f 6e bd 18 ca 3b be 28 44 50 bd
       -0.15257226 -0.058196425 -0.18338811 -0.05084625
000090 f3 d5 bb 3e 4c bc c8 be 98 42 47 be 71 a0 b1 3e
       0.36686668 -0.3920616 -0.19458997 0.3469272
0000a0 c8 fe b5 bc ff ae ad bd 44 e8 0c 3e c9 d9 30 be
       -0.022216216 -0.084806435 0.13760477 -0.17270578
0000b0 3a 77 2b 3e 0a eb 80 be f5 8d fa bd 0f f9 9f 3e
       0.167447 -0.2517932 -0.122341074 0.31244704
0000c0 4c b7 25 3d d2 7c a5 be 7f ab 7a 3e 90 ed 8a be
       0.04045801 -0.32321793 0.24479483 -0.2713437
0000d0 98 26 d4 bc e8 5e 9b ba a3 54 37 be 4e 2a 3a 3e
       -0.02589731 -0.0011853846 -0.1790338 0.181802
0000e0 3c d2 79 bd d0 2d 64 3e 59 49 4e 3e 43 6e a3 be
       -0.06099151 0.22283101 0.20145167 -0.3192006
0000f0 64 41 9c 3e 1b e3 22 3c 68 f3 a4 3e cf 16 82 3e
       0.3051864 0.0099418415 0.32216954 0.25408027
000100 95 44 f5 bd 27 8a a5 bd 99 fe 18 be e9 be 45 be
       -0.119759716 -0.08082991 -0.14940871 -0.19311108
000110 f3 ab a1 3e 56 ec c2 3e 74 f3 39 3e a8 c6 bb 3e
       0.315765 0.38070935 0.18159276 0.36675
000120 de d9 0d 3e 91 1b 82 3d 03 7c 2a be 1e 13 c3 3e
       0.13852641 0.06352914 -0.16648869 0.38100523
000130 57 15 94 be bf 62 9a 3e af 40 5a bd 92 56 1f be
       -0.2892253 0.30153462 -0.053284343 -0.15560368
000140 a9 09 42 bc 89 88 7f 3e dc ee b4 be a3 04 a2 be
       -0.0118431235 0.24954428 -0.35338485 -0.31644163
000150 57 e7 98 bd e8 3d cf be 35 1c 45 3d b9 f2 93 be
       -0.074659996 -0.40476918 0.048122603 -0.2889612
000160 ea 32 bc be f2 d0 29 be cd a3 5f be 8a d2 19 bb
       -0.36757594 -0.16583613 -0.21839829 -0.0023471438
000170 73 30 8c 3e 4a a1 cb bd e9 e2 a6 3d 30 d7 3c 3e
       0.27380714 -0.09942873 0.081487484 0.18441463
000180 0e 7c e1 3d b7 c5 a6 3c 37 0e 9f 3d 04 26 76 3e
       0.1100999 0.02035795 0.07766383 0.2403794
000190 c2 3f ba be 83 84 26 be d0 dd b8 3e 24 81 db bd
       -0.36376768 -0.16261487 0.3610673 -0.10717991
0001a0 f7 12 84 3e 27 00 a7 be 38 16 bb 3d e3 82 43 bc
       0.2579572 -0.32617304 0.09135097 -0.011933061
0001b0 2c fb c5 be 71 01 c4 3d bf 6c 11 bd c5 d5 ca be
       -0.3866819 0.095705874 -0.0355041 -0.39616218
0001c0 06 7d f3 bd 3e 2d ac 3e c9 e1 a7 3d 40 92 7f be
       -0.11889081 0.33628267 0.08197362 -0.24958134
0001d0 ca 8b 57 be 32 b2 3e be 80 82 58 be d5 6d 9d 3d
       -0.21049419 -0.18622664 -0.21143532 0.076869644
0001e0 88 cd 43 be 49 80 94 3e e5 3d 60 3e 63 42 99 3e
       -0.19121373 0.29004124 0.21898611 0.29933462
0001f0 51 0e f1 3b 98 de bc 3e 4a e3 ae be 9f eb 61 be
       0.007356443 0.36888576 -0.34157783 -0.22062539
000200 b5 d4 6d be 4a 59 43 3e c8 c7 c6 be 0e 17 46 be
       -0.23225673 0.1907703 -0.38824296 -0.19344732
000210 db 65 26 3e d4 b5 c3 3e 32 d7 87 3e 39 e9 2c 3e
       0.16249792 0.3822466 0.26531368 0.16885842
000220 4e b4 93 be 90 c2 fd 3d 26 76 19 be ed a8 d0 3c
       -0.288485 0.123906255 -0.14986476 0.025471175
000230 4c 09 25 bd f2 91 c3 3e 7f 5e 89 3e 9c ed 2e 3d
       -0.04029207 0.38197285 0.26829907 0.04270707
000240 5f 27 cb be 3c be a3 3e 83 24 8f 3e 69 1b 0e 3e
       -0.39678475 0.31981075 0.27957544 0.13877644
000250 8a d8 ce be c3 e1 8a be f4 20 5c 3e 8f f0 c3 be
       -0.4039958 -0.27125368 0.21496946 -0.3826947
000260 84 2b 31 3e c2 ea 40 3d ba 7f bf 3e 27 1d 0f 3e
       0.17301756 0.047098882 0.37402135 0.13975964
000270 b7 a0 5c 3e dc 21 07 3e eb dc 45 be aa 1d 63 be
       0.21545683 0.1319651 -0.19322555 -0.22179285
000280 8c 94 ca be 78 7c 82 bd 69 61 d9 3b de 22 07 be
       -0.39566457 -0.06371397 0.0066339266 -0.13196895
000290 21 dc e4 3d 74 a1 92 3e d6 32 11 3d a6 69 22 be
       0.11174799 0.28638804 0.03544887 -0.15860614
0002a0 96 e1 b5 be b5 13 57 be 81 86 04 3e cd a2 c2 be
       -0.3552367 -0.21003611 0.12941934 -0.38014832
0002b0 b4 3d cf be d7 a0 b5 3c c5 40 3e 3c 17 d0 a4 be
       -0.40476763 0.022171421 0.011612122 -0.3219001
0002c0 f1 b9 c6 3d 6d e1 36 3e 87 18 a2 be 07 62 78 bd
       0.09703434 0.1785943 -0.31659338 -0.06064036
0002d0 60 7f 77 3e ba 86 ba 3e 95 62 92 be fe ae 60 be
       0.24169683 0.36430913 -0.28590837 -0.21941754
0002e0 b6 41 6c be dc cf 54 be 5e 42 84 be 76 ff 9c 3e
       -0.23071942 -0.20782417 -0.25831884 0.3066365
0002f0 5c 6a ef ba 36 70 9e be f3 7e ae be 8f 2e b1 be
       -0.001826595 -0.30944985 -0.3408123 -0.34605834
000300 d8 f3 c4 be f4 25 c8 3c 62 df 17 3d 8e 58 70 3e
       -0.38467288 0.02443216 0.03707827 0.23471281
000310 b0 ee ac 3e d2 66 93 3e 52 e4 b5 3e c5 5c 22 be
       0.33775854 0.28789383 0.35525757 -0.15855701
000320 d0 84 9d be fd 39 1a bd 51 06 b2 bd bf ff 9e bc
       -0.3076539 -0.03765296 -0.08692611 -0.019409059
000330 ed a7 20 3c fe 3c 6b be 2d 6b b2 be a4 f8 2b be
       0.009805662 -0.22972485 -0.34847394 -0.16794068
000340 71 4f 9d 3d c1 1f 56 3e 35 c3 ba be 9f f5 bc be
       0.07681168 0.2091055 -0.36477056 -0.36906144
000350 ac 4d 8f bc b0 3f 20 be 80 7c 29 be 19 28 ca be
       -0.017493092 -0.15649295 -0.16551399 -0.39483717
000360 ca b9 3b 3e 97 1d 8d bd 24 3f a5 3e 8c 36 86 be
       0.18332592 -0.068904094 0.32274735 -0.2621349
000370 0c 9c bd be 2c 8a ad bb 31 d4 ca 3d 44 48 71 3e
       -0.37033117 -0.0052960124 0.099037535 0.23562723
000380 17 61 51 bb 0f 41 a0 3e a0 ca 73 be 07 ed b0 be
       -0.003194874 0.31299636 -0.23807764 -0.34555838
000390 d2 0e 4e be 5e f8 26 be 0a b0 0f 3e ed 46 a7 3e
       -0.20122841 -0.16305682 0.14031997 0.326713
0003a0 90 a4 c4 3e 23 e2 46 be f7 77 c7 bd c9 22 87 bd
       0.384068 -0.19422202 -0.09739678 -0.065984316
0003b0 7b fb 18 3e 21 94 00 be ef be 14 be 9d 3c 91 3d
       0.14939682 -0.12556507 -0.1452596 0.07091639
0003c0 45 2d 85 be 86 4b b3 3e 18 bd b5 be 1c a9 b8 be
       -0.260111 0.35018557 -0.3549583 -0.3606652
0003d0 70 67 b5 bc 6a a9 93 be f4 5d 36 be 17 70 6f 3e
       -0.02214405 -0.2884019 -0.17809278 0.23382603
0003e0 5a 64 19 3c 93 d8 41 bd 27 27 c0 be 71 7c 08 be
       0.009362305 -0.047325682 -0.3752987 -0.1332872
0003f0 33 5a 0b be 12 f0 99 3e bd 13 23 3e b2 37 19 bd
       -0.13608627 0.30065972 0.15925498 -0.03740663

actor.network.task_encoder.0.bias f4 [64]
000000 bd c3 2f be e6 44 8b 3e ba 8a b4 be 47 8c 15 3e
       -0.17164512 0.27201003 -0.3526209 0.14604293
000010 70 19 ac be 2c 0f 08 3e 7e 06 49 be 96 ff 95 3e
       -0.33613157 0.13287038 -0.19631383 0.2929656
000020 6a 42 a0 be c2 e3 cf 3e 7d b6 bf 3e a4 0d 1a 3e
       -0.3130067 0.40603453 0.37443915 0.15044266
000030 ab 33 c9 3e cf fd c7 be 0c d1 81 bc 9a 07 aa be
       0.39297232 -0.39060828 -0.015846752 -0.33208925
000040 d1 b0 84 3e 66 3c 35 bd 87 60 75 3e 32 9b aa bd
       0.2591615 -0.044247054 0.23962604 -0.083303824
000050 72 79 30 3e e4 a3 a3 3e 5a 1a 92 be 7d 86 bf 3e
       0.17233828 0.31960976 -0.2853573 0.37407294
000060 c7 ef cc be ef ce fe bc 63 ec c5 bd 56 01 fc bd
       -0.40026686 -0.031104533 -0.09664228 -0.12304942
000070 2d 4f cf 3e f3 bd 82 be b9 b0 7e 3c a3 62 af 3c
       0.40490094 -0.25535545 0.015545064 0.021409338
000080 bd 07 14 3e 62 bc bf bd 72 40 a0 3e de 53 c1 3e
       0.14456077 -0.09362103 0.31299168 0.37759298
000090 22 cd 72 be 3e 42 fe bd 0d 97 94 be f1 a7 73 3e
       -0.23711064 -0.124149784 -0.29021493 0.23794533
0000a0 69 ac c1 be 09 e7 0b be 6e c8 42 be 22 f4 36 3d
       -0.3782685 -0.13662352 -0.1902177 0.044666417
0000b0 f4 db 0a be 1f 4a a0 3e b2 98 fc 3d 1e 93 b9 3d
       -0.13560468 0.3130655 0.12333812 0.090612635
0000c0 61 08 7c 3e c0 3b 14 bd 26 e3 bc 3d 98 ea 43 be
       0.24612571 -0.036189795 0.092230126 -0.19132459
0000d0 c3 17 30 3e 3f 99 00 be 50 df 9d 3e e9 1e 33 be
       0.17196564 -0.12558459 0.30834436 -0.1749226
0000e0 c5 ab 89 bd cb 3e b7 be 1f 2d 7c 3e 96 27 80 be
       -0.067222156 -0.35790095 0.24626587 -0.25030202
0000f0 05 1e bb 3e a2 fe fb 3d 40 80 bd bc 07 b0 1c be
       0.3654634 0.12304427 -0.023132443 -0.15301524

actor.network.task_encoder.1.weight f4 [64]
000000 2f 70 7f 3f 9c 03 81 3f fa fc 7f 3f 34 97 7f 3f
       0.99780554 1.0079226 0.99995387 0.9984009
000010 c9 08 80 3f 9b 52 7f 3f 53 4e 7d 3f 2b b2 7f 3f
       1.0002681 0.9973542 0.9894764 0.9988124
000020 be ac 7f 3f c6 a9 80 3f c8 eb 81 3f 62 29 80 3f
       0.9987296 1.0051811 1.015008 1.0012629
000030 86 d1 7d 3f fe 7f 80 3f 09 41 80 3f ad 0d 80 3f
       0.9914783 1.003906 1.0019847 1.0004174
000040 b7 0a 80 3f c2 25 80 3f 67 03 7f 3f e6 0f 80 3f
       1.000327 1.0011523 0.99614567 1.0004852
000050 29 25 81 3f b1 79 80 3f 66 1e 7f 3f df 4c 80 3f
       1.0089465 1.0037137 0.9965576 1.0023459
000060 ed 86 7e 3f 7c 13 7f 3f 89 c3 7e 3f f5 c1 80 3f
       0.9942463 0.99639106 0.9951711 1.0059191
000070 94 20 81 3f 34 3c 80 3f ba f7 7c 3f 0a 61 7f 3f
       1.0088067 1.0018373 0.988155 0.99757445
000080 0e 16 7e 3f 9c 56 80 3f d0 82 7f 3f eb 8a 7f 3f
       0.992524 1.0026431 0.9980898 0.99821347
000090 db 91 80 3f 77 57 80 3f 43 1d 80 3f 36 5d 7f 3f
       1.0044512 1.0026692 1.000893 0.99751604
0000a0 c5 c5 80 3f b4 0c 80 3f 00 18 80 3f 7c f0 7f 3f
       1.0060354 1.0003877 1.0007324 0.99976325
0000b0 a9 46 80 3f 72 89 7e 3f 92 ca 7d 3f 1c f1 7f 3f
       1.0021564 0.99428475 0.9913722 0.9997728
0000c0 d4 aa 81 3f a1 4e 80 3f c2 5d 80 3f 67 50 80 3f
       1.0130258 1.0023996 1.0028613 1.0024537
0000d0 71 64 81 3f 3f 15 80 3f 30 6b 80 3f ea 79 7e 3f
       1.0108777 1.0006484 1.0032711 0.99404776
0000e0 06 4b 80 3f 68 3a 80 3f cc fc 7d 3f 7b a9 7c 3f
       1.0022895 1.0017824 0.9921386 0.98696107
0000f0 13 d2 7f 3f c4 d5 80 3f 02 81 7f 3f 89 cb 7f 3f
       0.9992992 1.0065236 0.99806225 0.99919945

actor.network.task_encoder.1.bias f4 [64]
000000 8a 30 02 bc 26 a4 39 3b 41 76 9d ba e5 76 c7 bb
       -0.007946143 0.00283266 -0.0012013392 -0.0060871714
000010 eb 34 92 3b 1c eb 46 b8 06 26 b0 bb 50 a5 e9 bb
       0.0044618747 -4.742584e-05 -0.0053756265 -0.0071303025
000020 bf e8 22 bb 85 1c 83 3c b5 7d 18 3c 6f bf 8a bb
       -0.0024857966 0.01600481 0.009307315 -0.0042342464
000030 bb 75 80 bc 6c d4 49 3a c8 85 5d bc 82 7c 02 bb
       -0.015681138 0.0007699195 -0.0135206655 -0.0019910638
000040 0b 6b e5 bb b5 85 e9 ba 12 74 3a bb e8 ef 2c bc
       -0.007001286 -0.0017816337 -0.002845053 -0.010555245
000050 49 9f 31 39 0b 60 be bb 5a c8 53 bb 2c 52 6e 3b
       0.00016939374 -0.005809789 -0.0032315464 0.0036364896
000060 47 3b d5 39 c9 ea 81 bb 96 85 62 bb 7e 25 82 ba
       0.0004067069 -0.003964756 -0.0034564487 -0.0009929386
000070 f4 37 c9 bb 3e 9a 1d bb ef c7 8b bc e1 fc bc 3b
       -0.0061407033 -0.0024048234 -0.01706311 0.00576745
000080 70 4d 8a bb db d1 7b b9 65 db 00 3c 69 20 62 bb
       -0.004220657 -0.00024015403 0.007864808 -0.0034504181
000090 b1 b6 48 3b dd f0 43 3a 10 6c 6e 3b bc 48 42 3b
       0.003062647 0.0007474551 0.0036380328 0.0029645404
0000a0 9d 2f 33 3c 52 5d 5d bc e9 b2 0d bb bb 9e 98 bb
       0.010936645 -0.013511019 -0.0021621531 -0.004657594
0000b0 e3 1a 4a bb a2 f8 be bb a7 87 bf bb 15 8a 15 3c
       -0.003083878 -0.005827979 -0.0058450284 0.00912716
0000c0 5f 78 9a 3b a2 d2 df 3b 09 db a3 3b 73 a3 01 3a
       0.0047140564 0.0068305293 0.0050004763 0.00049453153
0000d0 d3 d3 8c bb 51 9e 2f 3c cf 31 a7 3b ff 8a 7b bb
       -0.0042977124 0.010718898 0.005102373 -0.0038382409
0000e0 89 06 b3 3b 71 29 ef ba fc 9e 8b bc 5d 9f b7 bc
       0.0054634255 -0.0018246603 -0.017043583 -0.022414858
0000f0 63 1e df bb 8b 10 bf 3b c5 19 b1 3b 53 8b 8f 3a
       -0.0068090423 0.0058308295 0.0054046833 0.0010951556

actor.network.task_encoder.1.running_mean f4 [64]
000000 0b 0a 98 46 1f 44 c8 c5 4d 8c 31 c6 2e 4d 4d c5
       19461.021 -6408.515 -11363.075 -3284.8237
000010 70 0b 19 c6 57 c3 e6 c5 5d 26 13 c6 73 40 fd 45
       -9794.859 -7384.4175 -9417.591 8104.056
000020 9b 1b 39 46 3b 72 38 c5 0f a2 73 46 eb c9 6e 46
       11846.901 -2951.1394 15592.515 15282.4795
000030 36 cb fb c5 ef 84 0f c4 1b 84 11 45 62 0c 4f 46
       -8057.4014 -574.0771 2328.2566 13251.096
000040 11 e9 6a 45 57 12 43 46 fd d0 d6 c4 f1 2e 1f c6
       3758.5667 12484.585 -1718.5309 -10187.735
000050 f3 99 25 46 fb a3 2f c6 b2 9f 48 46 33 a8 f3 c4
       10598.487 -11240.995 12839.924 -1949.2562
000060 09 66 53 46 77 d8 02 46 72 20 12 c6 fc 01 a9 45
       13529.509 8374.116 -9352.111 5408.248
000070 fc b7 c3 45 a4 bb 92 45 1f 35 58 c6 56 14 b2 c2
       6262.998 4695.455 -13837.28 -89.03972
000080 02 5e e0 44 61 a6 68 c6 8e c1 83 c6 bc b3 53 c4
       1794.9377 -14889.595 -16864.777 -846.80835
000090 34 0d 74 46 1d e9 1a c3 11 3a d4 45 64 f2 e1 45
       15619.301 -154.9106 6791.2583 7230.299
0000a0 11 37 86 c6 18 2e e2 43 1f de f0 45 50 10 8c 46
       -17179.533 452.3601 7707.765 17928.156
0000b0 d1 b1 9b c3 30 78 61 46 22 2a 02 c6 0b d3 ef c5
       -311.3892 14430.047 -8330.533 -7674.3804
0000c0 f9 31 46 c6 40 3b 2a c6 22 98 cd c5 29 72 56 46
       -12684.493 -10894.8125 -6579.0166 13724.54
0000d0 38 e6 56 c5 08 16 98 c6 f9 02 98 c6 ce 1f 1a 46
       -3438.3887 -19467.016 -19457.486 9863.951
0000e0 e3 83 83 c5 d8 0a 24 c6 90 b7 92 c6 2c d4 dc 45
       -4208.486 -10498.711 -18779.781 7066.5215
0000f0 91 db 59 c5 2f 6a 57 46 cc 6c 67 45 df fd b1 c5
       -3485.723 13786.546 3702.7998 -5695.734

actor.network.task_encoder.1.running_var f4 [64]
000000 f2 7e 72 4c bd 5f d2 4a 95 57 a5 4b 6f 0d dd 49
       6.356884e+07 6.8935345e+06 2.1671722e+07 1.8108619e+06
000010 7f ae 75 4b b5 a5 0b 4b 72 25 63 4b 6e 31 28 4b
       1.6100991e+07 9.151925e+06 1.4886258e+07 1.1022702e+07
000020 77 bc b3 4b ef 80 b2 49 5b a8 1b 4c bf 88 15 4c
       2.3558382e+07 1.4623019e+06 4.0804716e+07 3.9199484e+07
000030 e7 48 26 4b bc 93 57 47 d2 36 5e 49 20 de e0 4b
       1.0897639e+07 55187.734 910189.1 2.9473856e+07
000040 90 b6 10 4a 66 96 c7 4b 0a 02 f2 48 bc e6 84 4b
       2.37098e+06 2.6160332e+07 495632.3 1.741964e+07
000050 45 d6 8f 4b 2d ce a1 4b 5e 20 d3 4b 6b c9 1b 49
       1.8853002e+07 2.1208154e+07 2.7672764e+07 638102.7
000060 5b 6e ea 4b e3 95 33 4b 3e fc 5f 4b d1 d2 95 4a
       3.072735e+07 1.1769315e+07 1.4679102e+07 4.9094165e+06
000070 63 ee c8 4a c2 e8 61 4a ef 2f f5 4b 0c e8 a4 44
       6.5841135e+06 3.7012965e+06 3.2137182e+07 1319.2515
000080 68 fd 03 49 01 f3 0d 4c 35 1d 36 4c d5 0d eb 47
       540630.5 3.721114e+07 4.7740116e+07 120347.664
000090 4f 36 1c 4c 40 3c 7b 45 96 3f ec 4a af e2 05 4b
       4.0950076e+07 4019.7656 7.741387e+06 8.774319e+06
0000a0 c4 f4 3c 4c 17 74 06 47 15 27 18 4b d9 cb 4d 4c
       4.953371e+07 34420.09 9.971477e+06 5.394826e+07
0000b0 37 89 7e 46 5a 51 05 4c d7 b7 31 4b 22 d9 16 4b
       16290.304 3.4948456e+07 1.1646935e+07 9.885986e+06
0000c0 f9 09 ce 4b 54 ff 97 4b 6f bb dd 4a 8a 36 f1 4b
       2.7005938e+07 1.99226e+07 7.2657195e+06 3.1616276e+07
0000d0 34 3f f2 49 b1 a3 72 4c b3 6a 72 4c ac 2d 79 4b
       1.9844865e+06 6.3606468e+07 6.3548108e+07 1.6330156e+07
0000e0 59 70 35 4a d7 21 8d 4b 80 cf 61 4c a4 d2 ff 4a
       2.9726942e+06 1.8498478e+07 5.919488e+07 8.382802e+06
0000f0 aa 02 f9 49 db 66 f3 4b 0c 76 0c 4a 63 28 a6 4a
       2.0398932e+06 3.1903158e+07 2.301315e+06 5.4446575e+06

actor.network.task_encoder.3.weight f4 [64, 64]
000000 db 23 a8 bc 87 92 b3 bd 33 b1 1f 3d 32 6c ed bd
       -0.02052491 -0.08768182 0.03898735 -0.11592902
000010 7e 0b 59 bd 1a 0d ae bd c2 09 3b 3d 61 b6 44 3d
       -0.052989475 -0.08498593 0.045663603 0.048025493
000020 50 2a f6 3d d0 6c 8f bc 7f 6d e3 3d 16 1e 9f bd
       0.12019789 -0.01750794 0.11104869 -0.0776941
000030 cb 7a a3 bd 7c f3 b5 bd d3 89 3c 3c df 4d d7 bd
       -0.07982405 -0.088843316 0.011507469 -0.105128996
000040 cd 22 be 3d 65 c4 b7 bd e8 82 5e 3d 37 5e 5c bd
       0.092839815 -0.08973006 0.05432406 -0.053800788
000050 d6 da 29 3c c2 c2 06 bd eb 1d 8a 3d 5e 72 f5 3d
       0.010367116 -0.03290058 0.06743988 0.119847044
000060 80 f4 eb bd 43 ee ca bd 16 33 16 bc 4f ba 4b 3c
       -0.11521244 -0.09908726 -0.009167453 0.012434556
000070 94 78 02 3e d1 67 81 3d 43 d9 04 b9 3c d6 d8 bd
       0.1274131 0.063186295 -0.00012669437 -0.10587737
000080 50 22 12 3d 7b aa 40 bd e0 bb 49 3d a6 32 31 bd
       0.035677254 -0.047037583 0.049251437 -0.043261193
000090 b2 4b ac 3a 62 dc b4 3d 94 82 f6 3d 03 c9 d0 bd
       0.0013145118 0.08831097 0.120366246 -0.1019459
0000a0 ef 5b 98 bd 06 50 23 bd 38 c1 93 3b db 4f c2 3d
       -0.0743941 -0.03987124 0.0045091175 0.094878875
0000b0 35 36 9d 3d 7e 12 1c bb 44 88 89 bd 46 d7 e6 3d
       0.07676355 -0.0023814733 -0.06715444 0.11271529
0000c0 8d f1 30 bd 4f 59 5f bd bb d1 6d 3d 21 78 9e 3d
       -0.04319911 -0.05452853 0.058061343 0.077377565
0000d0 a4 47 1f 3d f1 93 e8 bc 58 7c 44 bd 98 8c e8 bc
       0.03888668 -0.028390856 -0.047970146 -0.028387353
0000e0 17 87 be 3d af 6b 90 3d 8f 14 63 3d a5 8f 75 bb
       0.0930311 0.07051789 0.055439528 -0.0037469652
0000f0 ba 84 7b 3d 2a ae c7 3c a4 95 24 bd 9e c4 42 bd
       0.061405875 0.02437504 -0.04018177 -0.04755079
000100 e5 33 8d 3d 99 f7 2b 3c d5 3b d9 3d 76 9d c1 3d
       0.06894664 0.010496044 0.10607115 0.094538614
000110 d3 98 a5 3d 04 b0 af bd 73 77 d6 bd 90 d0 8d 3d
       0.080857895 -0.08578494 -0.10472002 0.06924546
000120 77 59 c0 3b 19 8f e9 bd bf 1b 25 bd c0 44 3b bd
       0.00587004 -0.11404247 -0.040309664 -0.045719862
000130 f1 28 8f bd 45 bb 11 3d 24 a8 60 3d 30 af 76 bd
       -0.06990231 0.035578985 0.05484785 -0.060225666
000140 4b 87 be bd 59 0e c4 3d 0c 1d a4 3d 92 b9 47 3d
       -0.09303149 0.09573049 0.08013353 0.048760958
000150 49 5a 6f 3d e4 11 1b bc 42 89 c5 ba c5 46 a9 bc
       0.058435712 -0.009464715 -0.0015070813 -0.020663628
000160 32 7e 40 bd d2 8e 9c bd bc 21 b2 3d a9 ed ad bb
       -0.04699535 -0.07644428 0.086978406 -0.0053078723
000170 65 5e a6 3c 62 3a b8 bd 6a c8 74 3c 6d eb 25 3c
       0.020308683 -0.08995511 0.014940361 0.010126931
000180 da d9 98 bd 2c 41 c5 bd fe ed bb bd 54 a7 de bd
       -0.07463427 -0.09631571 -0.09176253 -0.10871759
000190 b8 cf e9 3d ef 82 4d bd ea e6 52 bc 2b e5 bd 3d
       0.11416572 -0.050173696 -0.012872437 0.09272226
0001a0 17 23 2e 3d f5 5f d8 3c c7 02 56 3c e4 2d 67 3c
       0.042513933 0.026412943 0.013062186 0.014110062
0001b0 18 44 49 3c 4b c9 03 bd 45 be ae 3c 08 ce 79 3d
       0.012284301 -0.03217439 0.021330962 0.060987502
0001c0 cf 72 63 bd 27 fc d8 3d fa 4b 1e 3d 4b d9 b0 bc
       -0.055529412 0.10594969 0.038646676 -0.021587988
0001d0 02 34 6f 3d 2f d1 63 3d 7e 47 6c 3d ef 9c 95 bc
       0.058399208 0.055619415 0.057685368 -0.018263308
0001e0 e0 dc bd 3d 05 fd 5d 3c 1e 5b cd 3d 7f f8 ea bc
       0.09270644 0.013549094 0.10027145 -0.028682945
0001f0 cd 36 fc bc 00 9a 86 3d 5b de f6 3c 26 11 55 3d
       -0.03078785 0.06572342 0.030135324 0.052018307
000200 a5 dd 45 bd 47 9f 91 bc ed 37 de 3d c0 bd 7f bd
       -0.04830708 -0.017776145 0.10850511 -0.06243682
000210 6d 21 46 3d 47 19 07 be a5 0d 67 3d 52 b9 da 3d
       0.04837172 -0.13193236 0.056409497 0.10679878
000220 a4 6e 86 3c 40 be 0f bd c4 e0 81 3d 42 72 29 3d
       0.01641018 -0.035093546 0.06341699 0.04136873
000230 d3 7e 5b 3d 4a 98 dc 3b 62 6e ab bd 1f f6 a4 bd
       0.053587746 0.0067320215 -0.08370663 -0.080547564
000240 ce c8 d1 3d a6 cb 68 3c e3 ae aa 3d 16 21 5d 3d
       0.102433786 0.01420871 0.08334138 0.05398663
000250 2d 64 5a bd 7b e6 c1 bd f9 fc cc 3d bc 49 4d bd
       -0.05331819 -0.09467789 0.10009188 -0.050119147
000260 83 e2 b7 3d bb 82 85 bd ce 83 fa bc a8 6b 03 3d
       0.089787506 -0.065190755 -0.030580427 0.03208509
000270 c5 45 be 3b 6d 62 e7 3d a6 83 a1 bc 15 ae a5 3c
       0.005806657 0.1129807 -0.019716095 0.02022461
000280 bf db e1 3d b9 88 07 be 5b 10 85 3c 52 45 96 3d
       0.11028241 -0.1323575 0.01624315 0.073374406
000290 0b 05 53 bb f8 df ff 3b 4e 26 bb 3d 90 cb 80 3d
       -0.003219905 0.0078086816 0.091381654 0.062888265
0002a0 a5 ac 39 bd 55 31 e9 3d 41 91 49 bd e5 27 d3 3d
       -0.045330662 0.113863625 -0.04921079 0.10310344
0002b0 91 67 de 3d 80 5d cf 3d e9 fb c2 3c ed fc 98 bd
       0.108595975 0.101252556 0.02380176 -0.07470117
0002c0 4f 02 ab 3d f4 9b 99 bc e9 0d e2 bd 2d eb b7 3d
       0.0835005 -0.018751122 -0.110378094 0.08980403
0002d0 b5 5f d0 3b 8b 45 92 3d d7 25 30 bd 05 d9 d8 3c
       0.0063590654 0.071421705 -0.043004837 0.02647067
0002e0 c0 f6 b7 3c b0 ef 98 bd cb 10 ab 3c 50 09 cc 3d
       0.022456527 -0.07467592 0.020882031 0.09962714
0002f0 94 8f 9d 3d b9 7c 7f 3d 8c ab cf 3d f6 aa 3c bd
       0.07693401 0.062374804 0.10140142 -0.04606148
000300 10 71 10 bd 3a d4 69 bc 34 f2 f9 3d e7 62 2d bd
       -0.035264075 -0.01427179 0.122044 -0.04233065
000310 a0 ce 92 bd 88 32 84 3d 4f ec c4 3b 77 4b 87 bd
       -0.07168317 0.064549506 0.0060096155 -0.06606191
000320 ac 8f af bd a5 20 ca 3d f4 46 1f 3d 9e da e9 3d
       -0.08572325 0.09869508 0.038886026 0.11418651
000330 bf e1 9c bd 25 3f ef 3d 8a bb 8c bc 7e 16 70 3b
       -0.07660245 0.11681966 -0.01717927 0.00366345
000340 08 03 5f 3d 90 27 7f bd f4 12 cd bc 81 e5 e4 bc
       0.05444625 -0.06229359 -0.025033452 -0.027941467
000350 3e 49 a7 3d 1f cc ac bd 9d 73 16 3d 67 5d bd bd
       0.08168267 -0.084373705 0.03673135 -0.09246331
000360 e0 48 0a bd e7 ec 15 bd f3 9d 49 bd 3d 90 2e bd
       -0.033760905 -0.03660288 -0.049222898 -0.042618025
000370 b2 64 24 3d 95 43 8c bd 6b f1 13 bd d8 0b 82 bd
       0.040135093 -0.06848828 -0.036118906 -0.06349915
000380 19 6b af 3c 96 9e a1 3c a7 ed 53 bd 99 b8 53 3c
       0.021413373 0.01972894 -0.051740315 0.0129224295
000390 5c db ea 3d eb f7 89 bb 0e e5 96 bd 9d a4 dd bd
       0.11467621 -0.0042104623 -0.073679075 -0.10822413
0003a0 d5 39 e1 3d be 56 69 3d 7f 9c c8 3d 78 1d b9 3d
       0.10997359 0.05696749 0.09795474 0.09038824
0003b0 a2 8f ad bc ba 4e b2 3c 4b 11 fb 3c 13 09 4e 3d
       -0.021186654 0.021766055 0.030647894 0.050301623
0003c0 ee 2a 17 bd f0 92 f1 bd 1a c6 fe 3d 3b 42 9a 3d
       -0.036906175 -0.11795604 0.124401286 0.07532164
0003d0 e9 80 ce 3a 15 55 b4 3d a2 68 18 bd 1a be d8 bd
       0.0015754971 0.088052906 -0.03720916 -0.10583134
0003e0 06 5e 71 3c b7 57 aa bd a8 dc 8f bd e2 81 d3 3d
       0.01473189 -0.083175115 -0.07024509 0.103275076
0003f0 20 7f 7f bd 7a 96 93 3d 96 a4 cb 3d fa e0 af bd
       -0.062377095 0.072064355 0.09943502 -0.08587833

actor.network.task_encoder.3.bias f4 [64]
000000 f6 b1 33 bb d9 0f eb bd d0 e7 ef bd ec 11 f9 3d
       -0.0027419305 -0.11477632 -0.117141366 0.121616215
000010 23 7f ab bd e7 e6 be 3d 91 0d c7 bd 9d 6b 5f bd
       -0.08373859 0.09321385 -0.097193845 -0.054545987
000020 cd fe 2e bd 20 dc 6b 3d 82 b2 c7 3d 16 47 39 bc
       -0.042723466 0.057582974 0.097508445 -0.011308452
000030 f7 39 aa 3d dd c1 87 bd 6e d2 b6 3d c2 12 bc bd
       0.08311837 -0.06628773 0.08926855 -0.09183265
000040 20 e7 a5 3d f0 28 6e 3d 68 0e 69 3d f8 46 06 bd
       0.08100724 0.05814451 0.056898504 -0.032782525
000050 da 50 c4 3d 55 9c 38 bb 7a f0 c6 3d 11 0b 85 3a
       0.09585734 -0.0028169353 0.09713836 0.0010150393
000060 8a d2 1d 3d e8 46 e0 3d a5 ee e9 bd c5 8e 8b bd
       0.038530864 0.10951024 -0.11422471 -0.068143405
000070 7e a7 0f bc d7 4d 96 bd f7 30 c0 bb 1e 07 03 bd
       -0.008767961 -0.073390655 -0.005865212 -0.03198921
000080 87 66 60 3d 8b 8d b0 bd 95 7e ab bd ea 7f e6 3b
       0.054785278 -0.08620747 -0.08373753 0.0070342915
000090 e1 15 bf bd 2c 0a 81 3d ec 21 8a bd 63 e7 85 bd
       -0.09330345 0.06300768 -0.06744751 -0.06538274
0000a0 34 ba bd bd c7 a1 bc bc 98 b8 49 3d a6 28 c7 3d
       -0.09264031 -0.02302636 0.049248308 0.0972455
0000b0 fa b8 d2 bc 45 e0 ba bd 97 73 95 bd cf 7c eb 3d
       -0.02572297 -0.09124807 -0.07297438 0.11498415
0000c0 42 64 e4 bc 71 73 80 3d a8 f7 bb bd dd 4c f8 bd
       -0.027879838 0.06272019 -0.09178096 -0.121240355
0000d0 11 6a ba bd 06 17 b1 3c e6 2d ba bd f3 85 d3 3d
       -0.09102262 0.021617424 -0.09090786 0.10328283
0000e0 9b 39 19 bc 12 e8 ee 3d 66 8c b8 bd 53 1e c9 3c
       -0.009352113 0.11665358 -0.09011154 0.024550593
0000f0 94 9b c8 bd 36 73 28 bd 00 3b bf bd 08 a2 00 bd
       -0.09795299 -0.0411255 -0.09337425 -0.031404525

actor.network.task_encoder.4.weight f4 [64]
000000 ea 71 7e 3f bb c3 7f 3f c2 2b 81 3f fc 13 7f 3f
       0.9939257 0.99908036 1.0091479 0.9963987
000010 3b 3c 7f 3f d1 b5 7f 3f 6c d7 7e 3f 57 9d 7f 3f
       0.9970128 0.99886805 0.9954746 0.99849457
000020 68 5a 7f 3f 9a e6 7f 3f 6c 16 7f 3f d4 88 7e 3f
       0.99747324 0.99961245 0.9964359 0.99427533
000030 11 97 80 3f 5b 77 7e 3f 89 8e 7f 3f c3 c7 7f 3f
       1.0046102 0.9940087 0.99826866 0.9991419
000040 a3 6c 80 3f c7 18 7e 3f 48 39 7f 3f 14 79 7f 3f
       1.0033153 0.9925656 0.9969678 0.99794126
000050 c7 b0 7e 3f 1e 6d 7f 3f 6d 4d 80 3f d6 85 7f 3f
       0.9948849 0.99775875 1.0023628 0.9981359
000060 b4 63 80 3f 9f 32 80 3f 4e 06 80 3f 96 d8 7d 3f
       1.0030427 1.0015448 1.0001924 0.9915861
000070 98 d5 7e 3f f0 61 80 3f 5d c2 7d 3f dd 06 80 3f
       0.9954467 1.0029888 0.991247 1.0002095
000080 6d 1d 7f 3f 02 e2 80 3f fc 11 80 3f 00 1c 7f 3f
       0.99654275 1.0068972 1.0005488 0.996521
000090 33 ac 7d 3f 53 28 80 3f d9 df 7d 3f 53 52 7e 3f
       0.9909088 1.0012306 0.9916969 0.99344367
0000a0 0c cc 7f 3f 60 ec 7e 3f 4f 95 7f 3f af 0d 7e 3f
       0.99920726 0.9957943 0.998372 0.9923963
0000b0 1f b6 7f 3f 25 a8 7f 3f 47 09 80 3f 03 0f 7f 3f
       0.9988727 0.99865943 1.0002831 0.9963228
0000c0 0e ba 7d 3f e8 17 7f 3f 8c ee 80 3f 79 0a 80 3f
       0.9911202 0.99645853 1.0072799 1.0003196
0000d0 d0 45 80 3f 0e 47 7d 3f 41 7e 7f 3f a9 7a 7e 3f
       1.0021305 0.98936546 0.99802023 0.99405915
0000e0 57 e6 7e 3f 34 d7 7e 3f a2 e0 7f 3f 07 40 81 3f
       0.9957022 0.99547124 0.9995214 1.0097665
0000f0 e5 9d 7c 3f f1 1a 7f 3f c6 f4 7e 3f d9 5e 7f 3f
       0.9867843 0.99650484 0.99592245 0.997541

actor.network.task_encoder.4.bias f4 [64]
000000 da 8a 0a bc f4 0d ba bb 63 b5 c9 3b c4 83 75 bb
       -0.008455956 -0.005677933 0.006155656 -0.0037462572
000010 d7 46 86 bb 2d bf 79 3b aa f0 da bb 08 9e 01 ba
       -0.0040978002 0.0038108334 -0.0066815214 -0.0004944508
000020 1c a4 3b 3a 8b 4a 80 38 5a 14 8c b9 55 74 ca bb
       0.0007157938 6.1174e-05 -0.00026718044 -0.0061784186
000030 04 1c 37 bb 14 0b 0f bc bf f7 5d 39 dd 23 6c bb
       -0.0027940283 -0.008730669 0.00021168495 -0.0036032118
000040 9a 8c 25 3b 6d 70 3e bb 8b ec 78 bb af 0c 12 ba
       0.0025260807 -0.002905871 -0.0037982787 -0.0005571348
000050 da 12 34 bb 2c ab df ba 74 b7 74 bb b7 56 ee b9
       -0.0027477057 -0.0017064563 -0.0037340792 -0.00045459505
000060 ad f7 6d b9 82 fa b0 bb 84 c1 24 bb 6c 82 d1 bb
       -0.00022694348 -0.0054009566 -0.0025139758 -0.0063937213
000070 f9 4e d6 bb 5b 35 23 3b 67 fd 77 bb 4a 00 ca b9
       -0.006540176 0.0024903629 -0.0037840249 -0.00038528658
000080 ff c9 92 bb 19 0e 69 3b 34 e4 a4 38 15 0f b2 bb
       -0.004479646 0.0035561381 7.8626355e-05 -0.005433927
000090 a9 c0 26 bc bd ff 1b 3b d4 06 0d bc 60 92 13 3b
       -0.01017777 0.0023803555 -0.008607585 0.0022517666
0000a0 23 ea 39 3a 5f f3 91 bb 67 be 88 bc f1 72 fa bb
       0.0007092079 -0.004454061 -0.016692353 -0.0076430966
0000b0 1d c8 55 bb d5 4e 77 ba 0d d7 85 bb 3c 5f 89 bb
       -0.0032620498 -0.0009434049 -0.004084474 -0.004192261
0000c0 b5 d8 eb bb f5 94 b3 b9 2b 83 ab bc 4e a0 1e bb
       -0.0071974644 -0.00034252522 -0.02093657 -0.0024204436
0000d0 55 d1 58 bb 7c ac 2e bc d2 4a 0a bb ba fe 13 3a
       -0.0033083756 -0.010661241 -0.0021101725 0.0005645562
0000e0 09 5f ef ba d2 5e 6c bc 78 82 80 b9 4e cc bb 3b
       -0.0018262576 -0.014426904 -0.0002451127 0.005731142
0000f0 ee 38 48 bc 61 7e af 39 06 1f 2a bb 28 99 ce bb
       -0.012220604 0.0003347276 -0.0025958433 -0.0063048787

actor.network.task_encoder.4.running_mean f4 [64]
000000 cf c6 ef 3c 17 5a b4 3d 6e 8f b1 3e 04 1d 25 3e
       0.029269604 0.08806246 0.3467974 0.1612435
000010 63 83 5b be b6 28 ef be 99 16 9c be f8 f9 0f be
       -0.21436839 -0.46710747 -0.3048599 -0.140602
000020 fb 10 8a be 24 83 fe be c6 b7 04 3f 8e 86 e1 bd
       -0.2696608 -0.49709427 0.51842916 -0.110119924
000030 ba 16 bc 3e 01 8c 39 be f5 b5 b1 be 24 c6 ad 3e
       0.3673609 -0.18119814 -0.34709135 0.33940232
000040 35 94 b0 3e bc 7f d8 bd 4f 2a 10 be 04 c8 4c 3c
       0.34488073 -0.105712384 -0.1407864 0.012498859
000050 bb de b5 bd f0 9a 17 be fe 74 d4 3e f2 c3 dc bd
       -0.08880373 -0.14805198 0.41495508 -0.10779561
000060 2c 66 fe be 4c a3 1e 3f f1 4f c2 3d 56 b6 f4 be
       -0.49687326 0.6196792 0.09487904 -0.4779536
000070 4b 9e 81 3e fe 35 ff be 99 a1 79 be 0c 43 3f be
       0.2531608 -0.4984588 -0.24378051 -0.1867792
000080 40 71 2b bd 72 4c b8 3e 2d fc 76 3e 6b 8b 9d 3e
       -0.04185605 0.35995823 0.24119635 0.3077043
000090 80 a5 63 be 60 a4 f8 bd 71 34 00 be 88 24 04 3f
       -0.22231102 -0.12140727 -0.12520005 0.5161824
0000a0 ad 91 b8 3e b0 f4 3d 3e d9 0f 9a 3e 2a cb e6 bc
       0.36048642 0.18550372 0.30090216 -0.028173048
0000b0 9e 2f 6f be 26 03 cb be 15 d8 b6 be 82 31 ab 3e
       -0.23358008 -0.3965084 -0.35711733 0.3343621
0000c0 f6 ba d1 bd 85 6b 65 be b4 a1 2a bf bf 8b e4 be
       -0.10240738 -0.22404297 -0.6665299 -0.44637868
0000d0 53 1b b3 3e b0 ae 9d be f7 b6 4b 3e 72 70 8d 3e
       0.34981784 -0.30797338 0.19894014 0.2762485
0000e0 1a d1 f4 3d dd 8f 98 3e 30 0c a5 be 30 b7 82 be
       0.119539455 0.2979726 -0.3223586 -0.25530386
0000f0 76 16 88 be ad e3 7b be c9 c2 bc be 43 d5 29 3e
       -0.26579636 -0.2459857 -0.3686736 0.16585259

actor.network.task_encoder.4.running_var f4 [64]
000000 95 e5 88 3d ec 06 a9 3d d9 bd da 3e 46 3a e4 3d
       0.06684414 0.08253273 0.42722967 0.11143927
000010 c4 8b 81 3d b5 24 8b 3e f9 0d b3 3e fb ad 0c 3e
       0.06325486 0.27176443 0.34971598 0.13738243
000020 8e a7 e6 3d 7e 2c 49 3e c8 34 d0 3e 69 b3 9f 3d
       0.11262427 0.19645879 0.4066527 0.07797892
000030 7d 1d 5d 3d fc 60 07 3f 8e 86 e2 3e 88 7d da 3e
       0.0539832 0.5288236 0.44243282 0.42673898
000040 e3 63 64 3e 1e ac 90 3c b4 84 34 3e 42 32 3e 3d
       0.22303729 0.017660197 0.17628747 0.04643465
000050 20 53 94 3d bf 18 2b 3e 8c b5 0a 3e e2 c7 9f 3e
       0.07242417 0.16708659 0.13545817 0.31207186
000060 61 3d 4a 3e 57 14 a2 3e 7b 55 40 3e 34 41 ca 3e
       0.19749977 0.31656143 0.18782608 0.3950287
000070 95 73 4f 3d 20 4a f7 3d be 4d 97 3d 55 09 a1 3e
       0.050647337 0.12074685 0.07387875 0.31452432
000080 9f 08 37 3e b3 d5 01 3e a5 90 78 3e fc f7 c0 3d
       0.17874382 0.12679176 0.24273928 0.09422299
000090 40 d8 43 3e 85 61 87 3e 62 a9 c5 3d 8e f5 73 3e
       0.19125462 0.2644159 0.09651448 0.2382414
0000a0 05 7a d8 3e 12 48 6f 3e 03 01 2b 3d 5e 26 26 3f
       0.42280594 0.23367336 0.04174901 0.64902294
0000b0 1e b8 59 3e cc 42 d7 3d 0f 48 b4 3e b8 1b 6d 3e
       0.21261641 0.10510787 0.35211226 0.23155105
0000c0 c8 34 db 3e 44 fe 55 3d 43 53 56 3e 95 c9 89 3d
       0.42813706 0.05224444 0.209302 0.06727902
0000d0 b8 8b 66 3e 1c 28 8e 3d 83 b5 2c 3e dc 58 27 3d
       0.22514236 0.06941244 0.16866116 0.040856227
0000e0 44 dd b9 3d e7 e6 00 3d 3b a4 91 3e 2f 43 4e 3d
       0.09075406 0.031470206 0.2844561 0.05035704
0000f0 c4 b0 15 3e 20 cc dc 3c 04 eb cc 3d 48 54 0e 3d
       0.14618212 0.026952803 0.10005763 0.034748346

actor.network.task_encoder.6.weight f4 [32, 64]
000000 78 fb dd 3d 1f 79 ce 3d 0b 14 eb bd ed c6 09 3b
       0.108389795 0.10081696 -0.11478432 0.002102311
000010 34 b1 34 bb a4 3d 8d 3d 79 9b 91 3d 3d 72 51 3d
       -0.0027571442 0.06896523 0.07109732 0.051134337
000020 a1 74 c5 3d 9a 41 1f 3d 2e 72 c1 3c 9d ee ae 3b
       0.09641386 0.038880922 0.023614015 0.0053385035
000030 7d 7e 53 3d c7 b0 94 3d da 29 6c bc 9d 28 8b bd
       0.0516343 0.0726028 -0.014414275 -0.06794856
000040 06 73 aa bd d3 19 88 bd e3 10 d0 3d d3 3c 3c bd
       -0.0832272 -0.066455506 0.10159471 -0.045956444
000050 ec e1 87 bd 95 38 be bc ea 73 24 3d 0c 00 80 bd
       -0.06634888 -0.02322034 0.040149607 -0.06250009
000060 1c 83 dd bc 98 fc 06 bd bb 64 03 3d 28 10 6e 3d
       -0.027040057 -0.032955736 0.032078486 0.058120877
000070 a9 a5 a1 3d 13 7e 85 bd 08 45 99 3d ea ca 10 bd
       0.07892925 -0.065181874 0.0748387 -0.035349764
000080 34 77 ca 3b 25 b1 0a 3d d5 ab c6 3d d6 5e eb bd
       0.006178761 0.033860344 0.09700743 -0.11492698
000090 85 46 83 bd 9d 5d 20 bb 50 67 ee 3b d3 e8 87 bd
       -0.06409935 -0.002446986 0.0072754994 -0.066362046
0000a0 86 e5 4f bc 21 72 f5 bd 33 37 38 b8 f1 e2 e7 bd
       -0.012689 -0.11984659 -4.3920427e-05 -0.113225825
0000b0 53 bc eb 3d 8e 71 75 3d 82 6e 7d 3d 09 a1 27 3d
       0.11510529 0.059922747 0.061872967 0.04092506
0000c0 2d 6d 66 3d 94 91 aa 3d f9 98 41 3d 9a ce d2 bc
       0.056256462 0.08328548 0.047265027 -0.02573328
0000d0 27 6a 30 bd f7 91 cd 3d 18 43 15 bb 24 69 f5 3b
       -0.043069985 0.10037606 -0.0022775587 0.0074893404
0000e0 79 32 f3 3d 8c 68 b7 bd 15 03 83 3d 94 12 70 3d
       0.11874861 -0.089554876 0.06397072 0.058611467
0000f0 ef 43 27 bd e2 5c 2b bd 99 c6 49 3d 40 10 a7 bd
       -0.04083627 -0.041836627 0.049261663 -0.08157396
000100 43 fa b6 3d 88 ef ec 3d 95 67 f0 bd d6 9f ef bd
       0.089344524 0.115691245 -0.11738507 -0.11700408
000110 76 1f f5 3d ee 00 bf 3c 99 28 4f 3d 03 c7 7b bd
       0.11968891 0.023315873 0.050575826 -0.06146909
000120 2c ee 97 bc d8 f4 2d 3c e0 a7 46 bc e4 18 01 bd
       -0.018546186 0.010617457 -0.012124985 -0.03151788
000130 6e d2 56 3d 93 0f 9d bc e7 f6 2d bd 8b 46 56 3c
       0.052446775 -0.019172465 -0.042471793 0.013078342
000140 f3 02 28 bc c3 98 0e bd 2b 7a 00 be 6b 43 e1 3d
       -0.010254609 -0.034813654 -0.12546603 0.10999187
000150 24 b8 98 3d 40 39 a8 bd 82 b9 43 3d 1b 00 d7 3d
       0.07456997 -0.082140446 0.047784336 0.10498067
000160 af 79 e1 bd 2d 85 41 bc b7 ec fd 3d b3 ef 17 3c
       -0.110095374 -0.011811537 0.123986654 0.009273457
000170 95 b5 6f 3a 70 4c 1c 3d 05 b6 49 bd 90 7c b4 bd
       0.00091441843 0.038158834 -0.049245853 -0.08812821
000180 43 ee e8 bd ad 22 ca 3d 15 4d ba bb c4 e2 75 bd
       -0.1137357 0.09869895 -0.0056854584 -0.060030714
000190 7f 3d 19 bd de 59 bf 3d 83 da e5 bd 5a a4 23 bb
       -0.037412163 0.09343313 -0.112233184 -0.0024969787
0001a0 30 0e d2 b9 91 0f 1e bd 57 be 7c 3d dd 6d 9b 3d
       -0.00040064892 -0.038589064 0.06170496 0.07589314
0001b0 53 7f bc 3d df 7c d5 bd bd f0 b0 3d 41 b1 9e 3c
       0.09203973 -0.10424208 0.08639667 0.01937163
0001c0 30 18 ad bd 13 a4 f7 bc 5c ad 88 3d b1 ab 8e 3d
       -0.08451879 -0.030229604 0.06673691 0.06966341
0001d0 35 c7 01 bd fe 05 b8 3b 93 e6 e3 3d 28 93 33 bd
       -0.03168412 0.0056159487 0.11127963 -0.04384151
0001e0 31 72 fa bd 07 1a 47 bd b1 b9 81 3d 50 06 a5 3d
       -0.122288115 -0.048608806 0.06334246 0.08057845
0001f0 17 eb 4d 3d 57 2c 8d 3d 37 60 8d 3d cc 4c c8 3d
       0.050273027 0.06893223 0.06903117 0.09780273
000200 4a 0b 14 3d cc 80 b8 36 be 73 e0 3d 21 9d a9 bd
       0.03614358 5.4986212e-06 0.10959576 -0.08281923
000210 cb 72 b4 3c d8 81 2b 3c 59 11 8f 3d e6 f6 90 3d
       0.022027394 0.010467969 0.06985731 0.07078342
000220 dc 69 f5 bd eb ec c3 bd 81 16 a4 3c 98 9e 76 bc
       -0.11983082 -0.09566673 0.020030262 -0.01505246
000230 cd 49 93 bd a0 17 b2 bd f9 38 85 3d f1 63 20 bd
       -0.07191811 -0.08695912 0.06505007 -0.03915781
000240 5a de 80 3d 1c 03 b7 bd e5 12 f8 3c e8 be 50 3c
       0.0629241 -0.0893614 0.030282447 0.012740828
000250 3d 83 b8 bc 5d 69 52 bd 2c 19 ab 3d b3 c9 7f bd
       -0.022523517 -0.051370014 0.083544105 -0.062448215
000260 79 52 49 3d c1 31 bb 3d 4b dc 81 3d b8 a9 a2 3c
       0.049150918 0.09140349 0.06340846 0.019856319
000270 6e da 26 bc 8f bd 89 3d da 55 4a 3d 1e 95 38 bc
       -0.010183914 0.067256086 0.04939828 -0.011266021
000280 67 16 94 bd aa 8e 04 3d e7 8a 86 3d 39 8e c1 bc
       -0.072308354 0.032362618 0.06569462 -0.023627387
000290 78 7a c3 3d e0 7a 5b bd de 39 3a 3d f4 83 82 bd
       0.095448434 -0.05358398 0.045465343 -0.06372824
0002a0 14 9b 03 bd 61 3a 6a 3d 38 bd 20 bd bf 73 94 bd
       -0.032130316 0.05718458 -0.039242953 -0.07248639
0002b0 86 fd 83 bd 80 9c 23 3d ee 76 c5 3c 84 18 fc 3c
       -0.0644484 0.039944172 0.024104562 0.030773409
0002c0 62 85 e1 bd 91 a6 fc 3d 32 26 6d 3d 22 4a 4b bd
       -0.11011769 0.123364575 0.057897754 -0.049631245
0002d0 9b bc d2 3d c3 e3 14 bc 19 20 6c 3d da e1 3c bd
       0.1028988 -0.009087506 0.0576478 -0.046113826
0002e0 d7 cb f1 3d 13 98 37 bd 2e cc 84 bc 75 73 32 3d
       0.118064575 -0.044822764 -0.016210642 0.04356714
0002f0 a8 54 52 3d e2 62 00 bd 3f bb 28 3d 24 95 3b 3c
       0.051350266 -0.031344302 0.041194197 0.011449132
000300 e2 cc 07 3d e9 84 79 bd 11 a4 28 3d 94 d9 4b 3d
       0.033154376 -0.06091777 0.04117209 0.049768046
000310 1c ed b2 bd 57 35 a2 bd 0a 99 05 3d 3a 1d b7 bd
       -0.08736631 -0.0792033 0.032616653 -0.089411214
000320 80 0e 96 3c b6 b5 b6 bd cd 60 37 bc fb 1c c7 3d
       0.018317461 -0.08921377 -0.011192513 0.097223245
000330 85 1e e1 bd 00 55 e8 bd ce bb 1e 3b d6 91 93 3d
       -0.10992149 -0.113443375 0.0024220827 0.072055504
000340 14 5e a4 3d 81 27 e9 bc 05 76 e9 3d 26 01 ed bd
       0.080257565 -0.02846122 0.113994636 -0.11572485
000350 76 41 fc 3d e1 a0 07 be b1 9b 7b bd 0c db 38 3c
       0.12317173 -0.13244964 -0.061427776 0.011282694
000360 29 c3 e8 bd 23 4f a7 3d ba d4 5a 3d 7f df 0e bc
       -0.11365349 0.08169391 0.053425528 -0.008720278
000370 83 ea e7 3d 4d 29 c8 bb 6b 3d d5 3d 04 28 8a 3d
       0.113240264 -0.006108439 0.10412105 0.067459136
000380 9b 05 c7 3d 0b f7 80 bd d0 65 e3 bd 9d 19 09 3d
       0.09717866 -0.0629712 -0.111034036 0.033471692
000390 4b 78 01 be b4 e6 3b bc a1 f8 b2 bd e1 27 c3 3d
       -0.12643544 -0.011468578 -0.087388285 0.09529091
0003a0 20 74 f6 3b dc 4a c2 bd 59 14 6b 3c 89 8e c5 3a
       0.0075211674 -0.094869345 0.014348113 0.0015072386
0003b0 ea 96 5f bd 94 98 5c 3c 88 86 eb 3d 0d e3 22 3d
       -0.054587282 0.013464112 0.11500269 0.039767314
0003c0 b7 dd ef bc d7 15 8a bd eb b6 04 3d 0b 4e 9a bd
       -0.029280527 -0.06742447 0.032401007 -0.07534417
0003d0 a4 dd 17 3d 2a b7 20 bd ac 2c 81 3d bd c8 f4 bc
       0.037076607 -0.03923718 0.063073486 -0.029880876
0003e0 c1 4c 98 bd 3b 8c 8a 3d c8 9e 94 bc ea a3 61 bd
       -0.07436515 0.06765028 -0.018142119 -0.05508796
0003f0 f4 a1 10 3d a4 a1 7d bd 37 c7 d9 bc 42 36 d0 3d
       0.0353107 -0.06192173 -0.02658425 0.10166599

actor.network.task_encoder.6.bias f4 [32]
000000 29 30 0e 3d 5d 1c 70 bc f8 38 ab 3d ad 51 88 bd
       0.034713898 -0.0146552 0.08360475 -0.066562034
000010 62 8d f0 3d 90 c9 ef 3d 7e 42 f9 bc 85 c6 84 3d
       0.11745717 0.11708367 -0.030427214 0.06483177
000020 d2 ad 87 bc e7 0e 8a 3d 2d 0d ad 3d 85 27 b8 bc
       -0.016562376 0.06741124 0.08449779 -0.022479782
000030 0b 1c e3 bc d0 6b 59 bd 5d 07 7e bd 79 3e 8f 3d
       -0.027723333 -0.053081334 -0.06201874 0.069943376
000040 2e d0 74 ba 34 b3 b6 3d 5a df e8 3c 70 de f8 bd
       -0.00093388825 0.08920899 0.028426815 -0.121518016
000050 8d 50 6d 3d ac a8 8d bd 79 7f ca 3d 31 ea 88 3d
       0.057938147 -0.06916937 0.09887595 0.066852935
000060 97 75 26 3d ff 9e fc bd 99 ce fa 3d b6 b9 c1 bd
       0.040639486 -0.123350136 0.122464366 -0.0945925
000070 2f 57 8e ba f3 65 e0 3d f2 8a d1 bc d6 ad 96 bc
       -0.0010859723 0.10956945 -0.02557895 -0.018393438

actor.network.vm_encoder.0.weight f4 [64, 10]
000000 44 3f 97 3e 6c 33 1d bd 76 c6 81 be fb 3e 6e 3e
       0.29540455 -0.038379118 -0.25346726 0.23266213
000010 45 70 89 3e a4 c8 74 be 34 77 5a be d4 e4 9f 3d
       0.26843467 -0.23904663 -0.21334535 0.078073174
000020 f5 67 50 3e da 6c 5e 3e 4c 8b 65 3e 2d 73 a9 3c
       0.20352156 0.21721211 0.22416419 0.020684803
000030 0c dc 2f 3e 22 31 5f bd a3 5b 82 3e c2 dc 54 bb
       0.17173785 -0.054490216 0.25460538 -0.0032480215
000040 f3 3f 97 3d b5 14 4d be 02 46 5d bd e1 1d 67 be
       0.07385244 -0.2002743 -0.054021843 -0.22569992
000050 5e d4 b8 bd 57 5a 2a 3c a3 40 4b 3e b2 d5 fb 3b
       -0.09024881 0.010397515 0.19848876 0.0076853866
000060 21 b1 17 bd 32 a5 2f 3e c3 c5 44 be bb e6 6b be
       -0.037034158 0.17152861 -0.19216065 -0.23037235
000070 f6 f3 1b 3e c3 51 9e be 9a bd 8f be ef 9c 90 be
       0.15229782 -0.30921754 -0.28074342 -0.2824473
000080 83 ed 77 3e 04 28 0b 3c 50 3d 71 3e 2e 8a 98 bd
       0.24211697 0.008493427 0.23558545 -0.07448231
000090 62 8c 85 3e 81 1a 23 be 69 c1 6a 3e 32 11 7d 3e
       0.26083666 -0.15928079 0.22925343 0.2471359
0000a0 16 07 37 be ee bb 36 3d 47 c8 36 be 80 9c fc bd
       -0.17873797 0.044612817 -0.17849837 -0.123345375
0000b0 79 af 86 3d a9 10 8e 3e b3 59 56 bc 05 61 a0 be
       0.065764375 0.27747086 -0.013082909 -0.3132402
0000c0 c4 a8 8c be f3 41 c2 3d f0 f0 88 be df 33 11 be
       -0.27472508 0.09485235 -0.2674632 -0.14179944
0000d0 01 3b 65 3d 48 c5 59 be 5e c7 18 be 63 9a 05 be
       0.055964474 -0.21266663 -0.14919803 -0.13047175
0000e0 8e 30 37 be 55 f7 91 3e 33 87 4e be bd 85 21 bd
       -0.17889616 0.28509012 -0.20168762 -0.039434183
0000f0 3b 5e 0e be d8 f1 8f 3d cc 09 9e 3e f4 ba cf 3c
       -0.13903134 0.0702855 0.3086685 0.0253577
000100 6f 7e 5c bd 74 06 8c be 1f 96 3d bd ba 45 c3 bd
       -0.053831514 -0.27348673 -0.046285745 -0.09534784
000110 0d bd 6c be a8 67 36 3e 42 c8 27 3e 47 55 8f be
       -0.23118992 0.17812979 0.16384986 -0.2799475
000120 a4 7b 85 3e c7 55 5f 3d bf b7 8b be e7 01 2d be
       0.26070893 0.054525163 -0.27288625 -0.16895257
000130 d6 d2 74 bb aa 59 b7 3c a9 34 34 3e 40 d1 97 be
       -0.0037357113 0.022381622 0.17598213 -0.29651833
000140 9a 90 94 3e 08 1d 87 3d bf 7a 76 3e 4f c7 0c bd
       0.29016572 0.06597334 0.24070261 -0.034369763
000150 46 ae 2b bc 7c 76 78 be e6 6c 94 bd 4c 79 ae 3d
       -0.010478562 -0.24263948 -0.07247333 0.08519229
000160 ce 96 01 be c2 46 a1 bd 0d 3c f9 3d 6a 10 63 3e
       -0.12655184 -0.07874824 0.12169657 0.2217423
000170 a5 e2 90 3e 2b 88 51 be f6 18 50 bd 0d 21 b1 bd
       0.28297916 -0.204621 -0.050805055 -0.08648882
000180 60 00 97 be b3 e6 08 3e e4 64 32 3e f7 90 b6 3d
       -0.29492474 0.13369255 0.17421299 0.089143686
000190 43 c9 f9 3d 4a 92 c0 bd 86 ba 08 be 77 1c eb 3d
       0.12196591 -0.094029024 -0.13352403 0.114800386
0001a0 1f 4e e0 bd 48 58 f3 bd 7b 21 56 3e 3d 88 88 be
       -0.109524004 -0.11882073 0.2091121 -0.26666442
0001b0 d9 bc 4e bd c4 a5 6a 3c 54 9a 9f 3e 8f 13 09 be
       -0.050473068 0.014321748 0.3117243 -0.13386367
0001c0 37 20 52 3e 6a f8 e5 bd fb 45 aa 3d 81 3e bd 3b
       0.20520101 -0.11229022 0.08314129 0.0057752733
0001d0 7e e0 a4 be a0 40 44 bc bd 0c 47 be 8b 9a 7a 3d
       -0.32202524 -0.011978298 -0.19438453 0.06118254
0001e0 71 e3 12 be 1d 48 93 be f9 51 5b be 38 b8 39 bd
       -0.14344575 -0.28765956 -0.21417989 -0.0453417
0001f0 38 01 18 3d a0 63 b2 bd 2d a4 81 3e 82 7d 87 be
       0.037110537 -0.08710408 0.2532057 -0.26462942
000200 8b 6c 9d 3e 67 a1 9f bc c3 d8 89 be 9f f0 99 bd
       0.30746874 -0.019486142 -0.2692319 -0.07516598
000210 8f 58 76 3e 10 e9 93 3e bc df 96 be 8d 55 90 bd
       0.2405722 0.2888875 -0.2946757 -0.070475675
000220 58 58 b2 3d 66 50 81 3e 4b 72 67 bd df e0 94 be
       0.087082565 0.25256652 -0.056505483 -0.29077813
000230 be 4a 13 3c 83 53 9b 3e 44 a7 6b be 02 f1 35 3e
       0.008989988 0.30337152 -0.23013026 0.17767718
000240 39 2c 73 3e dd 97 9d bd 39 0b 9d 3e 38 5a 30 3d
       0.23747338 -0.07694981 0.30672625 0.04305479
000250 15 a6 23 be 46 73 40 3e 38 05 91 be 32 17 58 3e
       -0.15981324 0.18793973 -0.28324294 0.21102598
000260 7e 48 04 bb 4e b3 4b 3e ba 9c 7a be 33 07 47 be
       -0.002018481 0.19892618 -0.24473849 -0.1943634
000270 09 fe 8e 3e a4 45 6d 3e 09 b0 9d 3e e0 35 af bd
       0.27928188 0.23171097 0.30798367 -0.08555198
000280 e9 71 6d 3d b3 a7 09 be 1e 9e 28 3e 12 e0 6e be
       0.05796996 -0.13442878 0.16466567 -0.23327664
000290 ed 56 00 3e 36 a8 9d bd dc 64 34 3d c4 42 05 be
       0.1253316 -0.07698099 0.0440415 -0.1301375
0002a0 ee ed 85 be bf 84 3e be 6d 8e 5b be 1a 34 75 3e
       -0.26158088 -0.18605326 -0.2144105 0.23945656
0002b0 4c 9d b9 3d 38 91 40 3e f8 7f fa bc 9a bb 0b be
       0.09063205 0.18805397 -0.030578598 -0.13645783
0002c0 46 b7 6b be d4 79 9c 3e d6 50 80 be dd 10 05 bd
       -0.23019132 0.30561697 -0.25061673 -0.032486785
0002d0 c3 dc 30 be f9 df 94 be 28 3f 55 be 1c e7 3e be
       -0.17271714 -0.29077128 -0.20824873 -0.18642849
0002e0 c3 e9 8f 3d 30 d0 32 3e 32 80 1d bc 7d 26 24 bd
       0.070270084 0.1746223 -0.009613084 -0.040075768
0002f0 e9 ca 0a 3e d6 f8 68 3d 47 59 58 3d a5 14 41 3e
       0.13553967 0.056877933 0.052819517 0.18855532
000300 b1 0a 82 3e 6e ed 14 bd f2 d8 96 be 18 15 7c be
       0.25398782 -0.036359243 -0.2946239 -0.24617422
000310 27 96 3e be d1 e7 5c be 30 9d af bd 3b 99 91 3e
       -0.18611966 -0.21572806 -0.08574903 0.28437218
000320 ec f3 76 be 3a 89 d8 bc 58 6f 8a 3e 02 da ca bd
       -0.24116486 -0.026432622 0.27038074 -0.09904863
000330 e9 48 6b be 58 00 b5 3d 17 61 8d 3e 15 92 3f be
       -0.22977032 0.08837956 0.27613136 -0.1870807
000340 23 60 be 3d 26 2a 8d bd 5b 89 ba bc de 4d 18 be
       0.092956804 -0.06892805 -0.022770574 -0.14873454
000350 d7 b5 1a 3e 87 ad 26 be 10 6d 55 be 96 11 28 3e
       0.15108429 -0.16277133 -0.20842385 0.16412959
000360 02 bf 72 be 77 1c 73 3d 5d 78 ba bd fb 1c 57 be
       -0.23705676 0.059353318 -0.09104989 -0.21007149
000370 bd 12 91 3d f7 bd 98 3e 86 4b 56 be b6 00 ab 3d
       0.07083652 0.29832432 -0.20927247 0.08349745
000380 e0 56 30 3e 35 f3 92 3e e4 d4 b3 3d bf 65 16 be
       0.1722064 0.28701177 0.0878084 -0.1468725
000390 27 c3 e6 bd da c7 90 be c7 69 98 be 37 38 88 3e
       -0.11267691 -0.28277475 -0.29768202 0.2660539
0003a0 23 9b 0a 3e f0 57 b4 3d d5 b3 08 3e f3 94 29 be
       0.13535742 0.08805835 0.1334985 -0.16560726
0003b0 49 7c 8e 3e a2 f8 4e 3d c1 fd 52 3e 93 26 d6 3d
       0.27829197 0.050530083 0.20604612 0.10456576
0003c0 79 88 41 3d 56 a9 37 bd 6d f5 8a be 6e f1 94 3e
       0.04724929 -0.044839226 -0.2714037 0.29090446
0003d0 1c a6 76 3e 4a 2e a0 3e 66 71 05 3c e7 f2 ef 3d
       0.24086803 0.31285316 0.008144712 0.11716252
0003e0 bd 32 39 3e 02 c7 83 3c ea e4 84 be 97 9a 95 3e
       0.18085761 0.016086105 -0.25955898 0.29219505
0003f0 bc af 6a 3e 58 8b 0c bc d6 89 8b 3e 97 29 ee bd
       0.229186 -0.008578144 0.27253598 -0.116290264

actor.network.vm_encoder.0.bias f4 [64]
000000 ec c6 52 be 74 b1 19 be a9 35 8e 3e ad c3 39 be
       -0.20583695 -0.15009099 0.27775314 -0.1814105
000010 66 e7 a4 bd 1b 79 d3 bd cc aa e7 3d 5d 80 8f 3e
       -0.08051948 -0.103258334 0.11311874 0.2802762
000020 b1 be b2 bd 3a 81 96 be 3d 35 a0 be a6 8b 5d be
       -0.08727778 -0.29395467 -0.31290618 -0.21635303
000030 76 83 09 3e f7 19 90 3d 1c 81 2c be ff c0 27 be
       0.13429055 0.070362024 -0.16846126 -0.16382216
000040 79 1d 55 3d 6d 62 a1 be 99 33 60 3e 92 74 bb bd
       0.05203006 -0.31520405 0.21894683 -0.091530934
000050 c9 cf 57 be 65 ce 80 bd 33 93 1d 3e a5 87 52 3e
       -0.21075357 -0.06289367 0.15388183 0.20559557
000060 6b 98 7e be 71 05 81 3e 79 67 71 3e ed ae 72 be
       -0.2486283 0.25199464 0.23574628 -0.23699541
000070 e8 22 16 3e 07 2a 1c 3e 90 a2 ae bd bb 3c 67 bc
       0.14661753 0.15250407 -0.085271 -0.0141136
000080 bd 34 24 be 94 a6 08 bd a1 d5 9c be 6f 66 47 3e
       -0.16035743 -0.033361986 -0.30631736 0.19472669
000090 bb eb 9f 3e 51 f0 60 3e 47 1f 01 be 61 b4 53 be
       0.31234536 0.21966673 -0.12609588 -0.20674278
0000a0 15 92 52 3d 4a 76 92 3e b5 27 7d be 34 16 86 be
       0.051408846 0.28605872 -0.24722178 -0.26188815
0000b0 88 b4 57 be 8e c9 29 3e 19 ab 21 3c b9 96 ab 3c
       -0.21064961 0.16580793 0.009867453 0.020945894
0000c0 86 07 7d 3e a6 87 05 be 0b dc 64 be fc cf 10 be
       0.24709901 -0.13040027 -0.22349565 -0.1414184
0000d0 58 0c ed bc 71 1c 2e be 5b 47 d9 bc f0 05 a2 3d
       -0.02893655 -0.17003037 -0.026523283 0.07911289
0000e0 f6 eb 99 3e 69 21 9f 3c cc 14 cf 3d 0e 0c 66 3e
       0.30062836 0.01942511 0.101113886 0.22465536
0000f0 f2 3b 87 3d 7b 62 94 3e d3 d9 86 3e 3a c4 98 3e
       0.066032305 0.28981385 0.26338062 0.2983721

actor.network.vm_encoder.1.weight f4 [64]
000000 32 e4 7e 3f e6 c8 7d 3f af 8c 80 3f ab 9a 80 3f
       0.9956695 0.9913467 1.0042933 1.0047201
000010 47 33 7f 3f 05 08 80 3f a4 6f 7f 3f 44 02 81 3f
       0.9968762 1.0002447 0.99779725 1.0078816
000020 30 a7 80 3f cb d4 7f 3f 4d ca 7f 3f b0 af 7e 3f
       1.0051022 0.9993407 0.9991806 0.9948683
000030 fb a3 80 3f f4 e8 7e 3f 8e 0d 80 3f d1 ef 81 3f
       1.0050043 0.9957421 1.0004137 1.0151311
000040 c5 6e 7e 3f 2f df 7d 3f 02 2f 7c 3f b3 05 80 3f
       0.9938777 0.99168676 0.9850923 1.0001739
000050 67 18 7c 3f 7c ea 7d 3f a0 1f 80 3f b7 20 7f 3f
       0.98474735 0.9918592 1.0009651 0.99659294
000060 99 8a 7f 3f ef fe 7e 3f d9 e4 80 3f 36 a1 7d 3f
       0.9982086 0.9960775 1.0069839 0.99074113
000070 dc 7e 7e 3f 9c a3 7d 3f 48 6d 7d 3f 95 98 7f 3f
       0.9941232 0.99077773 0.98994875 0.99842197
000080 ed 16 7e 3f 03 72 80 3f 7f 3d 7e 3f ad 18 7c 3f
       0.9925373 1.0034794 0.99312586 0.9847515
000090 29 96 80 3f bc d9 7f 3f 2e ca 7f 3f 64 c5 7d 3f
       1.0045825 0.9994161 0.99917877 0.9912932
0000a0 da 4e 7f 3f 80 5a 7c 3f fc 1d 80 3f e1 22 7d 3f
       0.9972969 0.9857559 1.000915 0.98881346
0000b0 48 c0 81 3f 34 17 7f 3f 98 5d 80 3f 0f f4 80 3f
       1.0136805 0.9964478 1.0028563 1.0074481
0000c0 da 5e 80 3f 85 82 81 3f 7e 8c 81 3f e7 4f 82 3f
       1.0028946 1.0117956 1.0121 1.0180634
0000d0 48 46 7c 3f 5c 74 7e 3f 6c 6f 7f 3f 67 ee 7e 3f
       0.9854474 0.993963 0.9977939 0.99582523
0000e0 8a 3c 7d 3f 7f c8 7f 3f c8 9e 82 3f fb c5 82 3f
       0.989205 0.9991531 1.0204706 1.0216669
0000f0 27 8f 7e 3f fb 1d 80 3f 13 02 80 3f d6 80 80 3f
       0.99437183 1.0009149 1.0000633 1.0039318
