logs/longcp_aligned/ablation/per_variant/hetero/hetero_best.pt (torch, 286379 bytes, 90 tensors)

actor.network.task_encoder.0.weight f4 [64, 6]
0.39333653 0.31000042 0.40180063 -0.031795196 -0.34027484 -0.26255992 -0.10830231 0.055276953
-0.13245504 -0.2352223 -0.033227127 0.25748417 0.33935118 -0.20151243 -0.23421204 -0.018795416
0.17972252 0.18274818 -0.15150839 0.14135236 -0.07043417 -0.04906292 -0.33104455 0.29244342
-0.2876611 0.10165709 -0.2046852 -0.3441801 -0.025963258 0.13546425 -0.37437296 0.029505905
-0.15402783 -0.058101866 -0.18198605 -0.05085955 0.36720785 -0.39245674 -0.19322848 0.34694964
-0.021471044 -0.08481705 0.13733378 -0.17234118 0.16760714 -0.25187626 -0.122778796 0.31244698
0.039890457 -0.32293555 0.24528462 -0.2712803 -0.026331674 -0.0011796944 -0.18096718 0.18320046
-0.03442093 0.2232162 0.20750938 -0.3192891 0.30482277 0.010161664 0.32240617 0.2540856
-0.12001041 -0.08082798 -0.14925703 -0.19333766 0.3162932 0.3806346 0.18069535 0.3667501
0.1386252 0.06348575 -0.1623805 0.38097966 -0.29155487 0.30155638 -0.0521562 -0.15979208
0.0028957399 0.24839945 -0.36316913 -0.31658497 -0.07464816 -0.40483272 0.052119114 -0.2895399
-0.36667973 -0.16583192 -0.21877368 -0.0021099364 0.27359238 -0.099357486 0.0812752 0.18441433
0.10988046 0.019536354 0.06690357 0.24009971 -0.36655524 -0.16257389 0.3608186 -0.10708555
0.2584559 -0.32612735 0.09117211 -0.0119355 -0.38230243 0.09107977 -0.049511816 -0.39641792
-0.12695865 0.33635122 0.081791 -0.2492458 -0.21081862 -0.18626048 -0.21154326 0.07687384
-0.19178937 0.29061046 0.2175455 0.2994916 0.0073376647 0.36888373 -0.3420976 -0.22018744
-0.23194024 0.1907938 -0.3882135 -0.19344433 0.16291039 0.38197973 0.26562303 0.1686911
-0.28841197 0.12390977 -0.14860968 0.023343755 -0.052212097 0.38202927 0.26642725 0.04271837
-0.3969089 0.31971136 0.2801963 0.1386685 -0.40354764 -0.27125198 0.21500199 -0.3830447
0.17430928 0.04702243 0.37304556 0.13976926 0.21543232 0.13189909 -0.19284913 -0.22180872
-0.39588177 -0.06370941 0.0064166747 -0.13193391 0.11346337 0.28602353 0.03300662 -0.15858212
-0.35567704 -0.20987883 0.12539305 -0.38022542 -0.40571582 0.022181582 0.0105664 -0.321109
0.09606487 0.17834757 -0.31786996 -0.060614105 0.24176234 0.36417654 -0.285607 -0.21941672
-0.23123604 -0.20782049 -0.26263815 0.31288737 -0.029603401 -0.31052852 -0.28918067 -0.34708935
-0.38373953 0.02316636 0.042236738 0.23480853 0.33811957 0.2878733 0.3552358 -0.15847462
-0.3074339 -0.0377157 -0.0879185 -0.019397134 0.009739798 -0.22965367 -0.34855092 -0.16793886
0.07668464 0.20910566 -0.3661593 -0.3667842 -0.021231309 -0.15650192 -0.16667448 -0.39480704
0.18334308 -0.06867112 0.32215953 -0.2621009 -0.37089574 -0.0052980212 0.09574608 0.2385379
-0.04702895 0.31356144 -0.22312523 -0.34582376 -0.20168942 -0.16304602 0.14110237 0.3267755
0.38349843 -0.1942226 -0.09729384 -0.06609145 0.14973216 -0.12541638 -0.14507306 0.07090257
-0.2601573 0.3502298 -0.354877 -0.36066887 -0.022139488 -0.28840202 -0.17647704 0.23759459
0.0032778035 -0.043323353 -0.37875587 -0.13336343 -0.13612227 0.30106694 0.16034001 -0.037385542
00000000: 6863 c93e 60b8 9e3e d0b8 cd3e ae3b 02bd
00000010: 8138 aebe 416e 86be 9acd ddbd 166a 623d
00000020: 4ba2 07be 1dde 70be 2b19 08bd f7d4 833e
00000030: 70bf ad3e 4659 4ebe 48d5 6fbe d8f8 99bc
00000040: 2e09 383e 5722 3b3e 0425 1bbe acbe 103e
00000050: ca3f 90bd 33f6 48bd ac7e a9be 25bb 953e
00000060: 5148 93be 9831 d03d ff98 51be 6038 b0be
00000070: e6b0 d4bc 24b7 0a3e d0ad bfbe 5eb6 f13c
00000080: 79b9 1dbe 39fc 6dbd 8d5a 3abe 1a52 50bd
00000090: ab02 bc3e 17f0 c8be b0dd 45be 62a3 b13e
000000a0: 0be4 afbc 90b4 adbd 3aa1 0c3e 357a 30be
000000b0: 35a1 2b3e edf5 80be 7373 fbbd 0df9 9f3e
000000c0: 2d64 233d cf57 a5be e42b 7b3e 40e5 8abe
000000d0: 86b5 d7bc fa9f 9aba 764f 39be e798 3b3e
000000e0: f6fc 0cbd ca92 643e 577d 543e dc79 a3be
000000f0: bb11 9c3e 1c7d 263c 6c12 a53e 8217 823e
00000100: 05c8 f5bd 2489 a5bd d6d6 18be 4ffa 45be
00000110: 2ff1 a13e 8ae2 c23e 3408 393e abc6 bb3e
00000120: c4f3 0d3e d104 823d 1347 26be c40f c33e
00000130: ae46 95be 9965 9a3e bda1 55bd 89a0 23be
00000140: 74c6 3d3b 6d5c 7e3e 4ef1 b9be 6d17 a2be
00000150: 22e1 98bd 3c46 cfbe da7a 553d 933e 94be
00000160: 72bd bbbe d8cf 29be 3506 60be dc46 0abb
00000170: 4d14 8c3e f07b cbbd 9d73 a63d 1cd7 3c3e
00000180: 0209 e13d b40a a03c bd04 893d b3dc 753e
00000190: 21ad bbbe c579 26be 37bd b83e ab4f dbbd
000001a0: 5554 843e 2afa a6be 71b8 ba3d 1e8d 43bc
000001b0: 25bd c3be 0888 ba3d e7cc 4abd 4af7 cabe
000001c0: 7301 02be 3a36 ac3e 0a82 a73d 4a3a 7fbe
000001d0: d6e0 57be 11bb 3ebe cc9e 58be 0870 9d3d
000001e0: 6f64 44be e5ca 943e 3fc4 5e3e f756 993e
000001f0: cb70 f03b 54de bc3e 6b27 afbe d178 61be
00000200: be81 6dbe 735f 433e ebc3 c6be 4516 46be
00000210: fbd1 263e d992 c33e beff 873e 5cbd 2c3e
00000220: bcaa 93be 68c4 fd3d 232d 18be 673b bf3c
00000230: 5adc 55bd 5799 c33e 2769 883e 75f9 2e3d
00000240: a537 cbbe 35b1 a33e e475 8f3e 1eff 0d3e
00000250: cc9d cebe 8ae1 8abe 7b29 5c3e 6f1e c4be
00000260: 227e 323e 979a 403d d4ff be3e ac1f 0f3e
00000270: 4a9a 5c3e 8e10 073e 3e7a 45be d321 63be
00000280: 04b1 cabe 147a 82bd f842 d23b af19 07be
00000290: 7c5f e83d ad71 923e f331 073d 5a63 22be
000002a0: 4d1b b6be 7aea 56be 0967 003e e8ac c2be
000002b0: fcb9 cfbe 26b6 b53c b21e 2d3c 6668 a4be
000002c0: a9bd c43d bfa0 363e dabf a2be 7f46 78bd
000002d0: 8c90 773e 5975 ba3e 153b 92be c7ae 60be
000002e0: 24c9 6cbe e5ce 54be 8278 86be c632 a03e
000002f0: d582 f2bc 98fd 9ebe 7d0f 94be b2b5 b1be
00000300: 8279 c4be 61c7 bd3c 6e00 2d3d a671 703e
00000310: 021e ad3e 2164 933e 77e1 b53e 2c47 22be
00000320: fa67 9dbe c77b 1abd 9d0e b4bd bde6 9ebc
00000330: ac93 1f3c 552a 6bbe 4475 b2be 2af8 2bbe
00000340: d60c 9d3d cb1f 563e 3b79 bbbe 23cb bbbe
00000350: 48ed adbc 0a42 20be b7ac 2abe 2624 cabe
00000360: 4abe 3b3e 72a3 8cbd 18f2 a43e 1732 86be
00000370: 0ce6 bdbe 069b adbb 8516 c43d 4743 743e
00000380: 6ea1 40bd 208b a03e f17a 64be d00f b1be
00000390: ac87 4ebe 89f5 26be 247d 103e 1e4f a73e
000003a0: e859 c43e 4ae2 46be fe41 c7bd f45a 87bd
000003b0: 6353 193e 276d 00be 088e 14be 5e35 913d
000003c0: 5633 85be 5251 b33e 70b2 b5be 97a9 b8be
000003d0: df5d b5bc 6ea9 93be 66b6 34be ff4b 733e
000003e0: 6bd0 563b d473 31bd 4aec c1be 6c90 08be
000003f0: a363 0bbe 7225 9a3e 2c30 243e 9521 19bd

actor.network.task_encoder.0.bias f4 [64]
-0.17164512 0.27201003 -0.3526209 0.14604293 -0.33613157 0.13287038 -0.19631383 0.2929656
-0.3130067 0.40603453 0.37443915 0.15044266 0.39297232 -0.39060828 -0.015846752 -0.33208925
0.2591615 -0.044247054 0.23962604 -0.083303824 0.17233828 0.31960976 -0.2853573 0.37407294
-0.40026686 -0.031104533 -0.09664228 -0.12304942 0.40490094 -0.25535545 0.015545064 0.021409338
0.14456077 -0.09362103 0.31299168 0.37759298 -0.23711064 -0.124149784 -0.29021493 0.23794533
-0.3782685 -0.13662352 -0.1902177 0.044666417 -0.13560468 0.3130655 0.12333812 0.090612635
0.24612571 -0.036189795 0.092230126 -0.19132459 0.17196564 -0.12558459 0.30834436 -0.1749226
-0.067222156 -0.35790095 0.24626587 -0.25030202 0.3654634 0.12304427 -0.023132443 -0.15301524
00000000: bdc3 2fbe e644 8b3e ba8a b4be 478c 153e
00000010: 7019 acbe 2c0f 083e 7e06 49be 96ff 953e
00000020: 6a42 a0be c2e3 cf3e 7db6 bf3e a40d 1a3e
00000030: ab33 c93e cffd c7be 0cd1 81bc 9a07 aabe
00000040: d1b0 843e 663c 35bd 8760 753e 329b aabd
00000050: 7279 303e e4a3 a33e 5a1a 92be 7d86 bf3e
00000060: c7ef ccbe efce febc 63ec c5bd 5601 fcbd
00000070: 2d4f cf3e f3bd 82be b9b0 7e3c a362 af3c
00000080: bd07 143e 62bc bfbd 7240 a03e de53 c13e
00000090: 22cd 72be 3e42 febd 0d97 94be f1a7 733e
000000a0: 69ac c1be 09e7 0bbe 6ec8 42be 22f4 363d
000000b0: f4db 0abe 1f4a a03e b298 fc3d 1e93 b93d
000000c0: 6108 7c3e c03b 14bd 26e3 bc3d 98ea 43be
000000d0: c317 303e 3f99 00be 50df 9d3e e91e 33be
000000e0: c5ab 89bd cb3e b7be 1f2d 7c3e 9627 80be
000000f0: 051e bb3e a2fe fb3d 4080 bdbc 07b0 1cbe

actor.network.task_encoder.1.weight f4 [64]
1.0022599 1.0003994 1.0008496 0.9977879 0.99935484 0.997315 0.9972803 0.99775743
0.99702615 0.9982262 1.0001314 0.99793065 1.001167 1.0034868 1.0006646 1.0038503
0.99965113 0.9998588 0.99786514 0.9990752 0.99770814 1.0010357 1.003372 0.9985219
1.0007654 1.0023324 1.0015436 0.99789125 1.0015831 1.0002748 1.0015084 0.9996433
0.9993567 0.9987858 0.9984251 1.001668 0.9977745 1.0012345 0.9991568 0.9986012
0.99772173 1.0021001 1.0057669 1.0027333 0.9982265 0.9985471 0.99942565 0.99890566
0.997744 1.0023552 1.0028551 1.0022213 1.0047618 0.9961463 1.0011986 0.9976149
0.9990448 0.99899566 1.0008414 1.0005723 1.0020814 0.99954176 0.99930817 0.99808717
00000000: 0d4a 803f 160d 803f d71b 803f 076f 7f3f
00000010: b8d5 7f3f 0950 7f3f c34d 7f3f 086d 7f3f
00000020: 1b3d 7f3f c18b 7f3f 4e04 803f 6278 7f3f
00000030: 3e26 803f 4172 803f c715 803f 2b7e 803f
00000040: 23e9 7f3f bff6 7f3f 1774 7f3f 64c3 7f3f
00000050: cd69 7f3f f021 803f 7e6e 803f 229f 7f3f
00000060: 1519 803f 6e4c 803f 9532 803f cd75 7f3f
00000070: e033 803f 0109 803f 6d31 803f a0e8 7f3f
00000080: d7d5 7f3f 6db0 7f3f ca98 7f3f a836 803f
00000090: 266e 7f3f 7428 803f bdc8 7f3f 54a4 7f3f
000000a0: b16a 7f3f d144 803f f8bc 803f 9159 803f
000000b0: c68b 7f3f c8a0 7f3f 5cda 7f3f 48b8 7f3f
000000c0: 276c 7f3f 2d4d 803f 8e5d 803f ca48 803f
000000d0: 099c 803f 7203 7f3f 4727 803f b163 7f3f
000000e0: 66c1 7f3f 2ebe 7f3f 921b 803f c112 803f
000000f0: 3444 803f f8e1 7f3f a9d2 7f3f a482 7f3f

actor.network.task_encoder.1.bias f4 [64]
0.00076950685 0.004636444 -0.0027614695 -0.00091920816 -0.001542304 0.0020980441 -0.00278614 0.005284054
-0.007990925 -0.0020611526 -0.0023689063 0.0044595804 -0.0014458182 0.0036442191 0.004107489 -0.0013892981
-0.002056611 -0.0049746935 0.00079602835 -0.0008865457 -0.0052692783 -0.004699114 0.0049873586 -0.0036637944
0.0051121386 -0.0023417284 0.0019487361 0.004815039 -0.0007111882 0.0054012593 0.0011202178 0.0033223308
-0.0056485254 0.0026706422 -0.001961855 0.006635634 -0.003147144 0.0034003872 -0.0048196805 0.0016048248
-0.0012050322 0.000746675 0.0015740572 0.0015656311 -0.0014733868 0.0016061817 -0.002998326 0.0020963554
-0.0072289445 0.0039805216 0.007019507 -0.0043472643 -0.0034667312 0.0036643106 -0.0024581875 -0.001078654
0.0017349623 -0.0050079017 0.0026209773 0.00012156775 -0.00046423488 -0.0032000775 0.00080884364 0.0008769455
00000000: bbb8 493a 50ed 973b c5f9 34bb 04f7 70ba
00000010: 2227 caba 577f 093b ac97 36bb dc25 ad3b
00000020: 5eec 02bc 6714 07bb a73f 1bbb ac21 923b
00000030: 9c81 bdba dad3 6e3b 1d98 863b 1c19 b6ba
00000040: 35c8 06bb c102 a3bb 8fac 503a 1367 68ba
00000050: e9a9 acbb 06fb 99bb ff6c a33b 451c 70bb
00000060: ba83 a73b af77 19bb bc6c ff3a 7ac7 9d3b
00000070: 086f 3aba 0cfd b03b 46d4 923a 76bb 593b
00000080: 4417 b9bb f105 2f3b 7792 00bb bc6f d93b
00000090: 5140 4ebb 08d9 5e3b 69ee 9dbb fc58 d23a
000000a0: 2cf2 9dba 83bc 433a 9850 ce3a dd35 cd3a
000000b0: a81e c1ba 8486 d23a 907f 44bb 0263 093b
000000c0: c8e0 ecbb 096f 823b e403 e63b 7f73 8ebb
000000d0: 1932 63bb ee24 703b 8b19 21bb 9f61 8dba
000000e0: ad67 e33a 5319 a4bb b4c4 2b3b 30f2 fe38
000000f0: 8d64 f3b9 64b8 51bb 9408 543a d1e2 653a

actor.network.task_encoder.1.running_mean f4 [64]
17488.633 -5765.3184 -10194.384 -3066.1853 -8910.035 -6704.7 -8410.373 7295.4033
10675.881 -1497.4866 14033.828 13767.733 -7067.529 125.27875 2267.7788 11908.131
2912.0774 11249.79 -2155.517 -9176.689 9469.313 -10095.889 11561.241 -2271.7065
12194.917 7587.717 -8394.721 4938.791 5457.292 4180.797 -12431.789 -1289.2681
1838.9567 -13381.593 -15170.953 -924.33966 14021.706 -2047.1542 6142.032 6517.226
-15447.396 141.89241 6979.2656 16124.014 1374.1003 12991.215 -7453.1826 -6773.756
-11377.009 -9854.646 -5907.8594 12352.704 -3196.4485 -17521.58 -17502.434 8873.671
-3596.3157 -9441.399 -16889.887 6279.0156 -3452.9475 12390.656 3582.7761 -5149.408
00000000: 44a1 8846 8c2a b4c5 8949 1fc6 f7a2 3fc5
00000010: 2438 0bc6 9a85 d1c5 7e69 03c6 3afb e345
00000020: 86cf 2646 922f bbc4 5047 5b46 ef1e 5746
00000030: 3bdc dcc5 b88e fa42 76bc 0d45 8610 3a46
00000040: 3d01 3645 29c7 2f46 46b8 06c5 c262 0fc6
00000050: 41f5 1346 8ebf 1dc6 f7a4 3446 4efb 0dc5
00000060: ab8b 3e46 bc1d ed45 e22a 03c6 5456 9a45
00000070: 568a aa45 60a6 8245 283f 42c6 9428 a1c4
00000080: 9dde e544 5f16 51c6 d00b 6dc6 bd15 67c4
00000090: d316 5b46 efe4 ffc4 42f0 bf45 cfa9 cb45
000000a0: 965d 71c6 75e4 0d43 201a da45 0ef0 7b46
000000b0: 36c3 ab44 dcfc 4a46 76e9 e8c5 0cae d3c5
000000c0: 09c4 31c6 96fa 19c6 e09e b8c5 d102 4146
000000d0: 2dc7 47c5 29e3 88c6 debc 88c6 afa6 0a46
000000e0: 0dc5 60c5 9985 13c6 c6f3 83c6 2038 c445
000000f0: 29cf 57c5 a09a 4146 6bec 5f45 44eb a0c5

actor.network.task_encoder.1.running_var f4 [64]
7.38766e+07 8.028547e+06 2.5101378e+07 2.2705715e+06 1.9172246e+07 1.0857201e+07 1.7085744e+07 1.2854975e+07
2.7531714e+07 542084.4 4.7566224e+07 4.578049e+07 1.2066621e+07 3820.0354 1.2427295e+06 3.425345e+07
2.047942e+06 3.0568702e+07 1.1219448e+06 2.033885e+07 2.1656736e+07 2.4619358e+07 3.2285906e+07 1.247304e+06
3.5924784e+07 1.3904944e+07 1.7019842e+07 5.8912695e+06 7.194229e+06 4.2225325e+06 3.7328476e+07 401181.62
816512.0 4.325126e+07 5.559348e+07 206362.2 4.7492108e+07 1.01224606e+06 9.111647e+06 1.0259076e+07
5.763054e+07 4896.0786 1.1765465e+07 6.2796556e+07 455958.3 4.0762092e+07 1.3415569e+07 1.1083242e+07
3.1264112e+07 2.3456904e+07 8.431525e+06 3.6857196e+07 2.4680078e+06 7.4153864e+07 7.399626e+07 1.9017866e+07
3.123739e+06 2.1529416e+07 6.890293e+07 9.524225e+06 2.8806515e+06 3.7083584e+07 3.1003898e+06 6.403999e+06
00000000: 8fe8 8c4c 0603 f54a 2182 bf4b ae95 0a4a
00000010: cb45 924b f1aa 254b 985a 824b bf26 444b
00000020: e10c d24b 4658 0449 6473 354c 82a3 2e4c
00000030: 3d1f 384b 91c0 6e45 4cb3 9749 a2aa 024c
00000040: 30fe f949 7f38 e94b c6f4 8849 512c 9b4b
00000050: 503a a54b afd4 bb4b 6952 f64b 4042 9849
00000060: cc0a 094c 302c 544b e1d9 814b 8bc9 b34a
00000070: ea8c db4a 89dc 804a 9765 0e4c b4e3 c348
00000080: 0058 4749 8ffd 244c 8212 544c 8d86 4948
00000090: 032b 354c 6121 7749 5f08 0b4b 848a 1c4b
000000a0: d3d7 5b4c a100 9945 d986 334b c38c 6f4c
000000b0: caa2 de48 bb7e 1b4c 91b4 4c4b ea1d 294b
000000c0: b886 ee4b 44f6 b24b a5a7 004b 5b99 0c4c
000000d0: 9fa2 164a f16f 8d4c fc22 8d4c 4518 914b
000000e0: 6ca8 3e4a a441 a44b 026c 834c 0154 114b
000000f0: 2ed2 2f4a 7076 0d4c 973b 3d4a 3e6f c34a

actor.network.task_encoder.3.weight f4 [64, 64]
-0.030079046 -0.09652623 0.03023277 -0.12466218 -0.061909772 -0.09374687 0.036958028 0.0385418
0.11073037 -0.026577396 0.10165246 -0.08719477 -0.08842391 -0.09215676 0.0019276406 -0.11460698
0.08332237 -0.099215224 0.04554935 -0.062406823 0.0008936485 -0.041598525 0.057995602 0.1109325
-0.12464645 -0.1085869 -0.017887201 0.0029611783 0.117852144 0.053726844 -0.008616513 -0.11509701
0.026187148 -0.055747245 0.04029567 -0.051921427 -0.008113157 0.07959625 0.11093188 -0.111406885
-0.08327213 -0.049485054 -0.0049531735 0.08537859 0.07456012 -0.011893453 -0.07591119 0.10387404
-0.05202851 -0.063403144 0.049234644 0.06791917 0.030128434 -0.03727844 -0.056827415 -0.037850544
0.0842355 0.06171671 0.046964303 -0.013387091 0.052679833 0.014961109 -0.04956064 -0.05632454
0.05740564 0.004253253 0.09976478 0.08808013 0.0746299 -0.0921322 -0.11112377 0.057677276
-0.005745816 -0.12004804 -0.05195247 -0.057281304 -0.07645536 0.027459664 0.043294247 -0.0718363
-0.10462941 0.08411349 0.07368681 0.042198624 0.046803623 -0.015929773 -0.013111689 -0.026938353
-0.058589652 -0.08805593 0.080624886 -0.016891273 0.008721109 -0.101539075 0.008300395 0.0030134341
-0.086214446 -0.10270376 -0.09788904 -0.115143806 0.10252931 -0.056615867 -0.02451275 0.081115924
0.03635513 0.014875176 0.0014717958 0.0025234963 0.0014319563 -0.043754343 0.014963534 0.05482726
-0.061826732 0.09975516 0.032451637 -0.033195574 0.05205565 0.04952957 0.051489934 -0.029856531
0.08654177 0.0071766097 0.093622975 -0.04017849 -0.037209913 0.05406422 0.018482007 0.04570284
-0.059059706 -0.0143988915 0.11186735 -0.05910713 0.051754076 -0.12855446 0.05978531 0.09604683
0.0048965854 -0.031713873 0.052022725 0.030422108 0.056924243 0.016620873 -0.09400442 -0.09173409
0.09157122 0.0030336361 0.08674985 0.057346676 -0.064684115 -0.09129768 0.089158 -0.046677273
0.07881765 -0.07639794 -0.027238395 0.021059524 -0.0050311713 0.10233596 -0.016428085 0.023635
0.09830496 -0.12897174 0.01963588 0.07669396 -0.014443547 0.011132239 0.079972625 0.051654287
-0.041968998 0.106266506 -0.060386587 0.09196442 0.12373281 0.09019901 0.027162068 -0.07133356
0.08689921 -0.015367814 -0.10706009 0.078457214 0.00976381 0.07479485 -0.039624162 0.015139792
0.025819352 -0.07127324 0.024203727 0.088970184 0.08031822 0.05118663 0.090263665 -0.042701427
-0.040751282 -0.017141666 0.11920345 -0.045126665 -0.07456673 0.061698433 0.0032078475 -0.07159502
-0.09127634 0.095708996 0.033393256 0.108669095 -0.07945667 0.11508176 -0.022741117 -0.0018677578
0.048926003 -0.06781509 -0.027861573 -0.030774593 0.07616612 -0.087245606 0.031178888 -0.095358625
-0.039277732 -0.042155456 -0.052075353 -0.048146408 0.034592487 -0.07399197 -0.038910463 -0.06641197
0.015867667 0.016861051 -0.054639407 0.010073753 0.10919261 -0.0070712166 -0.079217054 -0.113745905
0.10706949 0.051539388 0.092401884 0.08486014 -0.023232367 0.016200393 0.027745953 0.0474123
-0.039800677 -0.12086164 0.12152693 0.06981833 -0.0013035865 0.08512412 -0.04012316 -0.11135591
0.011861419 -0.08605046 -0.07301354 0.097722515 -0.065249324 0.066556685 0.093910545 -0.08871993
00000000: 5568 f6bc 8baf c5bd b7aa f73c e34e ffbd
00000010: 1a95 7dbd 5cfe bfbd 4d61 173d 02de 1d3d
00000020: 9bc6 e23d d7b8 d9bc 2a2f d03d 2c93 b2bd
00000030: 9817 b5bd afbc bcbd e3a8 fc3a 10b7 eabd
00000040: eba4 aa3d 5a31 cbbd f591 3a3d 4c9e 7fbd
00000050: bc43 6a3a 3763 2abd cc8c 6d3d 9430 e33d
00000060: a346 ffbd cf62 debd 2e88 92bc 5410 423b
00000070: 775c f13d ae10 5c3d 462c 0dbc fbb7 ebbd
00000080: 6e86 d63c 3957 64bd 130d 253d 90ab 54bd
00000090: 0ced 04bc 5c03 a33d 4130 e33d 4b29 e4bd
000000a0: 948a aabd d7b0 4abd 3b4e a2bb f8da ae3d
000000b0: fab2 983d c2dc 42bc 5377 9bbd eabb d43d
000000c0: d91b 55bd 82d9 81bd 44aa 493d 3519 8b3d
000000d0: e8cf f63c 47b1 18bd ddc3 68bd 2c09 1bbd
000000e0: a983 ac3d a9ca 7c3d a45d 403d 8855 5bbc
000000f0: cfc6 573d 701f 753c 1900 4bbd 90b4 66bd
00000100: 2d22 6b3d df5e 8b3b 7a51 cc3d 5b63 b43d
00000110: 90d7 983d cfaf bcbd dc94 e3bd 023f 6c3d
00000120: 6647 bcbb bfdb f5bd 1dcc 54bd cd9f 6abd
00000130: a194 9cbd 17f3 e03c 4f55 313d e91e 93bd
00000140: f247 d6bd b243 ac3d 1ce9 963d 77d8 2c3d
00000150: 28b5 3f3d 287f 82bc 69d2 56bc d2ad dcbc
00000160: b4fb 6fbd ab56 b4bd a91e a53d 915f 8abc
00000170: fbe2 0e3c b8f3 cfbd 61fe 073c 097d 453b
00000180: 3391 b0bd 5956 d2bd 0d7a c8bd 84d0 ebbd
00000190: e3fa d13d 0ae6 67bd f6ce c8bc 1b20 a63d
000001a0: 1ee9 143d 03b7 733c 46e9 c03a 3e61 253b
000001b0: 7bb0 bb3a c137 33bd 9c29 753c 8d92 603d
000001c0: 073e 7dbd 6f4c cc3d 02ec 043d 15f8 07bd
000001d0: 4e38 553d 85df 4a3d 1ce7 523d af95 f4bc
000001e0: d03c b13d c429 eb3b 67bd bf3d 3392 24bd
000001f0: 6c69 18bd 7272 5d3d 9467 973c e732 3b3d
00000200: 97e8 71bd 54e9 6bbc b61a e53d 511a 72bd
00000210: 15fc 533d c8a3 03be 71e1 743d 33b4 c43d
00000220: 8973 a03b 68e6 01bd c815 553d c937 f93c
00000230: 6529 693d 7f28 883c 6485 c0bd 15df bbbd
00000240: b189 bb3d f8cf 463b e8a9 b13d 59e4 6a3d
00000250: 1b79 84bd 47fa babd 7898 b63d ab30 3fbd
00000260: 266b a13d 8676 9cbd 0e23 dfbc 0685 ac3c
00000270: 86dc a4bb 8495 d13d 3194 86bc 309e c13c
00000280: 1c54 c93d 2b11 04be 6ddb a03c b911 9d3d
00000290: a1a4 6cbc ff63 363c b0c8 a33d 7293 533d
000002a0: afe7 2bbd 41a2 d93d ed57 77bd d857 bc3d
000002b0: a167 fd3d 42ba b83d fc82 de3c 5417 92bd
000002c0: 37f8 b13d 49c9 7bbc 5242 dbbd 2dae a03d
000002d0: 63f8 1f3c 0b2e 993d f24c 22bd e40c 783c
000002e0: 1b83 d33c b4f7 91bd e546 c63c 0036 b63d
000002f0: e17d a43d 12a9 513d 28dc b83d b1e7 2ebd
00000300: d1ea 26bd ae6c 8cbc f020 f43d bdd6 38bd
00000310: 71b6 98bd 7fb7 7c3d c03a 523b 69a0 92bd
00000320: 17ef babd 1403 c43d 5ec7 083d e78d de3d
00000330: 2eba a2bd fcaf eb3d 944b babc 8dcf f4ba
00000340: a266 483d a3e2 8abd f43d e4bc 001b fcbc
00000350: fcfc 9b3d d3ad b2bd de6a ff3c 624b c3bd
00000360: b0e1 20bd 33ab 2cbd f74c 55bd 2b35 45bd
00000370: dab0 0d3d 1a89 97bd 9460 1fbd 0003 88bd
00000380: e9fc 813c 3020 8a3c 92cd 5fbd 620c 253c
00000390: 60a0 df3d aab5 e7bb 8d3c a2bd 9df3 e8bd
000003a0: 4047 db3d f71a 533d 333d bd3d 27cb ad3d
000003b0: ce51 bebc b0b6 843c 7b4b e33c 6633 423d
000003c0: 0906 23bd 4f86 f7bd 1ce3 f83d eafc 8e3d
000003d0: 1bdd aaba 8e55 ae3d 2f58 24bd 910e e4bd
000003e0: 6656 423c 393b b0bd 1f88 95bd be22 c83d
000003f0: 70a1 85bd df4e 883d 2c54 c03d cbb2 b5bd

actor.network.task_encoder.3.bias f4 [64]
-0.0027417091 -0.11477651 -0.11714138 0.12161644 -0.08374021 0.09321368 -0.09719387 -0.054546077
-0.042723376 0.057583112 0.097508445 -0.01130887 0.083118886 -0.06628774 0.089268565 -0.09183265
0.08100743 0.058142852 0.056898825 -0.03278347 0.09585747 -0.0028161819 0.09713867 0.0010151176
0.03853065 0.10951028 -0.11422472 -0.06814339 -0.008768253 -0.073390484 -0.005865771 -0.031989325
0.05478562 -0.08620729 -0.08373721 0.0070339646 -0.09330343 0.0630076 -0.06744738 -0.06538274
-0.09264029 -0.023026237 0.049248204 0.09724548 -0.025723062 -0.09124771 -0.07297433 0.114984244
-0.027879847 0.0627201 -0.091781 -0.12123985 -0.09102287 0.021617692 -0.09090787 0.10328253
-0.009351925 0.116654 -0.09011153 0.024550458 -0.097952776 -0.04112517 -0.09337456 -0.031404153
00000000: 3fae 33bb f20f ebbd d2e7 efbd 0a12 f93d
00000010: fd7f abbd d0e6 be3d 940d c7bd b56b 5fbd
00000020: b5fe 2ebd 45dc 6b3d 82b2 c73d d748 39bc
00000030: 3c3a aa3d dec1 87bd 70d2 b63d c212 bcbd
00000040: 39e7 a53d 3327 6e3d be0e 693d f647 06bd
00000050: ec50 c43d b18f 38bb a4f0 c63d b20d 853a
00000060: 51d2 1d3d ed46 e03d a6ee e9bd c38e 8bbd
00000070: b8a8 0fbc c04d 96bd a735 c0bb 3d07 03bd
00000080: e366 603d 738d b0bd 6a7e abbd 2c7d e63b
00000090: de15 bfbd 210a 813d da21 8abd 63e7 85bd
000000a0: 31ba bdbd 85a1 bcbc 7cb8 493d a328 c73d
000000b0: 2cb9 d2bc 14e0 babd 9173 95bd dc7c eb3d
000000c0: 4764 e4bc 6573 803d adf7 bbbd 994c f8bd
000000d0: 336a babd 9617 b13c e82d babd cb85 d33d
000000e0: d138 19bc 4be8 ee3d 658c b8bd 0b1e c93c
000000f0: 779b c8bd de72 28bd 293b bfbd a4a1 00bd

actor.network.task_encoder.4.weight f4 [64]
0.99963075 0.99601555 1.0022593 1.0006353 0.99884677 0.99600285 0.9930793 0.99907297
1.0020139 0.99767697 1.0018733 0.9981937 0.99995637 0.99877495 0.9980628 1.0046319
0.99828804 1.0012656 1.0024606 0.99801695 0.9985171 0.99816734 0.99901706 0.9980236
0.9995701 1.001326 0.9977493 0.9972057 0.99747556 0.9997187 0.9994132 0.9995271
0.9994214 0.9953018 0.9964361 1.0074035 0.9975415 0.9988027 0.9981386 0.99746966
0.9990811 1.0026654 0.9961368 1.0024589 0.9972991 0.9980724 0.9979399 0.9957623
0.9935082 0.99786514 0.998649 0.99933124 1.0036567 0.9986002 0.9968279 0.9974507
0.9976225 1.002053 0.9966452 0.999683 0.9981038 0.9967936 0.9972102 1.0000944
00000000: cde7 7f3f e0fa 7e3f 084a 803f d114 803f
00000010: 6cb4 7f3f 0bfa 7e3f 723a 7e3f 3fc3 7f3f
00000020: fe41 803f c267 7f3f 623d 803f 9f89 7f3f
00000030: 24fd 7f3f b7af 7f3f 0b81 7f3f c797 803f
00000040: ce8f 7f3f 7929 803f a150 803f 0a7e 7f3f
00000050: d19e 7f3f e587 7f3f 95bf 7f3f 7a7e 7f3f
00000060: d3e3 7f3f 732b 803f 806c 7f3f df48 7f3f
00000070: 8f5a 7f3f 91ed 7f3f 8bd9 7f3f 02e1 7f3f
00000080: 15da 7f3f 19cc 7e3f 7016 7f3f 99f2 803f
00000090: e15e 7f3f 89b1 7f3f 0386 7f3f 2c5a 7f3f
000000a0: c7c3 7f3f 5757 803f d202 7f3f 9350 803f
000000b0: fe4e 7f3f ac81 7f3f fd78 7f3f 47ea 7e3f
000000c0: 8e56 7e3f 1774 7f3f 76a7 7f3f 2cd4 7f3f
000000d0: d377 803f 43a4 7f3f 1d30 7f3f ee58 7f3f
000000e0: 3064 7f3f 4643 803f 2424 7f3f 3aeb 7f3f
000000f0: bb83 7f3f de2d 7f3f 2b49 7f3f 1803 803f

actor.network.task_encoder.4.bias f4 [64]
0.00047190118 -0.003794548 0.0033352312 0.00035537174 -0.0005172432 -0.0033851415 -0.0063669384 -0.00079115486
0.0015941018 -0.0013109453 0.0014832745 -0.0009136947 -0.00030694928 -0.0007512172 -0.0014362192 0.002388931
-0.0007948412 2.3907009e-05 0.0026168542 -0.0014677139 -0.0015653257 -0.0015353314 -0.0006015485 -0.0019417618
0.0002493871 0.001203354 -0.0019677316 -0.0023774107 0.0007180137 0.00058915553 -0.00053379446 -0.0008741137
-0.00081923616 -0.003079975 -0.0027728688 0.006772186 -0.0021986053 -0.000835217 -0.0023069847 -0.00053513295
-0.0005650332 0.002750836 -0.0030085025 0.0027601472 -0.002245627 -0.00068339676 -0.0016551302 -0.0024978751
-0.0070132795 -0.0021744526 -0.0009341917 -0.00066551234 0.0039089965 -0.001152932 -0.003924136 -0.0011085238
-0.0013077322 0.0008280748 -0.002831393 0.0005784845 -0.0016773677 -0.0027919016 -0.0029389288 0.0002502049
00000000: 8169 f739 f4ad 78bb e593 5a3b 3051 ba39
00000010: 9b97 07ba 40d9 5dbb c0a1 d0bb 8165 4fba
00000020: 2ef1 d03a 06d4 abba 6f6a c23a 0385 6fba
00000030: 09ee a0b9 55ed 44ba 853f bcba 9d8f 1c3b
00000040: e45c 50ba e98b c837 877f 2b3b 4e60 c0ba
00000050: 9d2b cdba 2c3d c9ba 3db1 1dba b782 feba
00000060: 2cc0 8239 dcb9 9d3a 0ff5 00bb 55ce 1bbb
00000070: 1539 3c3a 8f71 1a3a 57ee 0bba c724 65ba
00000080: 02c2 56ba 68d9 49bb 05b9 35bb 37e9 dd3b
00000090: 7a16 10bb 77f2 5aba c830 17bb 2a48 0cba
000000a0: bc1e 14ba 5f47 343b 4c2a 45bb 96e3 343b
000000b0: 5f2b 13bb fb25 33ba f4f0 d8ba 64b3 23bb
000000c0: a7cf e5bb 4381 0ebb 8be4 74ba c775 2eba
000000d0: 0a17 803b fa1d 97ba 0a96 80bb e34b 91ba
000000e0: 3668 abba 2913 593a e48e 39bb 70a5 173a
000000f0: 1fdb dbba 56f8 36bb 0b9b 40bb ef2d 8339

actor.network.task_encoder.4.running_mean f4 [64]
-0.1939528 -0.13009053 0.28310207 0.05899155 -0.2144793 -0.40348417 -0.4300214 -0.14623845
-0.17745993 -0.45032054 0.45097348 -0.14424361 0.25087908 -0.35732228 -0.20462956 0.22226027
0.16956668 -0.049124315 -0.19545108 -0.07517622 0.20710829 -0.079624824 0.2064609 0.10497813
-0.47158304 0.5069219 -0.21440035 -0.3703678 0.0674958 -0.4472556 -0.022465589 -0.15409604
-0.018643571 0.325454 -0.13773286 0.17549667 -0.19002071 -0.04980261 -0.03748688 0.5125356
0.33619258 -0.0029309008 0.21196172 -0.07807027 -0.14206725 -0.24499045 -0.36905593 0.17990315
0.20130998 -0.15543441 -0.5984947 -0.34328097 0.04134473 -0.21027547 0.27131748 0.059288394
0.05078351 0.1898994 -0.2225105 -0.18085064 -0.0008483113 -0.22239807 -0.3443585 0.092996
00000000: 909b 46be 7436 05be c1f2 903e 20a1 713d
00000010: 76a0 5bbe 7a95 cebe c42b dcbe 88bf 15be
00000020: 0eb8 35be 6a90 e6be ffe5 e63e 99b4 13be
00000030: 3973 803e f2f2 b6be 698a 51be 3298 633e
00000040: e3a2 2d3e 9436 49bd 5424 48be fdf5 99bd
00000050: 3214 543e 5712 a3bd 7c6a 533e c6fe d63d
00000060: 5573 f1be a2c5 013f c48b 5bbe d9a0 bdbe
00000070: 3d3b 8a3d b0fe e4be c109 b8bc 5acb 1dbe
00000080: 67ba 98bc e8a1 a63e d809 0dbe 66b5 333e
00000090: ca94 42be d2fd 4bbd d88b 19bd 8835 033f
000000a0: 6f21 ac3e 5b14 40bb 7e0c 593e 4ee3 9fbd
000000b0: 147a 11be c7de 7abe e6f4 bcbe 8838 383e
000000c0: 3424 4e3e 332a 1fbe f336 19bf 86c2 afbe
000000d0: 1759 293d 7452 57be 20ea 8a3e 63d8 723d
000000e0: 5f02 503d fd74 423e cbd9 63be e930 39be
000000f0: 3561 5eba 52bc 63be c24f b0be b074 be3d

actor.network.task_encoder.4.running_var f4 [64]
0.11386972 0.043677196 0.35116887 0.18563114 0.032189153 0.23875183 0.3622969 0.06546009
0.050718166 0.1963535 0.105406106 0.011763862 0.03329069 0.70713717 0.3390836 0.24104172
0.11135115 0.016972074 0.10758436 0.006868167 0.00866248 0.11759129 0.077975124 0.15900724
0.22430445 0.33762315 0.27233186 0.3029026 0.14013968 0.18760557 0.019453356 0.25564966
0.15140358 0.11365572 0.06145391 0.092392944 0.22511308 0.04833016 0.07024189 0.23045102
0.33882737 0.18070622 0.019122029 0.4990218 0.09399271 0.04652941 0.14266503 0.11268002
0.38579434 0.08361684 0.17094892 0.15232852 0.2008119 0.13295367 0.13695738 0.032176796
0.06607493 0.0107433405 0.1876458 0.091463484 0.024981817 0.039450806 0.04304865 0.011464202
00000000: 8734 e93d dce6 323d 68cc b33e 1716 3e3e
00000010: c6d8 033d 5c7b 743e fb7e b93e f10f 863d
00000020: dabd 4f3d e410 493e 28df d73d 37bd 403c
00000030: d25b 083d f106 353f 5e9c ad3e a4d3 763e
00000040: 120c e43d 0509 8b3c 3055 dc3d 5c0e e13b
00000050: 13ed 0d3c b4d3 f03d 6cb1 9f3d cbd2 223e
00000060: 11b0 653e f1dc ac3e 156f 8b3e 0d16 9b3e
00000070: c780 0f3e ad1b 403e a55c 9f3c 83e4 823e
00000080: 8a09 1b3e 55c4 e83d 18b7 7b3d 8338 bd3d
00000090: 0b84 663e d9f5 453d fbda 8f3d 5afb 6b3e
000000a0: c87a ad3e 0d0b 393e cda5 9c3c c97f ff3e
000000b0: 407f c03d 9f95 3e3d c816 123e c8c4 e63d
000000c0: d686 c53e 4e3f ab3d 3c0d 2f3e 02fc 1b3e
000000d0: a2a1 4d3e 0225 083e 8e3e 0c3e d1cb 033d
000000e0: 4b52 873d d604 303c 3826 403e 3551 bb3d
000000f0: aba6 cc3c 2b97 213d c853 303d 59d4 3b3c

actor.network.task_encoder.6.weight f4 [32, 64]
0.1003546 0.0955676 -0.122135945 -0.004716163 -0.007555575 0.070460476 0.06861922 0.043799352
0.09349975 0.04032049 0.015887385 -0.0021455276 0.044770557 0.06434884 -0.016509948 -0.07516209
-0.09017036 -0.07064144 0.10107816 -0.050133552 -0.07252188 -0.0270037 0.03335529 -0.070476174
-0.028161466 -0.040085178 0.02450604 0.056066256 0.07214758 -0.06431286 0.07278074 -0.04333413
-0.001884639 0.026363814 0.090091266 -0.12167891 -0.06702521 -0.010462822 0.00024992944 -0.07377872
-0.020574005 -0.12708205 -0.007775422 -0.12144317 0.11026799 0.057346877 0.058299005 0.033296138
0.048594307 0.084999815 0.04811174 -0.025411075 -0.04963788 0.101186655 -0.009903608 0.0026396038
0.11133527 -0.09512268 0.056105997 0.058550853 -0.04892327 -0.042111177 0.047684167 -0.08973264
0.085417174 0.112313986 -0.120946094 -0.12184327 0.11390517 0.024329724 0.050046094 -0.066251725
-0.023517195 0.008106397 -0.016966872 -0.036466215 0.049254898 -0.023600115 -0.043192774 0.008236898
-0.014023936 -0.03794473 -0.12571372 0.10920067 0.06983043 -0.08333751 0.0440717 0.10085953
-0.11401508 -0.015340072 0.12030784 0.0086467 -0.004424003 0.036184687 -0.050937496 -0.093673475
-0.118200965 0.09109465 -0.009740758 -0.065586045 -0.038632907 0.08765365 -0.11708279 -0.0096711675
-0.005423374 -0.043114144 0.055278488 0.07158153 0.08587807 -0.10529603 0.08068353 0.014457513
-0.088269494 -0.03177428 0.06331004 0.06650652 -0.035267513 0.004398059 0.10760673 -0.047917686
-0.12755182 -0.054849803 0.057979308 0.077148855 0.044458527 0.06863252 0.06678408 0.091569945
0.032824628 -0.0010472803 0.10996928 -0.085291475 0.014258744 0.0060104793 0.06670985 0.06847637
-0.12479226 -0.098446354 0.019430513 -0.018356437 -0.07024823 -0.09064653 0.06121326 -0.04023072
0.06286049 -0.09599386 0.02602637 0.011321257 -0.027111359 -0.053990666 0.08416437 -0.0658092
0.041504513 0.09149667 0.061613914 0.017364368 -0.011080694 0.06334878 0.049114466 -0.015036993
-0.075572774 0.0340242 0.06659937 -0.025921147 0.092942625 -0.0578443 0.042411726 -0.06458072
-0.03271594 0.05501158 -0.03724673 -0.07605427 -0.070133306 0.0367664 0.019171268 0.029170813
-0.113085635 0.12025215 0.054472215 -0.05215263 0.10380503 -0.012147514 0.056506094 -0.044777907
0.116594195 -0.04471185 -0.019141806 0.041396935 0.046436563 -0.03473985 0.034611184 0.008411704
0.033718172 -0.05397602 0.037646838 0.049723364 -0.08487219 -0.06690446 0.04295038 -0.089156315
0.021937182 -0.07842504 -0.0037420217 0.098836936 -0.11229221 -0.113092266 0.012933188 0.07972362
0.07779632 -0.018419499 0.12505738 -0.10634736 0.12511465 -0.12187268 -0.06436276 0.010976401
-0.10403225 0.078269646 0.052501854 0.002181229 0.120678246 0.004322864 0.115148894 0.068998046
0.09829701 -0.061879575 -0.114192285 0.039838027 -0.11589258 -0.009539144 -0.087875105 0.09977281
0.014799369 -0.08603581 0.013454109 0.0016942217 -0.051376473 0.025033541 0.118367344 0.04873804
-0.03028814 -0.059481505 0.043887265 -0.06556382 0.033495553 -0.02807329 0.060374524 -0.02475184
-0.065603435 0.07255128 -0.017278863 -0.044693116 0.03625013 -0.05208315 -0.020792581 0.10683584
00000000: b686 cd3d f2b8 c33d 6922 fabd 0b8a 9abb
00000010: c294 f7bb 954d 903d 3c88 8c3d f366 333d
00000020: cc7c bf3d 1927 253d 4326 823c fb9b 0cbb
00000030: 5561 373d 53c9 833d df3f 87bc 95ee 99bd
00000040: 3dab b8bd 76ac 90bd 1102 cf3d d758 4dbd
00000050: 5a86 94bd dd36 ddbc 8e9f 083d d055 90bd
00000060: e0b2 e6bc 5b30 24bd e4c0 c83c bba5 653d
00000070: 1cc2 933d 76b6 83bd 120e 953d 217f 31bd
00000080: fe05 f7ba edf8 d73c c581 b83d cb32 f9bd
00000090: 8344 89bd 426c 2bbc f608 8339 4c19 97bd
000000a0: d18a a8bc cc21 02be f8c8 febb 32b7 f8bd
000000b0: 2fd4 e13d 8fe4 6a3d f0ca 6e3d 8861 083d
000000c0: d30a 473d 6214 ae3d d110 453d e32a d0bc
000000d0: 1751 4bbd f33a cf3d be42 22bc 34fd 2c3b
000000e0: bf03 e43d aecf c2bd 67cf 653d 05d3 6f3d
000000f0: c463 48bd c57c 2cbd 7950 433d bfc5 b7bd
00000100: 33ef ae3d e004 e63d 96b2 f7bd f788 f9bd
00000110: 1d47 e93d 214f c73c 22fd 4c3d fcae 87bd
00000120: 22a7 c0bc b2d0 043c 1cfe 8abc 995d 15bd
00000130: 81bf 493d 0755 c1bc e8ea 30bd 0ef4 063c
00000140: a7c4 65bc ef6b 1bbd 19bb 00be 9aa4 df3d
00000150: 4203 8f3d dbac aabd 8784 343d 718f ce3d
00000160: bd80 e9bd ed54 7bbc f563 f63d e3aa 0d3c
00000170: 3af7 90bb 6536 143d d6a3 50bd e1d7 bfbd
00000180: 5913 f2bd d58f ba3d b397 1fbc fa51 86bd
00000190: 8a3d 1ebd c283 b33d 1ac9 efbd d173 1ebc
000001a0: 8fb6 b1bb 7598 30bd b26b 623d 5699 923d
000001b0: d7e0 af3d 72a5 d7bd 683d a53d 34df 6c3c
000001c0: a3c6 b4bd bf25 02bd b2a8 813d 9234 883d
000001d0: ab74 10bd 981d 903b eb60 dc3d 5645 44bd
000001e0: f29c 02be 30aa 60bd b67b 6d3d 3800 9e3d
000001f0: 251a 363d 358f 8c3d 17c6 883d 0689 bb3d
00000200: 1e73 063d e544 89ba 9337 e13d 4cad aebd
00000210: 829d 693c 8ef3 c43b 2d9f 883d 573d 8c3d
00000220: 1693 ffbd 3e9e c9bd bd2c 9f3c 3d60 96bc
00000230: 4ede 8fbd e3a4 b9bd c1ba 7a3d f8c8 24bd
00000240: 00bd 803d 6e98 c4bd 4135 d53c cb7c 393c
00000250: a418 debc 5125 5dbd 5f5e ac3d f9c6 86bd
00000260: a300 2a3d 9b62 bb3d df5e 7c3d b83f 8e3c
00000270: cd8b 35bc 01bd 813d 402c 493d b85d 76bc
00000280: e6c5 9abd f65c 0b3d 4065 883d 9658 d4bc
00000290: b458 be3d 25ee 6cbd ebb7 2d3d e642 84bd
000002a0: 2601 06bd d353 613d 0790 18bd 57c2 9bbd
000002b0: 0da2 8fbd 5d98 163d 100d 9d3c a1f7 ee3c
000002c0: 7199 e7bd c246 f63d 421e 5f3d ff9d 55bd
000002d0: bb97 d43d 5e06 47bc ef72 673d 0a69 37bd
000002e0: f0c8 ee3d c623 37bd 47cf 9cbc d58f 293d
000002f0: 4434 3e3d 5f4b 0ebd 75c4 0d3d 3ed1 093c
00000300: 111c 0a3d f615 5dbd 9233 1a3d baaa 4b3d
00000310: 79d1 adbd 3505 89bd bdec 2f3d 9697 b6bd
00000320: 9bb5 b33c 4f9d a0bd b53c 75bb 056b ca3d
00000330: 75f9 e5bd eb9c e7bd b9e5 533c 2346 a33d
00000340: ad53 9f3d 7de4 96bc 0b0f 003e a5cc d9bd
00000350: 0e1e 003e 6298 f9bd 9fd0 83bd 5dd6 333c
00000360: dc0e d5bd d64b a03d 2f0c 573d f3f2 0e3b
00000370: 2826 f73d d0a6 8d3b 2fd3 eb3d d94e 8d3d
00000380: f14f c93d 7075 7dbd a5dd e9bd 332d 233d
00000390: 1759 edbd 124a 1cbc ddf7 b3bd b055 cc3d
000003a0: 0d79 723c 8b33 b0bd a06e 5c3c a610 de3a
000003b0: 2370 52bd 2413 cd3c 946a f23d 8aa1 473d
000003c0: d51e f8bc e1a2 73bd 22c3 333d 5346 86bd
000003d0: a232 093d f5f9 e5bc 474b 773d 5fc4 cabc
000003e0: 185b 86bd c495 943d 678c 8dbc 2110 37bd
000003f0: 047b 143d 2455 55bd 3455 aabc c0cc da3d

actor.network.task_encoder.6.bias f4 [32]
0.030383278 -0.0163871 0.07983419 -0.05956672 0.116602935 0.118552774 -0.023821488 0.0746953
-0.021607973 0.06618797 0.083613895 -0.01766235 -0.027071733 -0.054161023 -0.060898226 0.07188888
0.00064232276 0.08470585 0.024101388 -0.11883742 0.05723679 -0.070588686 0.101788655 0.07078342
0.041644737 -0.12195992 0.124925554 -0.09387176 -0.004662037 0.1113201 -0.025333256 -0.020819025
00000000: 5ae6 f83c 3d3e 86bc 1c80 a33d 3cfc 73bd
00000010: 85cd ee3d cccb f23d 4825 c3bc d9f9 983d
00000020: 3403 b1bc 8f8d 873d c33d ab3d a2b0 90bc
00000030: 8ac5 ddbc f3d7 5dbd 6b70 79bd 7a3a 933d
00000040: 8d61 283a 437a ad3d 4670 c53c 0961 f3bd
00000050: 2071 6a3d cd90 90bd 9276 d03d e6f6 903d
00000060: ac93 2a3d 1fc6 f9bd f8d8 ff3d d63f c0bd
00000070: 00c4 98bb cbfb e33d b087 cfbc a98c aabc

actor.network.vm_encoder.0.weight f4 [64, 10]
0.29453328 -0.038379118 -0.24284944 0.24392779 0.28002575 -0.2393017 -0.20416826 0.078637555
0.20429403 0.21676426 0.22372945 0.020684803 0.17048205 -0.052473716 0.25649622 -0.0032372507
0.064858444 -0.20037931 -0.054137643 -0.22568227 -0.091706134 0.010397515 0.19656105 0.015591547
-0.028913597 0.17151113 -0.19740205 -0.2301484 0.15254623 -0.3092541 -0.2813802 -0.2824473
0.25009924 -0.0023907665 0.22467305 -0.074479684 0.26700345 -0.15942056 0.22911595 0.24713375
-0.17585859 0.044612817 -0.18944699 -0.09190143 0.102743596 0.27630562 0.01993907 -0.3090467
-0.26946503 0.09297959 -0.27434584 -0.14179944 0.039881516 -0.22805539 -0.16486563 -0.12992926
-0.18456653 0.2775524 -0.20939544 -0.03859386 -0.14033084 0.0702855 0.30780038 0.033738717
-0.045281842 -0.27348876 -0.05485791 -0.09531017 -0.23114224 0.17811629 0.16366953 -0.2799475
0.25500035 0.04859963 -0.2789183 -0.16895215 0.0015721868 0.022372123 0.17597316 -0.29652068
0.29017067 0.06597334 0.23204805 -0.045101203 -0.021092445 -0.24264143 -0.07678708 0.08515011
-0.126595 -0.078748494 0.12214116 0.2217423 0.2755198 -0.21547392 -0.06183785 -0.086478606
-0.28402835 0.13337879 0.17388818 0.0891611 0.11746592 -0.094029024 -0.13275403 0.1113321
-0.10691313 -0.12191049 0.2225751 -0.26184165 -0.04298878 0.00949108 0.31275225 -0.13386367
0.21637404 -0.12235969 0.073075585 0.0057839765 -0.3035453 -0.012305814 -0.19471866 0.061196774
-0.14365567 -0.28765956 -0.19956544 -0.03105325 0.054681532 -0.08804994 0.26525158 -0.26137945
0.3115407 -0.021039922 -0.26924336 -0.07516598 0.2392517 0.30122194 -0.28228056 -0.0704793
0.08848945 0.25262377 -0.05644225 -0.29078758 0.006864328 0.30337152 -0.21062478 0.19960457
0.2602938 -0.07737812 0.28818756 0.04304272 -0.15944278 0.18725061 -0.27454647 0.21102637
0.0021950314 0.21283306 -0.23822421 -0.15249173 0.23208003 0.22105987 0.27552167 -0.028632088
0.058212552 -0.13442878 0.15268934 -0.24348405 0.11491322 -0.07696596 0.061934374 -0.13044907
-0.26190186 -0.18603642 -0.21768537 0.23945656 0.07814815 0.19125693 -0.027518589 -0.13644028
-0.24486758 0.30545396 -0.25079295 -0.032465428 -0.17369306 -0.29077128 -0.21469255 -0.17455012
0.08854439 0.17306797 0.022841873 -0.036794662 0.14024398 0.054400265 0.052416693 0.18855532
0.2774638 -0.013317225 -0.271437 -0.24617934 -0.1888844 -0.21564524 -0.085658304 0.2843618
-0.24083337 -0.026432622 0.26406854 -0.10372969 -0.23491274 0.088395454 0.28159773 -0.18716572
0.09285229 -0.06890123 -0.021152714 -0.14873454 0.14435151 -0.17032789 -0.2159548 0.16414605
-0.22336839 0.05901254 -0.09142053 -0.21002963 0.0686248 0.29832432 -0.18470275 0.109340146
0.19837344 0.28691745 0.07454789 -0.14545906 -0.11122304 -0.28291148 -0.29795536 0.2660539
0.12805766 0.08656786 0.13209322 -0.16559984 0.30261815 0.049777832 0.20529673 0.10456763
0.049998593 -0.044839226 -0.3032997 0.26165393 0.2086951 0.31335786 0.026293848 0.115992874
0.17920654 0.0168805 -0.2577938 0.29219505 0.22852905 -0.00714213 0.2737942 -0.11628551
00000000: 11cd 963e 6c33 1dbd 86ad 78be 35c8 793e
00000010: 895f 8f3e 810b 75be 7c11 51be ba0c a13d
00000020: 7432 513e 73f7 5d3e 5519 653e 2d73 a93c
00000030: d992 2e3e aeee 56bd 7953 833e 0e28 54bb
00000040: 81d4 843d 3c30 4dbe 6fbf 5dbd 4119 67be
00000050: 6dd0 bbbd 575a 2a3c 4d47 493e b073 7f3c
00000060: 35dc ecbc 9da0 2f3e c323 4abe 06ac 6bbe
00000070: 1435 1c3e 8e56 9ebe 1111 90be ef9c 90be
00000080: 020d 803e 68ae 1cbb b110 663e ce88 98bd
00000090: adb4 883e 253f 23be 5f9d 6a3e a110 7d3e
000000a0: 4614 34be eebb 363d 64fe 41be d136 bcbd
000000b0: 3c6b d23d ee77 8d3e 4357 a33c 5e3b 9ebe
000000c0: 52f7 89be 156c be3d 0f77 8cbe df33 11be
000000d0: cd5a 233d 5a87 69be 89d2 28be 2d0c 05be
000000e0: 02ff 3cbe 591b 8e3e c26b 56be 9814 1ebd
000000f0: e3b2 0fbe d8f1 8f3d 0398 9d3e 9c31 0a3d
00000100: 7479 39bd b806 8cbe b0b2 60bd fa31 c3bd
00000110: 8db0 6cbe 1e64 363e fc98 273e 4755 8fbe
00000120: 688f 823e 6810 473d 61ce 8ebe cb01 2dbe
00000130: d611 ce3a be45 b73c 4f32 343e 8fd1 97be
00000140: 4091 943e 081d 873d 019e 6d3e 0abc 38bd
00000150: 10ca acbc ff76 78be 8b42 9dbd 2e63 ae3d
00000160: 1fa2 01be e446 a1bd 2525 fa3d 6a10 633e
00000170: ee10 8d3e 32a5 5cbe af49 7dbd b21b b1bd
00000180: 2a6c 91be 7394 083e be0f 323e 189a b63d
00000190: f991 f03d 4a92 c0bd acf0 07be 1602 e43d
000001a0: 45f5 dabd 35ac f9bd baea 633e 1c10 86be
000001b0: 0115 30bd 7a80 1b3c 1021 a03e 8f13 09be
000001c0: 2891 5d3e b897 fabd a7a8 953d 8387 bd3b
000001d0: 4a6a 9bbe 539e 49bc 5464 47be 78a9 7a3d
000001e0: 791a 13be 1d48 93be e25a 4cbe 6363 febc
000001f0: bef9 5f3d 8753 b4bd 0ecf 873e 87d3 85be
00000200: 4382 9f3e ea5b acbc 44da 89be 9ff0 99bd
00000210: 66fe 743e c339 9a3e 1487 90be 7457 90bd
00000220: f539 b53d e757 813e fd2f 67bd 1ce2 94be
00000230: 28ee e03b 8353 9b3e 06ae 57be 2465 4c3e
00000240: 3b45 853e 6b78 9ebd 528d 933e 904d 303d
00000250: f844 23be a0be 3f3e 5b91 8cbe 4c17 583e
00000260: 84da 0f3b e9f0 593e 0cf1 73be cb26 1cbe
00000270: 63a6 6d3e 855d 623e 2d11 8d3e d78d eabc
00000280: 4970 6e3d b3a7 09be 985a 1c3e e253 79be
00000290: 9f57 eb3d 54a0 9dbd e6ae 7d3d 7194 05be
000002a0: 0018 86be 5580 3ebe eae8 5ebe 1a34 753e
000002b0: 230c a03d dbd8 433e aa6e e1bc 00b7 0bbe
000002c0: 91be 7abe 7664 9c3e ef67 80be 78fa 04bd
000002d0: 98dc 31be f9df 94be 5dd8 5bbe 44bd 32be
000002e0: c356 b53d bb38 313e e11e bb3c 00b6 16bd
000002f0: 1e9c 0f3e d0d2 5e3d e3b2 563d a514 413e
00000300: bc0f 8e3e 7d30 5abc caf9 8abe 7016 7cbe
00000310: ea6a 41be 1bd2 5cbe 9f6d afbd df97 913e
00000320: 069d 76be 3a89 d8bc fe33 873e 3b70 d4bd
00000330: f78c 70be ad08 b53d 942d 903e 5fa8 3fbe
00000340: 5729 be3d 171c 8dbd 7548 adbc de4d 18be
00000350: e2d0 133e 6f6a 2ebe 4123 5dbe e715 283e
00000360: afba 64be 22b7 713d b03a bbbd 0212 57be
00000370: 298b 8c3d f7bd 983e b822 3dbe baed df3d
00000380: 6822 4b3e d8e6 923e 90ac 983d 38f3 14be
00000390: e8c8 e3bd c6d9 90be 9b8d 98be 3738 883e
000003a0: 8c21 033e 7d4a b13d 7243 073e 0193 29be
000003b0: c4f0 9a3e d7e3 4b3d 4e39 523e 8e27 d63d
000003c0: 53cb 4c3d 56a9 37bd 194a 9bbe 81f7 853e
000003d0: 2bb4 553e 7170 a03e 3266 d73c ac8d ed3d
000003e0: eb81 373e f948 8a3c 8dfd 83be 979a 953e
000003f0: 8503 6a3e 8708 eabb c12e 8c3e 1927 eebd

actor.network.vm_encoder.0.bias f4 [64]
-0.20583695 -0.15009099 0.27775314 -0.1814105 -0.08051948 -0.103258334 0.11311874 0.2802762
-0.08727778 -0.29395467 -0.31290618 -0.21635303 0.13429055 0.070362024 -0.16846126 -0.16382216
0.05203006 -0.31520405 0.21894683 -0.091530934 -0.21075357 -0.06289367 0.15388183 0.20559557
-0.2486283 0.25199464 0.23574628 -0.23699541 0.14661753 0.15250407 -0.085271 -0.0141136
-0.16035743 -0.03336199 -0.30631736 0.19472669 0.31234536 0.21966673 -0.12609588 -0.20674278
0.051408846 0.28605872 -0.24722178 -0.26188815 -0.21064961 0.16580793 0.009867453 0.020945894
0.24709901 -0.13040027 -0.22349565 -0.1414184 -0.02893655 -0.17003037 -0.026523283 0.07911289
0.30062836 0.01942511 0.101113886 0.22465536 0.066032305 0.28981385 0.26338062 0.2983721
00000000: ecc6 52be 74b1 19be a935 8e3e adc3 39be
00000010: 66e7 a4bd 1b79 d3bd ccaa e73d 5d80 8f3e
00000020: b1be b2bd 3a81 96be 3d35 a0be a68b 5dbe
00000030: 7683 093e f719 903d 1c81 2cbe ffc0 27be
00000040: 791d 553d 6d62 a1be 9933 603e 9274 bbbd
00000050: c9cf 57be 65ce 80bd 3393 1d3e a587 523e
00000060: 6b98 7ebe 7105 813e 7967 713e edae 72be
00000070: e822 163e 072a 1c3e 90a2 aebd bb3c 67bc
00000080: bd34 24be 95a6 08bd a1d5 9cbe 6f66 473e
00000090: bbeb 9f3e 51f0 603e 471f 01be 61b4 53be
000000a0: 1592 523d 4a76 923e b527 7dbe 3416 86be
000000b0: 88b4 57be 8ec9 293e 19ab 213c b996 ab3c
000000c0: 8607 7d3e a687 05be 0bdc 64be fccf 10be
000000d0: 580c edbc 711c 2ebe 5b47 d9bc f005 a23d
000000e0: f6eb 993e 6921 9f3c cc14 cf3d 0e0c 663e
000000f0: f23b 873d 7b62 943e d3d9 863e 3ac4 983e

actor.network.vm_encoder.1.weight f4 [64]
1.0063486 0.99269295 1.0063171 0.999065 0.99373335 0.99702656 0.9872785 1.0131102
0.9915947 0.9897497 0.99933255 1.0067767 0.9989057 1.0033181 1.0015458 0.9963628
0.99777806 1.0039743 1.0057836 0.9975292 0.9971647 1.0024896 0.9831348 0.9969719
1.0053518 1.0092888 1.0145642 1.0008789 1.0155315 0.99455714 0.9967111 0.99131906
0.99495894 1.0007224 0.98998684 1.0043417 1.0027297 0.9973887 0.9967098 1.0004127
1.0016129 1.0011554 0.99713194 0.9996992 1.0180206 0.9936439 1.0096067 0.9910468
1.0098006 1.0090433 1.0074337 0.994254 0.9967612 1.0048084 1.0097705 0.9963348
0.9980068 1.0005904 0.9845445 1.0040882 0.9899758 1.0047457 1.0024481 1.0097995
00000000: 08d0 803f 2021 7e3f 00cf 803f b9c2 7f3f
00000010: 4f65 7e3f 223d 7f3f 49be 7c3f 98ad 813f
00000020: 26d9 7d3f 3d60 7d3f 42d4 7f3f 0fde 803f
00000030: 49b8 7f3f ba6c 803f a732 803f a211 7f3f
00000040: 626e 7f3f 3b82 803f 84bd 803f 135e 7f3f
00000050: 3046 7f3f 9451 803f b9ae 7b3f 8d39 7f3f
00000060: 5eaf 803f 6030 813f 3ddd 813f cd1c 803f
00000070: f0fc 813f 4c9b 7e3f 7528 7f3f 16c7 7d3f
00000080: a1b5 7e3f ac17 803f c76f 7d3f 458e 803f
00000090: 7259 803f de54 7f3f 6028 7f3f 860d 803f
000000a0: da34 803f dc25 803f 0a44 7f3f 49ec 7f3f
000000b0: 804e 823f 725f 7e3f cb3a 813f 3eb5 7d3f
000000c0: 2541 813f 5528 813f 96f3 803f 6e87 7e3f
000000d0: be2b 7f3f 909d 803f 2940 813f cc0f 7f3f
000000e0: 607d 7f3f 5913 803f 1c0b 7c3f f685 803f
000000f0: 0e6f 7d3f 829b 803f 3850 803f 1c41 813f

actor.network.vm_encoder.1.bias f4 [64]
0.002312953 0.0038286299 0.0116076 0.007663895 -0.012943429 0.0034415773 0.0023431089 0.014829405
-0.009864267 0.0063241487 -0.0029098275 0.010734068 -0.004016169 -0.010549574 -0.0035154931 0.0033616535
0.003547396 0.009165701 0.0015028737 0.0012280147 -0.011904487 3.2526637e-05 -0.017612448 0.014990046
0.0070673316 -0.0060889246 0.009601486 -0.00316415 0.012871781 0.005533061 0.0051064 -0.000281639
-0.0001745509 -0.00841788 -0.011358098 -0.0021195186 -0.00030653345 -0.001979664 0.0113422135 -0.0010939459
0.003718516 -0.0008387815 -0.0060008685 -0.012249855 0.0005931957 -0.010832239 -0.0015535739 0.007981566
0.0046137352 0.0031799152 -0.008389052 -0.011896191 0.00032968653 0.004025977 0.0077661085 0.015379201
0.0026601478 0.011900676 -0.0046918257 0.0017325853 -0.018803481 0.010324567 0.0021383376 0.012230757
00000000: e994 173b c0e9 7a3b ce2d 3e3c 6921 fb3b
00000010: ad10 54bc 168c 613b d88e 193b 08f7 723c
00000020: bc9d 21bc ce3a cf3b ceb2 3ebb f2dd 2f3c
00000030: 119a 83bb 1fd8 2cbc 3064 66bb 304f 5c3b
00000040: 6e7b 683b bd2b 163c 13fc c43a 56f5 a03a
00000050: 0a0b 43bc 366d 0838 fb47 90bc cf98 753c
00000060: 1395 e73b 9a85 c7bb 8d4f 1d3c a15d 4fbb
00000070: 2ae4 523c ae4e b53b 9753 a73b f2a8 93b9
00000080: a707 37b9 26eb 09bc 5117 3abc 9fe7 0abb
00000090: 39b6 a0b9 40bd 01bb b1d4 393c bc62 8fba
000000a0: 59b2 733b ace1 5bba efa2 c4bb 9eb3 48bc
000000b0: b180 1b3a b479 31bc 4aa1 cbba 1dc5 023c
000000c0: d12e 973b 2066 503b 3c72 09bc 3ee8 42bc
000000d0: c7d9 ac39 58ec 833b d77a fe3b 0bf9 7b3c
000000e0: e055 2e3b 0efb 423c e3bd 99bb ea17 e33a
000000f0: c209 9abc 5f28 293c 5a23 0c3b 8363 483c

actor.network.vm_encoder.1.running_mean f4 [64]
-141.24486 188.68297 178.77763 265.174 -173.18903 -25.367126 281.20096 198.93474
202.972 209.5995 -121.75122 190.7005 -179.50546 223.45302 -121.478325 -1.5119971
120.07981 97.10418 -210.80583 210.0554 189.73436 71.78164 -121.55446 152.88437
-205.12572 251.99539 -113.59897 -176.76482 -76.82613 125.60352 40.878765 231.71764
131.58344 5.5004144 -130.20091 -51.880123 -353.43585 137.13191 110.77445 22.136663
144.4144 25.494547 109.53899 -18.292414 -51.574333 -178.99963 -15.74222 260.68015
177.3721 16.353832 -7.700593 -182.49551 -126.39498 175.13704 -189.92784 1.26715
-119.15415 331.24716 -0.5417225 -31.769436 -3.972739 236.99112 -113.98726 -218.03857
00000000: af3e 0dc3 d7ae 3c43 13c7 3243 4696 8443
00000010: 6430 2dc3 e0ef cac1 b999 8c43 4bef 4643
00000020: d5f8 4a43 7999 5143 a080 f3c2 54b3 3e43
00000030: 6681 33c3 f973 5f43 e7f4 f2c2 1f89 c1bf
00000040: dd28 f042 5735 c242 4bce 52c3 2f0e 5243
00000050: ffbb 3d43 3390 8f42 e21b f3c2 66e2 1843
00000060: 2f20 4dc3 d2fe 7b43 ac32 e3c2 cbc3 30c3
00000070: fba6 99c2 0135 fb42 db83 2342 b7b7 6743
00000080: 5c95 0343 6503 b040 6f33 02c3 3f85 4fc2
00000090: cab7 b0c3 c521 0943 858c dd42 e317 b141
000000a0: 166a 1043 d5f4 cb41 f613 db42 dd56 92c1
000000b0: 1e4c 4ec2 e8ff 32c3 22e0 7bc1 0f57 8243
000000c0: 425f 3143 a6d4 8241 426b f6c0 da7e 36c3
000000d0: 3bca fcc2 1523 2f43 87ed 3dc3 f931 a23f
000000e0: ed4e eec2 a39f a543 53ae 0abf ce27 fec1
000000f0: 5b41 7ec0 bafd 6c43 7af9 e3c2 e009 5ac3

actor.network.vm_encoder.1.running_var f4 [64]
26238.246 6898.343 11898.6875 15791.71 10974.304 1960.6407 28933.951 23312.658
17242.184 27829.875 5399.1553 14889.687 12395.124 17038.043 19945.137 5.456357
8272.866 1201.9957 12901.952 28312.709 26684.896 10155.871 14010.978 3456.6084
37039.58 12507.038 6177.237 8647.131 1055.8407 8883.841 4938.1177 14601.159
3329.5947 1.9005867 10159.317 4435.3496 25137.46 1561.3904 8973.905 2419.82
730.7216 6712.885 12869.658 2528.071 10799.176 7503.2188 8708.514 18891.326
12299.8125 1477.2076 64.12867 19845.691 4855.253 14169.629 10745.745 15.042041
143.7059 15579.262 642.65796 1097.2295 1539.5189 5428.709 2943.6072 21169.14
00000000: 7efc cc46 be92 d745 c0ea 3946 d7be 7646
00000010: 3779 2b46 8114 f544 e70b e246 5121 b646
00000020: 5eb4 8646 c06b d946 3eb9 a845 bfa6 6846
00000030: 7fac 4146 161c 8546 46d2 9b46 7a9a ae40
00000040: 7743 0146 dd3f 9644 cf97 4946 6b31 dd46
00000050: cb79 d046 7caf 1e46 e9eb 5a46 bc09 5845
00000060: 94af 1047 276c 4346 e509 c145 861c 0746
00000070: e7fa 8344 5dcf 0a46 f150 9a45 a324 6446
00000080: 8419 5045 6d46 f33f 45bd 1e46 cc9a 8a45
00000090: ec62 c446 7e2c c344 9f37 0c46 1f3d 1745
000000a0: 2fae 3644 14c7 d145 a216 4946 2301 1e45
000000b0: b4bc 2846 c079 ea45 0e12 0846 a796 9346
000000c0: 402f 4046 a5a6 b844 e141 8042 620b 9b46
000000d0: 06ba 9745 8466 5d46 fbe6 2746 33ac 7041
000000e0: b6b4 0f43 0c6d 7346 1caa 2044 5827 8944
000000f0: 9b70 c044 aca5 a945 b7f9 3745 4862 a546
